scripts/second-order ODE/model.pth (torch, 3337 bytes, 3 tensors)

weight f4 [16, 1]
0	0xbfbc9283	-1.4732212
1	0xbfbf3315	-1.4937464
2	0x3ff4278d	1.907457
3	0xc04be2be	-3.1857142
4	0xbf96f07d	-1.1792141
5	0xbfa3cb57	-1.2796429
6	0xbfb48eb6	-1.4106052
7	0xbf7ea03c	-0.9946325
8	0xbfad303b	-1.3530344
9	0x40cf9e55	6.4880776
10	0xbf943176	-1.1577594
11	0xc06c124d	-3.688617
12	0xbd629c99	-0.055325124
13	0x3f92c708	1.146699
14	0xbf619206	-0.8811344
15	0xc13411e7	-11.254371

bias f4 [16]
0	0x3ee26042	0.44214064
1	0x3ef3e84c	0.47638166
2	0xbf8f5143	-1.1196674
3	0xbf216356	-0.630422
4	0xbf346f03	-0.7048189
5	0x3da3d069	0.079987355
6	0x3e4249ff	0.1897354
7	0xbf8fc8aa	-1.1233113
8	0x3e80bd4c	0.25144422
9	0xbfbf104c	-1.4926848
10	0xbe4a3123	-0.19745307
11	0xbf6039e5	-0.8758834
12	0xbd9d80bd	-0.076905705
13	0x3e6d325d	0.23163743
14	0xbf9504d7	-1.1642102
15	0xbbb6bfdb	-0.00557707

weight f4 [1, 16]
0	0x3f0cdc52	0.5502368
1	0x3f7ab08f	0.9792566
2	0xbf45d66c	-0.77280307
3	0xbf59c141	-0.8506051
4	0x3dc6b80a	0.097030714
5	0x3ec1de22	0.37864786
6	0x3ec60a7e	0.3867988
7	0x3dda760d	0.10667048
8	0x3f3415bc	0.70345664
9	0x3f5c0f63	0.8596098
10	0x3e8955a7	0.2682316
11	0xbe8fb4a0	-0.28067493
12	0x3c3eea06	0.011652475
13	0xbe07c6f2	-0.13259485
14	0x3e0fe6bf	0.14052866
15	0xc033276c	-2.7992811
