transfer/dampedSpring/data/transfer_retraining/c(0.55)_model_weights.pth (torch, 13651 bytes, 8 tensors)

fc1.weight f4 [32, 2]
00000000: d019 c73f 9d75 ddbe 00ca c3bf f636 21bf
00000010: 5a15 a1bd a96d cabe 7377 813e f841 c73e
00000020: bb8e 013d 3ef1 df3e 71ed 6f3c 4673 bebe
00000030: 1c24 ecbe a7c4 293e 31e8 da3e 4cca ad3d
00000040: d7f8 7f3e e25a 753f af06 92bf c99a 49bf
00000050: 98f2 d4be b1b4 0ebe 38bb ab3b f999 dc3e
00000060: 8675 94be 5549 083f 2f5a a2bd 73e0 afbe
00000070: e149 32c0 2bea 8cbf b228 c43e d331 1c3e
00000080: 7b4c 683e daa3 8a3e bdd9 d43e 7add f43d
00000090: 30ab 393f 83f4 20bf 0bf2 d0bd b67b babe
000000a0: 0dd6 88bf 4cf0 87bd ee10 bc3e 03a2 123d
000000b0: 688c fcbb 3fd7 b2be 075d 8abc 4bb0 b9be
000000c0: 920b 463f fdca 0bc0 5602 993e 25db bb3e
000000d0: 756a bcbe d9f2 88bd 871b 1dbc 012f d2be
000000e0: 3b24 e3be bd87 a73d 51bc cb3e 74d6 a23c
000000f0: b2b6 d1be 074d 4fbe 8a16 3e3e b964 c53f
1.5554752 -0.43253794 -1.529602 -0.6297449 -0.078654006 -0.3953679 0.25286445 0.38917518
0.03163026 0.4373874 0.014644013 -0.37197322 -0.461213 0.16578923 0.42755273 0.08485851
0.24997269 0.958418 -1.140829 -0.7875181 -0.41591334 -0.13936116 0.005240824 0.43086222
-0.28995913 0.53236896 -0.079273574 -0.3435093 -2.7857592 -1.1008962 0.38312298 0.15253381
0.22685425 0.27078134 0.4157237 0.11956306 0.72526836 -0.62873095 -0.10202416 -0.3642251
-1.0690323 -0.0663763 0.36731666 0.035799038 -0.0077071674 -0.34929845 -0.016890062 -0.36267313
0.77361405 -2.1842644 0.29884595 0.36690632 -0.3679997 -0.066869445 -0.009589083 -0.41051486
-0.4436358 0.08180187 0.39792112 0.01987765 -0.40959698 -0.20244227 0.18563285 1.5421363

fc1.bias f4 [32]
00000000: 215b 83be f313 133c 2784 413e 6ec7 18be
00000010: 2a70 0c3f 78fc d9be caa1 bbbe e952 793e
00000020: 9c69 e53c 3cd8 e23e e7a0 173e 8429 103f
00000030: c5f5 06be f1b3 3fbe 0d1e 84bd 2a73 603f
00000040: 1d1c 0dbf 47f4 4a3d 0278 cabe 7025 12bf
00000050: 0def 103f 2450 50bf 7b2c 953d 0817 bfbe
00000060: 50c9 04bd abe6 32be 3321 8a3e ab20 d93e
00000070: 6a3d 0bbf 926d 19bf d243 0d3f f35e 6cbf
-0.25655463 0.008976924 0.18898068 -0.14919826 0.5485865 -0.4257543 -0.36646873 0.24348034
0.02800446 0.443056 0.14807473 0.5631335 -0.13179691 -0.18720986 -0.06451044 0.87675726
-0.5512102 0.049549367 -0.39544684 -0.57088375 0.5661476 -0.81372285 0.072838746 -0.3732226
-0.03241855 -0.17470805 0.26978454 0.42407736 -0.54390585 -0.59932816 0.5518161 -0.9233238

fc2.weight f4 [32, 32]
00000000: 019b d4bd e1c4 c1be d5f5 01bf 0f00 b6be
00000010: 5c71 d03e ac65 29bf 518e 143f ace1 3abf
00000020: e519 08be fae3 e53d 5484 0b3f 0df8 0a3f
00000030: 95a8 173e de69 96be 1597 3bbe 6a06 22bf
00000040: 8eb5 1c3e 67fc 7abf 4d32 10bf 732a 5dbe
00000050: 5c61 a8bd ab37 84bd c1dd 26bf 9f3a bebe
00000060: b319 0bbe 936c 783d b977 06bf e6fb 69bf
00000070: 4f02 8e3e ba94 26bf 24bd 003f 6be8 4e3c
00000080: 9054 2e3e fa4e 8f3d 9fec e8bc 1019 3fbe
00000090: 86cb 30bf f8ab 2a3e ef6b 97bf 95c0 973e
000000a0: edda fdbc 2d2f 38be 85b1 35bf a5f5 36bf
000000b0: d234 80bf 3abe c83d a715 c63e 9687 a5be
000000c0: e69b 88be c008 0c3e f533 d13d ef0a b33e
000000d0: 0c1a ef3e 0c0e 703f b513 693e 2c06 3e3b
000000e0: 7073 3cbf 63f8 843e 2eb1 0ebf 36cf 003f
000000f0: f9d6 4cbf aa45 2f3f cbcb 5bbe 0406 1dbf
00000100: dba5 a6be 7c49 8e3e 1cce af3a 4265 333f
00000110: 408d 623f 65a3 08be b7bf 403d 0147 2b3f
00000120: ca12 363c 2075 bd3e fd0d 133e ffce 3f3f
00000130: aad0 173e 282c 5e3d ba04 84be b594 7a3f
00000140: 0c58 be3e 2395 0c3f 68ca d33e 0152 afbe
00000150: 12ae 83bd 1fb6 723f 0eff a3be a788 04bf
00000160: e6eb 3d3e d9f5 2a3f 8f36 92be 3a93 893e
00000170: e812 bcbd a538 753e 558e 94be 4964 4ebe
00000180: 2e96 423d d848 d83c dee4 a0be b808 4b3e
00000190: 3eda c63e cb2c 1cbe 50fa a43e ba1e 63bf
000001a0: d5a6 cdbe 716f 043e a082 5dbd a46f b33e
000001b0: 1167 093f 66b1 33bf a504 29bf 20a3 58be
000001c0: dd44 0abf ce84 45bf b515 ac3d 600e 04be
000001d0: 28b8 81be c492 a1be dd3d 15bf f736 03bf
000001e0: f95e 4a3e f0df f93d 290a 693e dd62 25bf
000001f0: c592 a93e df6c 22bf 3f66 313e 3b1f fdbc
00000200: 7f92 89be d3cb d63e 31f0 833e 496f 1dbf
00000210: 1ff8 79bf 2407 2c3e 700e 893e df9a 19bf
00000220: 45bc 28bf 627a 963e 51bf e83e 93bc c4be
00000230: 7d3e d9be 3f3b 963d 9a59 a7be 9cb6 3bbf
00000240: 277b 1ebf e542 3fbf dae7 01bf 1517 293f
00000250: c2b9 723e 2c89 9abe cbc4 443e a62e 823c
00000260: 16f3 523e a676 21bf 616c 14be aa47 8b3e
00000270: 8ab7 753e c98b 26be 51b1 b63d a02b 9c3e
00000280: 0b0a 173d ee3f 233e 9e80 f4bc 559a 4fbf
00000290: 5901 05bf b15e 683e 4b13 f6bc 8003 4e3e
000002a0: 5247 60be fc1f a5bc e7ce 81be 23e1 3ebe
000002b0: bc05 90bf faa8 43be 59e7 bb3d 9d5a c93e
000002c0: 1f03 b93d f18f 80be 5c7e b63e c364 a93e
000002d0: 790d 763d d7e3 983e c25a 953e ca0d f93d
000002e0: c8ab d53e 3b6e b83d bf97 183c 4169 033f
000002f0: 6e0e 5bbf b335 b6bc ef34 67be 4eef a6be
00000300: 1344 84be 6148 2f3d 0299 b03d 3af5 0e3e
00000310: a73c cf3d ae01 98bd 2d53 89be ef05 af3e
00000320: ff68 a63e 3f49 acbe 92ad e1be f645 99bd
00000330: 7257 ab3d 6b98 79be 924d ff3d ae8f bf3e
00000340: fb6e 123f e280 063f 5d0e edbc d42a 70bf
00000350: 4dfa aebe a797 1dbd 5c18 6c3e e568 87be
00000360: 8d38 263e e42e c03e 381c 62bf 903d bebe
00000370: 694b 4c3d f192 153f 067a ffbe 7345 733d
00000380: 817f 933e ae61 23bd 01ba 1ebf 6c09 e9bd
00000390: 440c f83c 0e13 1ebf 86b1 623f e82a 9fbe
000003a0: 7d87 e8bd 4fbc e0bd 2385 8b3e a9a0 a83e
000003b0: 9dbd 153f cc68 53bf 8ee0 b3bd 4a9a 0d3e
000003c0: 8f37 a33d de8b 1fbe 73fe e5be 78b8 6bbf
000003d0: 08eb d53d 593c 52bd 2ce1 1dbe 715d 9cbe
000003e0: 9de5 dbbe 210c b9be cc1f 4b3d 8a33 a8bf
000003f0: f8d5 e33e 024e 1ebf 3c8c e53c a19f 593e
-0.10381127 -0.3784552 -0.50765735 -0.3554692 0.40711486 -0.66170764 0.5802966 -0.730006
-0.13291128 0.11225124 0.5449879 0.54284745 0.14810403 -0.29377645 -0.18319352 -0.6329104
0.15303633 -0.98041385 -0.5632675 -0.21598224 -0.08221695 -0.0645593 -0.6518212 -0.371541
-0.13584022 0.06065042 -0.5252643 -0.9139999 0.27736136 -0.6507069 0.50288606 0.012628655
0.17024446 0.069974855 -0.028433142 -0.18661904 -0.6906055 0.16667163 -1.1829814 0.29639116
-0.030988181 -0.17986746 -0.70974 -0.71468574 -1.001612 0.09801908 0.38688394 -0.32330006
-0.2668144 0.13675213 0.10214988 0.3496928 0.4669956 0.93771434 0.22761424 0.0028995378
-0.73613644 0.25970754 -0.55739105 0.5031618 -0.8001552 0.68465674 -0.2146446 -0.61337304
-0.32548413 0.2779044 0.0013412866 0.7007638 0.8849678 -0.1334358 0.047057834 0.6690522
0.011112878 0.37003422 0.14360805 0.74925226 0.14825693 0.05424133 -0.25784856 0.9788316
0.3717655 0.54915065 0.4136536 -0.34242252 -0.06429686 0.94809145 -0.3203053 -0.51771015
0.1854702 0.66781384 -0.2855725 0.26870137 -0.091832936 0.2394739 -0.2901484 -0.20155443
0.047506504 0.026401922 -0.31424612 0.19827545 0.3883838 -0.15251462 0.32222223 -0.8871876
-0.40166345 0.12933137 -0.05407965 0.35046113 0.5367289 -0.70192564 -0.6602271 -0.21155977
-0.5401133 -0.7715577 0.08402578 -0.12896109 -0.25335813 -0.31557286 -0.5829752 -0.51255745
0.19762792 0.12200916 0.22757782 -0.6460398 0.3311979 -0.63447374 0.1732416 -0.03089868
-0.2686958 0.4195238 0.2576919 -0.6149793 -0.9764423 0.16799599 0.26768827 -0.6000194
-0.65912277 0.29390246 0.45458463 -0.3842512 -0.42430487 0.07335519 -0.32685548 -0.73325515
-0.61906666 -0.7471145 -0.507444 0.66050845 0.23703673 -0.3018278 0.19215696 0.015891384
0.20600542 -0.6307167 -0.14494468 0.27203113 0.23995796 -0.16264261 0.08920539 0.30502033
0.036874812 0.15942356 -0.029846486 -0.81094867 -0.5195518 0.22692372 -0.030038496 0.20118523
-0.21902207 -0.020156853 -0.25353166 -0.1864057 -1.125175 -0.19107428 0.091749854 0.39326945
0.090337984 -0.2510982 0.3564328 0.33084688 0.060071442 0.29861328 0.29170805 0.12160833
0.4173262 0.090054 0.009313523 0.5133248 -0.8556889 -0.022242403 -0.22578786 -0.3260445
-0.25833187 0.042793635 0.08622934 0.13960734 0.101189904 -0.074221954 -0.2682127 0.34184214
0.3250198 -0.33649632 -0.44077736 -0.07484047 0.08366288 -0.24374549 0.12465967 0.37414306
0.5720059 0.5254041 -0.028937513 -0.9381535 -0.3417534 -0.038474705 0.23056167 -0.26447216
0.1623251 0.37535775 -0.8832431 -0.37156343 0.049876604 0.5842734 -0.49897784 0.059392404
0.28808215 -0.039888076 -0.6200257 -0.1137875 0.030279286 -0.61747825 0.8855213 -0.31087422
-0.11353967 -0.10973417 0.27250013 0.32935074 0.5849245 -0.8258178 -0.08783065 0.13828388
0.07969581 -0.15580699 -0.44920692 -0.9207835 0.10445219 -0.051327083 -0.15417928 -0.3054004
-0.4294862 -0.36142066 0.04959087 -1.3140728 0.44499183 -0.6183778 0.02802097 0.212523

fc2.bias f4 [32]
00000000: 5117 45be cc52 67be e9dd 933e 14e9 39be
00000010: 4ef7 a8bc e763 82be 9ddd 21be aa09 b1bd
00000020: 0a49 42be 22d9 55bd e57e cdbe c927 963d
00000030: 4acd 70be cb39 78be c211 18bf 643b 8fbe
00000040: 1291 1fbc 4776 113e 0617 cdbe e24d 93be
00000050: 09d0 d6bd c8d6 94bd 8746 7abe 89e7 8dbd
00000060: 4350 f5be f4d8 8abe d33f 92be 1d9f aebe
00000070: 634f 74bc b6da d3bd 6e2d 753e 6def 02bf
-0.19247176 -0.22590178 0.28880242 -0.18155318 -0.020625737 -0.25466844 -0.15807195 -0.086444214
-0.18973175 -0.052209027 -0.40135875 0.07331807 -0.23515812 -0.24240796 -0.59402096 -0.27975
-0.009739177 0.14205275 -0.40056628 -0.28770357 -0.10488898 -0.07267529 -0.24440967 -0.069289275
-0.47912797 -0.27118647 -0.2856432 -0.3410577 -0.014911505 -0.1034445 0.23943111 -0.51146585

fc3.weight f4 [32, 32]
00000000: 907e 8bbe 39bf cc3e 6250 fcbe 4119 89be
00000010: d5f6 15be 23d1 d13e 98b5 dcbe bb04 5bbe
00000020: 14cb 453d 88a6 a1be cf84 97be 4fd2 d5be
00000030: 8004 81be 74ef aebd 2072 0cbe ec81 bd3d
00000040: c7a7 253e 2e88 263e cdd5 58bd d929 843d
00000050: 6405 4bbf 87d2 bcbe 3bc3 49be 7400 a83e
00000060: c3f7 dc3d 9c19 2b3f 3050 d53e 9491 1b3e
00000070: 5736 fbbd ece9 f3be a7a4 8abf e35e 063e
00000080: a5ac a13e 3287 e5be 6941 83be aa74 ac3e
00000090: 915e d9be 1009 00bf e338 5a3e 2033 d03e
000000a0: 4e78 3bbf 977d 6d3d c782 d53e 2ef3 31bf
000000b0: b35e fabe f578 7ebe d591 d13d ad74 92be
000000c0: d93a ab3d 4fc0 4dbf 60b4 5ebe 1c1b f73e
000000d0: 2adc f53d 3d4b eabe f1c2 913e caf5 8dbe
000000e0: 7db6 6dbe 0369 18bf 860e 25bf 0c6a 15be
000000f0: 4451 f63e 5f73 253f cb10 19be ef2c 46be
00000100: 1937 24bf 5689 173f 27c1 1cbf 1ae9 20bf
00000110: 8d32 183e a863 fbbc cbc5 5abe af37 16bf
00000120: 9dd2 4a3d daaf c4be a059 803f df96 d4be
00000130: 2a2c 87bb 0cb8 493d 428f 713c 3d02 99bc
00000140: b6f6 543e 9ecf 7e3e e1d6 c9be 7d36 743e
00000150: ae03 f0be 8f42 adbe 3838 01be 2390 8abe
00000160: 5b1a f33d 2f4a 783e 7782 7ebe bd12 0d3d
00000170: 6bb5 d4be 801e bf3d cc53 b0bf 4bab 5e3d
00000180: 40fa 043f 04ea 3cbd 2872 2dbe 1713 d23e
00000190: 66f6 32be d6d9 1bbf 391b 49be 473f 6d3f
000001a0: 9d96 d8be 9eb9 eebd 5ad5 c93e c323 66be
000001b0: 073c 94be e29d 04bf f3bb a53e c5cc cc3d
000001c0: c069 98be 6959 99bf 872a 8c3e 6e18 ca3e
000001d0: 7a44 443e f7de 8fbe a1fb c1be dc77 7fbc
000001e0: 8e9e aabd e537 59be 2862 edbd da6b e1be
000001f0: 6260 9e3d 21b8 6b3f f6e4 31bd 30ab 15bf
00000200: 8bc9 7c3e d7af 83bf 0a4c 18bf b2e9 143e
00000210: 892f 3fbf e14b 52be a9ec 18be baae c03e
00000220: 227b d1be 9c40 ec3e 6ea7 7abd b7d0 fc3d
00000230: 2e22 25be 38fd e5be 31aa 453e d354 ba3e
00000240: 1912 b8be 7aaf 9fbf 64d5 713d 4a9c 133f
00000250: bc3a c13e 1cb0 fd3e e970 f03b 6aff 44be
00000260: 0e8e 763e b36f 25bf b0f5 ebbe 76e3 96be
00000270: d710 6c3f 63e7 213f 89f4 643d 327e d2bc
00000280: 5d8f e23e 218d 40bd 52dd 18bf 0378 69bd
00000290: ba9d 193f 6eb6 fdbe 45fc 483e 15f8 943e
000002a0: 014b 1dbf 5490 ba3e 9bfa 72be 63cf e2be
000002b0: 586d d5be a51d 48bf cb7a 3dbe eaa3 05bf
000002c0: a757 093e 4965 55bf 1519 8e3d 81b3 02bf
000002d0: e873 3e3e aa98 313e 3c00 9a3e 5c2f 113e
000002e0: b06c af3e 3815 a1be e618 1f3f 483e 0abc
000002f0: 9a60 c4bd eb77 4a3f 9e0d edbe b814 6fbe
00000300: 0230 55be 3803 1b3f 5828 d5be 65c2 17bf
00000310: 1b98 0abf 6c12 143d ffec b33d 23bb 8abe
00000320: 96a1 a23e 8469 30bf be90 6e3f 84e7 55bf
00000330: 0134 d13e 44ab 83be 5d40 673d 34b8 293f
00000340: 401f 493e 6542 f7be 7cd1 c43d d5f1 7b3f
00000350: c7c4 d2bd 8e54 6ebf db22 d9bc 60b9 18bf
00000360: fa8c 053e 3ea5 453e 89f2 67bf 547d 28bd
00000370: f665 80be c17c 9c3e 2436 18bf c358 0dbe
00000380: 127b 473f 35a5 0abf 3bb8 5dbf d895 3f3f
00000390: e430 a33e 1f9a 59bf 9f99 f7be 8737 113e
000003a0: a838 9fbd bd72 693f 0e97 b6be 20e6 d03e
000003b0: 2836 87bf 4eb9 01bf c1fd d0be b787 4ebf
000003c0: dc98 aebe 88e0 b3be 88bf 02bf 23fd 08be
000003d0: 2e5e 51bd 0836 9cbe c359 063e 4ebb dc3e
000003e0: a2f3 803e 1a22 83bd e09b 493e a901 2ebe
000003f0: e6eb 2c3e 8aac 343e 8338 35bd 6f39 22bc
-0.27244997 0.3998964 -0.49280077 -0.2677708 -0.1464494 0.4097987 -0.43107295 -0.21388523
0.048289374 -0.31572366 -0.29593512 -0.41762015 -0.25198746 -0.08541766 -0.1371541 0.09253296
0.16177283 0.16262886 -0.05293827 0.06453294 -0.793051 -0.3687937 -0.19703381 0.32812846
0.10789444 0.6683595 0.4166274 0.15192252 -0.12266224 -0.47639406 -1.0831498 0.13122134
0.3157703 -0.44829708 -0.2563584 0.33682758 -0.4245496 -0.5001383 0.21310763 0.40664005
-0.73230445 0.0579811 0.41701338 -0.6951169 -0.48900375 -0.24850829 0.102328934 -0.28604642
0.08360834 -0.80371565 -0.21748495 0.4826287 0.120048836 -0.45760527 0.2846904 -0.27726585
-0.23214145 -0.59535235 -0.64475286 -0.14591235 0.48108876 0.6462917 -0.14947812 -0.19353078
-0.6414657 0.59193933 -0.6123223 -0.62855685 0.14863034 -0.030687168 -0.21364515 -0.58678716
0.049517263 -0.38415414 1.0027351 -0.41521356 -0.004125138 0.049247786 0.014743628 -0.018677825
0.20797238 0.24883887 -0.39421752 0.2384891 -0.46877807 -0.33839843 -0.12619102 -0.27063093
0.11870261 0.24247049 -0.24854456 0.0344417 -0.4154466 0.09331989 -1.3775573 0.054362576
0.5194435 -0.046121612 -0.16938078 0.4103019 -0.17476806 -0.60879266 -0.19639291 0.9267468
-0.4230241 -0.116564974 0.39420587 -0.2247458 -0.28952047 -0.5180341 0.32369956 0.09999994
-0.2976818 -1.1980411 0.27376196 0.39471763 0.19166747 -0.28099796 -0.3788729 -0.015592542
-0.08331023 -0.21212728 -0.115909874 -0.44027597 0.07733227 0.92077833 -0.043431245 -0.58464336
0.24686258 -1.0288037 -0.59491026 0.14542273 -0.7468191 -0.20536758 -0.14934029 0.37633306
-0.40914255 0.46143043 -0.06119483 0.12344497 -0.1612632 -0.44919753 0.19303204 0.3639284
-0.35951307 -1.2475426 0.059041396 0.57660353 0.37740123 0.49548423 0.0073376787 -0.19238058
0.24077627 -0.64623564 -0.46085882 -0.29470414 0.92213196 0.63243693 0.05589727 -0.02569494
0.44250003 -0.04700959 -0.5971271 -0.056999218 0.60006297 -0.49553245 0.19627483 0.29095522
-0.6144257 0.3643824 -0.23728411 -0.44298849 -0.41684985 -0.78170234 -0.18503873 -0.5220324
0.13412343 -0.83357674 0.06938378 -0.5105515 0.18598902 0.17343393 0.30078304 0.14178222
0.3426261 -0.314615 0.62147367 -0.008437701 -0.09588738 0.7908923 -0.46299452 -0.23347747
-0.20819095 0.60551786 -0.41632342 -0.59281 -0.54138345 0.03615038 0.08785438 -0.270959
0.31763905 -0.68911004 0.9318961 -0.8355639 0.40859988 -0.25716603 0.056457866 0.66296697
0.19640827 -0.48292843 0.096102685 0.9841588 -0.102914385 -0.9309777 -0.026505878 -0.5965786
0.1304206 0.19301316 -0.90604454 -0.041135147 -0.2507779 0.3056393 -0.5945761 -0.13803391
0.77922165 -0.54158336 -0.8660924 0.7483802 0.31873238 -0.85000795 -0.4835939 0.14181338
-0.07774478 0.911907 -0.3566212 0.4080057 -1.0563402 -0.5067338 -0.408186 -0.80675834
-0.34100997 -0.3513224 -0.51073503 -0.13377814 -0.051115207 -0.30509973 0.13120179 0.43111652
0.25185877 -0.06402989 0.19688368 -0.16992821 0.16886863 0.17643943 -0.044243347 -0.009901389

fc3.bias f4 [32]
00000000: 8598 3dbf a747 2bbf 1f61 babe fffa 19bf
00000010: 79da c7be 6550 41bf 9266 00bf 8928 ddbe
00000020: 5e6e f1be 3fb2 b7be 8178 bdbe 8f98 93be
00000030: c871 31bf ed55 c9be 19f3 0abf a57a 3ebf
00000040: f56a 6abf f0ef 5abe 6795 15bf d7cc 84bf
00000050: 55a4 b5be 3c89 e2be 0642 01bf 2852 24bf
00000060: 18b8 8bbe d131 c4be ada7 d7be 69c7 91bf
00000070: 289f 6bbf cba2 17bf 1bc8 27bf 1a68 9bbf
-0.7406085 -0.6690621 -0.36402223 -0.60148615 -0.3903387 -0.755133 -0.5015651 -0.43194988
-0.47154516 -0.35878178 -0.37006 -0.2882733 -0.6931424 -0.3932337 -0.5427719 -0.7440589
-0.91569453 -0.21380591 -0.58431095 -1.0375012 -0.35476938 -0.44245327 -0.5049137 -0.6418786
-0.2728889 -0.38319257 -0.42120114 -1.138898 -0.9203973 -0.5923278 -0.6553971 -1.2141144

fc4.weight f4 [20, 32]
00000000: a6db 0dbf 9712 713f 9563 70be 3608 7b3f
00000010: 3d2d 703f 4e1d 56be 5ae0 a33f 9328 8cbf
00000020: 11b0 ab3f f1a0 b7bf 7af0 a23f 608a c6bf
00000030: aeac 6c3f 9ed0 c3bf c2f8 89bf ddd2 60bf
00000040: 4ae1 49bf d7ed 8fbf f479 b13f 5d45 6bbf
00000050: fe9d 933f 3044 f8be 33e6 acbf fa25 b03f
00000060: 1515 8abf 4d59 bebf b736 d73d 4b0d 02bf
00000070: 15e0 8bbe 6251 7d3f 6b5c a63f 18ce 043f
00000080: 4d4c 95bf c707 3c3f 55f4 aebf 5a89 933f
00000090: 713a dc3f 7f8a a93e aa67 22bf c34e 533f
000000a0: d73d 96be f650 9d3e 28ef 073f 07d5 65bf
000000b0: e169 0fbf 5163 20bf ba77 0ebe 6fb9 a3bf
000000c0: f04b 4fbf a179 94bf 0fe9 1cbd 2a80 a6be
000000d0: daa9 bd3f f556 b5bf 9541 333f 156d 943e
000000e0: 17b9 48bf 6680 26bf d46c 6cbf 8bb4 85bd
000000f0: 68c3 963d 2733 863f 9601 173f 31d4 e33d
00000100: e51c aebd 4f9c cb3e 1623 84bf 3875 363f
00000110: 9d28 393f 7e15 453f 47c1 94bf 7e8b 953f
00000120: 96a0 71bf f6e8 913f e616 70be 7166 f6be
00000130: b496 98bf b4a3 76be 23fe 933f e926 23bf
00000140: c937 063f 1af9 c4be aa1d 5bbf 1b0e 083e
00000150: 593f d93e d287 61bf 22a5 9c3f 33bc 06bf
00000160: 4a1d 2e3e 532e d83e b1e7 8cbf d663 b23e
00000170: 0cea 213f 32d4 983e b67a 78be d2b2 4bbe
00000180: 7abf babd 7e4a dabe 2222 04be f994 0dbe
00000190: b357 dabe 1513 2d3f f1f5 34bf 2451 023f
000001a0: 6e9e fabe 321d 743f 7341 04bf 7f84 d43e
000001b0: ae04 2bbf f6ae f03e 48ef c83e 75a5 7f3d
000001c0: 9135 d03e 2d81 253f fa08 42bf 8e7a a23d
000001d0: e2ee ebbd 5191 403b 7c97 463f 4c60 50bf
000001e0: 5356 183f 978f ba3e 526c debe b7dd 263f
000001f0: 63b5 103f d4d6 f4be 64cf 08bf 0596 833d
00000200: 0fbf 353f fa65 36bf ec3f 8a3e 0bda 30bf
00000210: 4ab4 1cbf 5b77 dabe f593 01bc 8084 d5be
00000220: 94f3 ce3e 9d85 783e 5aed d7be e9c5 ea3e
00000230: eb90 eb3c e621 9d3e e658 c63e 65e7 a33e
00000240: e109 aabe f0e4 b53e 7827 1dbe 15c9 11be
00000250: a882 4abe 5ea3 6c3f 9b16 bdbd 6362 cfbe
00000260: 8650 1c3f 0424 a93e 63b8 883e 48da ca3e
00000270: cc9d 7abe f0ac ffbe c6c8 c0be 53c3 0ebf
00000280: 2146 dd3e 09a2 c6be a0b8 183f 53c7 a9be
00000290: 2ed5 cabe 6ef9 36bf 3b34 153f 7bd8 f2be
000002a0: 53b4 813e c428 f2be ccc5 323e 0af0 603e
000002b0: aa6e f23e bc31 423d 0ba0 cdbe 41ff f63e
000002c0: 7db4 16bd 8ddf c03e 26a3 413e 0be8 313e
000002d0: 4f55 7abe b1ca af3d e59c aebe a41f 203e
000002e0: 1f06 1abe baab 5cbd 6315 bf3e ecab 44be
000002f0: dfd7 f43d 3824 3abe 491f 9d3d dc4b 97bd
00000300: 04ef a23e e4bd 1f3e fdfd 733e 72ae 043f
00000310: 7c33 d9bd 6bcc 4abb 2cd1 db3e 9833 e2be
00000320: a5cb 393e 2a2e a9be 6fb3 553e c48a 1e3d
00000330: c0b3 cd3e b705 f4bc 5184 b2be 47ad 23bd
00000340: b22a 25bc 64ea a43d b07c e73d 7283 1cbe
00000350: c92e b8be bdf1 a4be d1e2 9dbe 79a2 cb3e
00000360: b641 4cbf ab95 a2be 5cdc 403e b5ad d8bd
00000370: f918 953e c235 79be 89a9 063f cb84 003f
00000380: 932c babd 4223 093f 8e16 09bf 2fcb 1c3e
00000390: 5980 943d 09b3 bf3e 1198 913d 8e41 96bd
000003a0: e71d c53d 1930 87be 97f4 ff3d 5cd9 adbe
000003b0: 3c72 2ebe 7f72 ccbe 37f5 443d f39a 9f3d
000003c0: 581f 8abd 5c5a a4be 964c 9f3e 97ca 823e
000003d0: 360c aa3e 9825 cd3d a9c8 7a3d 6606 f13d
000003e0: cc90 05be e9d7 6fbd 219f debd 5877 5cbe
000003f0: c0a3 2f3e c200 9ebc 9a1f 8d3e c9df bb3c
-0.5541328 0.9416899 -0.23475488 0.98059404 0.9381903 -0.20909616 1.2802842 -1.0949882
1.3413106 -1.434599 1.2729638 -1.5510979 0.9245099 -1.529804 -1.077904 -0.8782175
-0.7885939 -1.1244458 1.3865342 -0.91902715 1.153259 -0.48489523 -1.3507751 1.376159
-1.0787684 -1.4871002 0.10508483 -0.50801533 -0.273194 0.98952305 1.2996954 0.51876974
-1.166391 0.7344937 -1.3668314 1.1526291 1.7205335 0.33113477 -0.6343943 0.82542056
-0.29344055 0.3072583 0.530993 -0.8977818 -0.56020933 -0.62651545 -0.1391286 -1.2790965
-0.80975246 -1.1599618 -0.0383082 -0.32519656 1.481746 -1.4167162 0.70021945 0.28989473
-0.78407425 -0.6503967 -0.9235356 -0.065285765 0.073614895 1.048436 0.58986795 0.11124457
-0.08501605 0.39767691 -1.0323207 0.7127261 0.72327596 0.7698592 -1.1621484 1.1683195
-0.9438566 1.1399219 -0.23446235 -0.48125032 -1.1920991 -0.24085885 1.1561931 -0.6373125
0.5242887 -0.384713 -0.8559214 0.13286631 0.42431143 -0.8809787 1.2237895 -0.5263092
0.1700336 0.42222843 -1.1008207 0.34841794 0.6324775 0.29849392 -0.2426556 -0.19892433
-0.091185525 -0.42634958 -0.12903646 -0.1382636 -0.42645034 0.6760724 -0.70687777 0.5090506
-0.48948997 0.9535705 -0.5166237 0.41507336 -0.66804016 0.47008485 0.39245057 0.06241365
0.40665868 0.6465023 -0.7579495 0.07933532 -0.11520173 0.002938349 0.77574897 -0.8139694
0.5950672 0.36437675 -0.43442017 0.6518206 0.56526774 -0.4782015 -0.5344145 0.06425098
0.7099466 -0.71249354 0.27001894 -0.6908271 -0.612126 -0.42669186 -0.007908811 -0.41702652
0.4042021 0.2426972 -0.42173272 0.45854118 0.028755626 0.30689925 0.387397 0.32012478
-0.33210662 0.35526228 -0.15347087 -0.14236863 -0.19776404 0.9243678 -0.09232827 -0.4050475
0.6106037 0.3303529 0.26703176 0.3961966 -0.24474257 -0.49936628 -0.37653178 -0.5576679
0.43217567 -0.38795498 0.59656715 -0.33159885 -0.39615768 -0.7147435 0.5828282 -0.47430786
0.2533289 -0.47296727 0.17458266 0.21966568 0.47350055 0.04741071 -0.40161166 0.48241618
-0.03679322 0.37670556 0.18909892 0.17373674 -0.24446605 0.08583582 -0.34104076 0.1563707
-0.15041398 -0.05387471 0.37321004 -0.19206208 0.11955237 -0.18177879 0.07671983 -0.07387516
0.3182298 0.15599781 0.23827358 0.5182868 -0.10605523 -0.0030944597 0.42933023 -0.44179988
0.1814409 -0.33043033 0.2086923 0.038706556 0.401762 -0.029787881 -0.34866574 -0.039960172
-0.01008098 0.08052519 0.11303079 -0.15284517 -0.35973194 -0.32215682 -0.3083711 0.39772394
-0.79787767 -0.31754813 0.1883406 -0.10580007 0.29120615 -0.24336913 0.5260244 0.50202626
-0.09090533 0.53569424 -0.5355004 0.15311883 0.07251043 0.3744128 0.071090825 -0.07336722
0.09624844 -0.26403883 0.12497824 -0.33954895 -0.17035764 -0.39931104 0.048085418 0.07793226
-0.067442596 -0.3210019 0.31113118 0.2554519 0.3321244 0.10016936 0.06122652 0.117687985
-0.13043517 -0.058555517 -0.10870195 -0.21529901 0.1715231 -0.01928747 0.27563173 0.022933858

fc4.bias f4 [20]
00000000: 29b9 2bbc f257 d73d 1f3b 6c3d 4143 9b3c
00000010: e9b5 a0bb 5b23 32bd 1bb9 d33a addc bebb
00000020: f047 a73c d938 e4bb a48c 6f3c bf03 b8bc
00000030: 3990 8a3a 5515 aa3a 0ea1 703c 2021 0fbd
00000040: a720 c7bc 7d65 7cbb 6383 e0bc 0665 e5bc
-0.010481157 0.10514821 0.05767357 0.018952968 -0.004904498 -0.04349075 0.0016153188 -0.0058246464
0.020420045 -0.0069647846 0.014620934 -0.022462724 0.0010571546 0.0012976328 0.014686836 -0.0349437
-0.024307562 -0.003851264 -0.0274064 -0.028002273
