transfer/dampedSpring/data/transfer_retraining/c(0.45)_model_weights.pth (torch, 13651 bytes, 8 tensors)

fc1.weight f4 [32, 2]
00000000: d325 a2be 8f83 eb3c 527b 3f3f 699b 3e3f
00000010: cff9 093e f2d3 a73e 834b c8bd 1421 a93e
00000020: 268e 92be 0175 3ebd 82c9 7b3d 90b4 b23e
00000030: f7b2 a1be b36a dc3d a792 a63e 2609 bc3c
00000040: 734b 94be aaea abbd a7b0 35bb d638 b23e
00000050: cc4e a53e 5a70 9c3c e5c6 5b3d b49b bcbe
00000060: 5dc3 9dbf 23b3 c23f 4fde b93e 1a70 edbd
00000070: b036 a5bf dc6c d73f 71da e5be 708f 7cbf
00000080: 0cc2 083c f7ab b33e a52d 80be 91c2 54be
00000090: 74ab c339 5aa2 afbe db86 fbbe 46c2 373f
000000a0: a84d 8fbf f38c dc3f 8198 73bf a151 043f
000000b0: 37bc 053e a265 9b3e e6b7 bfbe 73b7 263c
000000c0: 5b2b 9fbe 8812 a43f b261 7cbf 42fe 8a3f
000000d0: a35c 34bd 85cb aebe ee7f 8dbe aa4c 1dbe
000000e0: ea19 a73e 90de 883d 4f75 33be 876e 84be
000000f0: 4532 983e da62 063e 559f 6f3f 3ef3 babd
-0.31669483 0.028749255 0.74797547 0.7445589 0.134742 0.3277889 -0.09780028 0.3303305
-0.28624076 -0.046498302 0.06147147 0.34903383 -0.31581852 0.10762539 0.32533762 0.022953581
-0.28963813 -0.08394368 -0.0027723701 0.34808987 0.3228668 0.019096542 0.053656477 -0.36837542
-1.2325245 1.5210918 0.3630242 -0.11593647 -1.2907314 1.6830096 -0.4489322 -0.9865637
0.008347046 0.35092136 -0.25034824 -0.20777346 0.0003732104 -0.34303552 -0.49126324 0.7178081
-1.1195574 1.7230514 -0.9515458 0.51687056 0.1306008 0.30350977 -0.3744499 0.010175574
-0.31087765 1.2818155 -0.9858657 1.0858843 -0.044033658 -0.34139648 -0.27636665 -0.15361276
0.32636958 0.066830754 -0.17525218 -0.25865576 0.29725853 0.13123646 0.93602496 -0.09128426

fc1.bias f4 [32]
00000000: d606 8d3d 167a 663e 6605 433e 3caa 4c3e
00000010: 8f3a 8cbe b7bf 263e 81b5 e4be b650 d03e
00000020: aafc d43c 916c 17bf 6836 4e3e 99ed 8a3e
00000030: 3e27 01bf 8101 0d3f d19e 8bbe 56d3 8e3e
00000040: 8a5b 313e f947 ea3d 1667 443e 8037 f33d
00000050: cb72 323d 1983 32bf eb8c 23be c7b2 783f
00000060: 233c dabd eb1a 2d3e 0342 1c3e 3bf7 773d
00000070: 381b 533e bef0 433e 542a 3d3e 8d8e 6ebe
0.068860695 0.2250751 0.19045028 0.19986814 -0.27388427 0.16284071 -0.44669726 0.40686578
0.025999386 -0.59150034 0.20137942 0.27134398 -0.50450504 0.5508042 -0.27269605 0.27895612
0.17320076 0.11439509 0.19179949 0.1187582 0.043566506 -0.6973129 -0.15971725 0.9714779
-0.106560014 0.169048 0.15259556 0.06053851 0.20615852 0.19134805 0.18473178 -0.23296566

fc2.weight f4 [32, 32]
00000000: b063 83bd dab1 1fbd 14d0 8cbf 4f02 fabd
00000010: 61ce 9f3e 45bd 05bf 32f0 09be d79b 14bf
00000020: 9289 2f3c d2f7 00bf 8ff7 95bd a785 ff3e
00000030: 4e91 6f3e 495d c8bb 149b 643e c708 28bd
00000040: b82d 82bf 7c6d 813e 7277 a13c 1aad 78be
00000050: 110b 54be ae96 5a3d ac7f 1cbf bb31 9cbe
00000060: 3c8d 59be 0e05 173e 493f 3b3f 9849 bd3e
00000070: 8dd1 ad3d dac4 4fbd d68d 74be 478b 583c
00000080: e9a7 26be d973 0a3e 1060 b0bd df0f 36be
00000090: 3de4 69be cf27 21bf 6441 80be 4eea 2c3f
000000a0: ffac f1be 105d 3dbf 3615 053f f959 543f
000000b0: ef5a 43be 3852 cb3e a7d6 403e 2133 6e3e
000000c0: 8709 9fbe a7cd b43e fb12 333f 4802 3abe
000000d0: 6449 653e 3c13 26bc 1994 6bbe ec11 59be
000000e0: 4baf c3be cf51 18be 1c31 213f 78d5 9abd
000000f0: 39fd 983e e0a9 a23e c6a8 f3bd b2ce ffbe
00000100: 744c eb3e 5ee7 efbe 7e6c 0f3d 72ae 6e3e
00000110: 03b7 053f 713a f33c 0715 733f 5c77 e9be
00000120: 360a 093f d919 8d3e bdbd 11bf 4db5 c7be
00000130: 8528 17be 8be6 f1be 1463 8b3e 0a56 be3d
00000140: 5362 3c3e 1a46 f2bd 0d5f c3bd 5e10 cfbd
00000150: 255e 893d a131 ae3e b21f bdbd 20e8 8c3e
00000160: 466f 14bc 02e0 1e3e b5bb 94be 7aaf a03e
00000170: 5e22 42bd b061 bebe e3c9 ac3c a2be 2abf
00000180: 460f 96bc f0d8 32bf a559 babf 8999 92bf
00000190: 1749 e13e 9c8e 67bf 165b c43d d131 3fbf
000001a0: 251a f83d 9e99 cfbe cb25 27bf 7de4 df3e
000001b0: eecb bdbd 78b2 10bf 1d12 e1bb 8286 02be
000001c0: 0dd2 85bf b50f e6bd 5501 a53e 22a1 08bf
000001d0: e30e 5d3e ec2f f23c 5e36 6ebf 4d8a 8fbe
000001e0: fe9b 363e 9134 8c3e 3bf4 003f 4d91 d23e
000001f0: c95a 8cbe 67f4 fe3e feaa 4dbf 18af b33e
00000200: 119c 26bf fb18 2fbe 253c fc3e ba11 bdbd
00000210: f722 dbbe 52c5 133f 112c 3bbe 5d2c 913e
00000220: d2b6 babe 9ad7 523e 77ed 383f 5b0c 0f3e
00000230: ee46 31be 7bbe ce3e c8e6 4ebe 37d2 ae3e
00000240: 6def 753e 8701 5bbe 147e c43d 16a6 ebbd
00000250: 8704 4aba 4ace f33d d678 c83e e5a5 dcbc
00000260: 9c4e 0d3e fce5 16bd 469b 12be 8af5 5bbe
00000270: 96c5 573f a2a0 6ebe 8758 403f 3cd9 603e
00000280: 6b70 62bf 8158 2cbe e1c9 29bf dfba 1abf
00000290: 7f9b d1be e154 c3be 4499 1bbf fd67 133f
000002a0: b8e9 d7be d6d9 71bf 7fa5 fd3e 5706 c63e
000002b0: ab90 99be ab65 a23e 41cf 9f3e 0640 a3be
000002c0: 5312 2fbf 3408 16be 8cfa 0a3f 700d 95be
000002d0: 72f1 8a3e fb47 033e bc28 51bf 0b1c c8be
000002e0: f16d 453e 37d2 8a3d 4404 1d3f bfec b0be
000002f0: f73c 84be a710 a2ba 8c1e 81be 4196 f7be
00000300: 2647 36be 8aae 8ebe 78f8 053f 64d0 8c3e
00000310: 2278 1abe 2f2d 8b3e b180 3c3e a05c dbbe
00000320: c737 09bf e8db f63e be1a cf3c 1776 9bbf
00000330: 2164 ce3e e132 96be c032 1f3d e35e abbd
00000340: 992b 213f adb2 38bf 1653 81bf 6c67 fcbd
00000350: 47c9 5abd c2f1 0dbd 8544 893e 1ddf 9bbe
00000360: 6df7 91be 8b36 8ebd f51f e0bf c310 27bf
00000370: b752 333d c703 3ebf 010b 7b3e 1bd3 afbe
00000380: a940 70bd ffe3 1f3f 2055 093f 4c3e b83e
00000390: f637 833d 261c 1c3e 757d 743e d492 ccbe
000003a0: 49ee 20be 0933 c43e a283 bb3d 5bed 59bf
000003b0: abcf 4ebe 104f febe a55a b5be 6ac9 aabe
000003c0: 251a 1c3f 3a3a bdbe 5169 2abf 50d6 f9be
000003d0: e1bb 993e ba44 74bd 6d9e 0c3e e769 1bbe
000003e0: 9ad5 6cbd 976a 63bd 5609 32bf 4c08 3fbf
000003f0: 22de d7bc d2a4 15bf 1998 e53d d905 6e3e
-0.06415498 -0.03898797 -1.1001 -0.122074716 0.31212142 -0.5224193 -0.13470533 -0.5805029
0.010713952 -0.50378144 -0.07322609 0.49906656 0.23395273 -0.006114636 0.22324783 -0.041023996
-1.0170202 0.25278842 0.019710276 -0.24284783 -0.20707346 0.053366356 -0.6113231 -0.3050669
-0.21245283 0.14748022 0.7314344 0.3697021 0.08487234 -0.05072484 -0.23882231 0.0132168
-0.1627499 0.13520755 -0.086120725 -0.17779492 -0.22840972 -0.6295137 -0.2504989 0.6754502
-0.47202298 -0.7397013 0.5198549 0.8294979 -0.19077657 0.39711165 0.18831883 0.23261692
-0.31061956 0.3531315 0.69950837 -0.18164933 0.22391278 -0.010136422 -0.23005714 -0.21198243
-0.38219675 -0.14874958 0.6296556 -0.07560247 0.29880694 0.3177023 -0.11897425 -0.49962384
0.45956767 -0.46856207 0.035015576 0.23308733 0.5223238 0.029690953 0.9495396 -0.45598876
0.53531206 0.27558783 -0.5693014 -0.3900551 -0.1476155 -0.47246203 0.27224028 0.092937544
0.18396883 -0.11829777 -0.09539614 -0.10110544 0.0670741 0.3402224 -0.09234561 0.27520847
-0.009059733 0.1551514 -0.2904946 0.31383878 -0.047396056 -0.37183905 0.02109236 -0.6669713
-0.01831783 -0.6986227 -1.4558607 -1.1453105 0.44001076 -0.9045198 0.09587686 -0.7468539
0.12114362 -0.40546888 -0.6529204 0.4372901 -0.09267412 -0.5652232 -0.0068686143 -0.12746623
-1.0454727 -0.11233465 0.3222758 -0.5337087 0.2158771 0.029563867 -0.9305171 -0.28035203
0.17832944 0.27383855 0.50372666 0.4112648 -0.27413014 0.4979584 -0.8033904 0.35094523
-0.6508189 -0.17099373 0.49264637 -0.09231897 -0.42800114 0.5772296 -0.18278529 0.2835416
-0.36467606 0.20590058 0.7223734 0.13969557 -0.17312214 0.403797 -0.20205224 0.34144756
0.24017115 -0.21387301 0.0959436 -0.11506288 -0.0007706363 0.11904581 0.3915469 -0.026934573
0.13799518 -0.036840424 -0.14317045 -0.21480384 0.8428587 -0.23303464 0.7513508 0.21957868
-0.88452786 -0.16830637 -0.6632367 -0.6044139 -0.40938947 -0.38150695 -0.6078074 0.5758055
-0.421705 -0.94473016 0.49540326 0.38676712 -0.29993185 0.31718192 0.3121281 -0.31884784
-0.68387336 -0.14651567 0.54288554 -0.29111814 0.27137333 0.12820427 -0.8170278 -0.39083895
0.1928022 0.067783765 0.61334634 -0.34555623 -0.25827762 -0.0012364582 -0.25218618 -0.48356822
-0.17800578 -0.27867538 0.5233226 0.2750274 -0.1508489 0.2718291 0.18408467 -0.42844105
-0.53600734 0.4821465 0.025281306 -1.2145413 0.40310767 -0.29335693 0.03886676 -0.083677076
0.6295715 -0.7214764 -1.0103481 -0.12324414 -0.05341461 -0.034654386 0.2681009 -0.3044366
-0.28509083 -0.06943997 -1.7509753 -0.6525995 0.043780055 -0.74224514 0.24515916 -0.34340748
-0.058655415 0.6245727 0.53645515 0.3598503 0.06407158 0.15245113 0.23875983 -0.3995577
-0.15715899 0.38320187 0.09155966 -0.851278 -0.20196407 -0.49669695 -0.3542072 -0.33356792
0.60977393 -0.36958486 -0.6656695 -0.4879632 0.30026153 -0.059635855 0.1373231 -0.15177117
-0.057820894 -0.055521574 -0.69545496 -0.74622035 -0.026351038 -0.5845462 0.11210651 0.23244418

fc2.bias f4 [32]
00000000: 132f 36be 2f5c 263e 31ff 97bd b594 c3bd
00000010: 643c fc3d edd5 f9bd 04aa b9be a4c7 37be
00000020: f3e5 14bd b4bc 6dbe 6ff4 bdbd 901f bfbd
00000030: 5543 91bd f027 b5be 236b af3d 5ab7 b83d
00000040: 05eb 0ebe ab04 51be 5907 60be 1df8 44be
00000050: 4e87 18be fedf f1bd 5e9f 2c3e 5b62 77be
00000060: 9815 3b3d 631a 37be 5a5e f43d cd89 a23d
00000070: 060f b5bd 575b d73e 198c 3fbe c31d 64be
-0.17791395 0.16246103 -0.07421721 -0.09549848 0.12316206 -0.12199006 -0.36262524 -0.1794725
-0.03635211 -0.23216516 -0.09275138 -0.09332192 -0.07092921 -0.35382032 0.085653566 0.090193465
-0.1395684 -0.20411937 -0.21877803 -0.19235273 -0.14895365 -0.11810301 0.16857669 -0.24158613
0.04567489 -0.1788116 0.11932059 0.0793644 -0.08840756 0.42061874 -0.18705787 -0.22276978

fc3.weight f4 [32, 32]
00000000: 3668 10bf c2fd 33bf 1e9c 23be 695a 65bf
00000010: ea58 eebe 2c2c 33bf 4f55 d23e 9c53 aa3e
00000020: 6983 c8be b00d d13e 8ee2 1f3e 1860 b03d
00000030: 687a 68bd 00ce f43e ef7e 833e f48c 91bf
00000040: cd81 a2bc 546f 6b3d 27fc 183e 7709 08bf
00000050: a2aa 0bbd e4d8 fe3d 1291 9cbe e56e 9a3e
00000060: 2de7 38be d423 b4be c462 7cbf 9e2d a83e
00000070: 2b7e eabe ae95 00bf 9060 293e 21ad a2be
00000080: a5b8 16bf 80d6 65bd 4ab2 463e 8c21 b3bf
00000090: 3c36 e03e a496 fdbe 29f3 1d3f a9b2 d93e
000000a0: 9348 d63d ba1c de3e 6267 a43e 612e e93d
000000b0: f718 7c3e 9d64 9dbe 18e8 9c3d 4f6f abbe
000000c0: 6595 a7be c3cf 4ebd a22a 8a3e 637a ffbe
000000d0: d158 3ebf 94d8 f33e d248 043e 23b6 abbd
000000e0: 3f3c 1ebf ea48 3d3e da7d 40bf 12d5 c83e
000000f0: 3c3b bdbe afc7 a7be dd37 5b3e 1a97 47be
00000100: f212 ebbd ace2 95be 8346 92be cdf5 70be
00000110: 11fe 083f bd31 b9be 7064 303f 660e bb3e
00000120: 43a2 00bd 1c7c 023f 94f2 bb3e 9f86 dc3e
00000130: 9bc6 bbbb 58fb a73e bce8 a43e 467f 14bf
00000140: 77cd a9be 02e7 cbbe ea7e bbbd 7bbc 1cbf
00000150: 75c6 45bf b588 70be 11fe 7dbe 4bd7 bcbe
00000160: 2dc6 43bf 4e9c 54bf 599c 73be 47ee 9d3d
00000170: fbe3 06bf 538b 98bf a318 c6be 54db 7a3e
00000180: 5a01 92be 7559 68be 1401 45bd b6ba 203f
00000190: be1e 1dbf 1540 10bf ec2d b43e f144 52be
000001a0: 5c70 1cbf 2ab5 b53e e43b 793b 5329 64bf
000001b0: bd50 3bbf df4b 443e 3f23 8ebd f5cf d5be
000001c0: 2c3b ac3e 27ab a63e ba1e 44be 1885 e83e
000001d0: f045 443e 7313 983e ddea 65bf f600 513f
000001e0: 7720 00bb 4682 eabb c5ea 70be 1337 2dbf
000001f0: 6555 49be 46a7 e8be 3ec8 173f ac0c 893d
00000200: bff3 15bf 5f19 ffbe 404d be3d 2a83 88bf
00000210: f366 29bf 962b 55be c77c b83e c463 6c3e
00000220: d926 403e 11e1 303e ac47 313f 569a 0dbf
00000230: 6ea8 d1bd 2341 f93e 84c9 e53e ac79 24bf
00000240: a6a1 073f 4ff6 4cbe 6197 b0be 9a11 97be
00000250: 97d0 25bf 1c03 a2be 48a0 18bf 0e2c 46be
00000260: bf3f d5be 6452 02bf 589b f5be 740f 053d
00000270: 652a 70be 6e98 55bf 6076 7e3e 59ef 80bd
00000280: 9815 95be 1128 d03d 728c c8be dca7 d6be
00000290: 77ac 6abd 36fe 3abd 71e8 60bd a566 82bd
000002a0: 5c6c 933e bff4 d83e 1b75 f6ba f1de 3f3f
000002b0: 2ec6 483f 8e58 ecbe 0c87 f5be a565 6e3e
000002c0: 4caf 40bf 395b 59bf b4a3 05bd 4dab 93be
000002d0: 3b9e 65be 4a2e 3dbf ec9a 0f3f 373e 7abf
000002e0: 2784 14bf 8475 3fbf 3d70 8cbe ef5f 2d3e
000002f0: 9068 a5be 1b53 19bf d4f3 28bf d587 523e
00000300: 6f24 023f 18c5 043f 03a2 0bbf 3d56 873f
00000310: 9ef8 7c3e af82 093f d2ea 57bf 3e8c 4ebf
00000320: a6be 35bf 776a 63be 13db 60bf 54fa a53e
00000330: eaef 383f 9479 24bf 7b5c 5abf a82b c23e
00000340: 4784 08be ac49 9e3e fa13 c1bd 824c c23e
00000350: 5bf8 fb3d 2961 d5be 3898 dfbe b7f7 2abf
00000360: 764c 3ebe 13bf 8f3e 7249 593f 9883 29bf
00000370: b70c 9abe b39c 253e 6f30 76bf fb21 0ebf
00000380: 13ea 2e3f 77cb 523d 4520 cfbe 2614 863f
00000390: 16a2 16bf e139 143c 8990 a8be 0530 26bf
000003a0: fdcf 88be 8d2a 0fbf 3844 61bf b5e2 e3be
000003b0: 7854 02bf f90f c2be 0a9f 5bbf 7a03 103e
000003c0: fd39 0d3f 37e7 f9bc 98cd 96bd 3af4 7a3e
000003d0: 6874 5a3d abed 5bbe 8c4f 1bbf b154 1ebe
000003e0: c66f 5dbe a5c9 b53e d07c 3c3d f6f7 61bf
000003f0: c4f3 f2ba 8eba f53e b599 30bf ecdd 96be
-0.56409013 -0.7030908 -0.15977523 -0.8959108 -0.4655221 -0.69989276 0.4108071 0.33266914
-0.39162758 0.40830755 0.15613768 0.086120784 -0.05675736 0.47813416 0.2568278 -1.137114
-0.019837284 0.057479218 0.14939938 -0.5313944 -0.034098275 0.12443712 -0.3057943 0.3016273
-0.18056937 -0.35183585 -0.98588204 0.32847303 -0.45799384 -0.50228393 0.16540742 -0.31772712
-0.58875495 -0.056112766 0.1940395 -1.3994613 0.43791378 -0.49528992 0.6169916 0.4251912
0.10463061 0.43381292 0.32110125 0.11385799 0.24618898 -0.30740824 0.07661456 -0.3348336
-0.32731166 -0.050491106 0.2698565 -0.4989806 -0.74354273 0.47626173 0.12918404 -0.08384349
-0.6181068 0.18484846 -0.75192034 0.3922506 -0.36959255 -0.32769534 0.21408029 -0.19491234
-0.11478223 -0.292745 -0.2856942 -0.23531266 0.53512675 -0.3617076 0.68903255 0.36534423
-0.031404745 0.50970626 0.3670851 0.43071458 -0.0057304627 0.32808948 0.32208812 -0.58006704
-0.3316457 -0.39824682 -0.09155066 -0.612251 -0.77255946 -0.2348965 -0.2480395 -0.36883005
-0.7647427 -0.83051 -0.2379011 0.077114634 -0.5269162 -1.1917518 -0.3869067 0.2449773
-0.28516656 -0.22690375 -0.04809673 0.627849 -0.61375034 -0.5634778 0.35191286 -0.20534112
-0.61108947 0.3548978 0.0038030082 -0.89125556 -0.7317007 0.19169568 -0.069403164 -0.4176022
0.33638895 0.32552454 -0.19152346 0.45414042 0.19167304 0.2970234 -0.898115 0.8164209
-0.00195506 -0.007156643 -0.23527057 -0.6766216 -0.19661482 -0.4544012 0.5928992 0.0669187
-0.5857505 -0.49824044 0.09292078 -1.0665028 -0.66172713 -0.20817408 0.36032698 0.23084933
0.18764819 0.17273356 0.6924999 -0.5531362 -0.102372035 0.48682508 0.44880307 -0.64248157
0.5298103 -0.20015834 -0.34490493 -0.29505616 -0.6477141 -0.31642997 -0.5961957 -0.19352743
-0.41650197 -0.5090697 -0.4797008 0.03248544 -0.23453672 -0.83435714 0.24849844 -0.06295652
-0.29118037 0.10163892 -0.3916965 -0.41924942 -0.05729338 -0.04565259 -0.054909173 -0.06367234
0.2879361 0.42374226 -0.0018803211 0.74949557 0.784274 -0.46161312 -0.47954595 0.23280962
-0.7526748 -0.8490482 -0.032626823 -0.2884163 -0.22423641 -0.73898757 0.5609577 -0.9775118
-0.5801415 -0.7478869 -0.2742938 0.16931127 -0.32306337 -0.59892434 -0.6599705 0.20559628
0.50836843 0.5186324 -0.54544085 1.0573193 0.24704215 0.5371503 -0.8434268 -0.8068274
-0.7099403 -0.22208582 -0.8783428 0.32417548 0.7224108 -0.64248013 -0.85297364 0.37923932
-0.1333171 0.30915582 -0.09427638 0.37948996 0.123032294 -0.4167569 -0.4367082 -0.6678423
-0.18583855 0.28075466 0.84877694 -0.6621642 -0.30087826 0.16173057 -0.96167654 -0.555206
0.6832592 0.05146357 -0.40454307 1.0474899 -0.58841074 0.0090470025 -0.32922772 -0.6491702
-0.26721182 -0.559243 -0.8799472 -0.445089 -0.5091014 -0.3790281 -0.8578955 0.14063826
0.5516661 -0.03050576 -0.07363433 0.24507228 0.05333367 -0.21477382 -0.60668254 -0.15461995
-0.2162467 0.35505405 0.046017468 -0.88268983 -0.0018535783 0.47993892 -0.6898454 -0.29466188

fc3.bias f4 [32]
00000000: 933f 5fbe bd2a 303d 9672 18be adde 43be
00000010: 8774 a4be 0945 75be 743a 4bbe 94ab 22be
00000020: 8210 c1bc f329 04bd 7649 4cbe bc17 28bd
00000030: 651c 9dbe 8347 a4be 97a0 01be fdcc 66be
00000040: 6398 a6bd 8e6e 0f3e 10be 39bb d376 4dbe
00000050: 942b 81be bf70 9abd 6724 2bbe 39c3 f0bd
00000060: ce71 f6bd 18e8 ecbe 5829 e6bd 159d 5ebe
00000070: 848a 87be aa7c 6dbe 3d9d 49be a70a 89bc
-0.21801595 0.04300951 -0.14887461 -0.19127913 -0.32120153 -0.23952116 -0.19846517 -0.15885764
-0.023567442 -0.03226657 -0.19949898 -0.04103826 -0.30685726 -0.3208581 -0.12658916 -0.22539134
-0.08134534 0.14007017 -0.0028342046 -0.20064859 -0.2522856 -0.07541036 -0.16713105 -0.11755986
-0.12033425 -0.46270823 -0.112383544 -0.2173961 -0.26472867 -0.23192087 -0.19688888 -0.016728712

fc4.weight f4 [20, 32]
00000000: d4a3 253f dc84 bf3f cb17 813f d639 1bbf
00000010: 2994 bc3e 99e8 733f bf91 88bf 40fb c3bf
00000020: fff1 073f 6983 523f 6959 5ebf c6a8 a43f
00000030: 7530 8dbf 0061 093f 2a58 6fbf 7540 dbbe
00000040: 9b8a 17bf 7d2a 94bf ca24 463f 0bb9 5dbf
00000050: 5523 743f 7246 653f 4aee 7b3f 4964 983f
00000060: 0794 84bf 460d 0abe c932 24bf 09e5 33bf
00000070: 08b3 fcbe 43c3 3a3f 05c1 ccbc d97b 84bf
00000080: 753f 813f 47cc 443f a276 1f3f c7e9 273f
00000090: 94e3 453f 38a9 ffbe b92b adbf 5f37 15bf
000000a0: f07e c03f b0ba 893f 9a8a 533f 46d7 b93d
000000b0: 8217 24be 7b83 3c3e 29e5 04bf fc2c a3bf
000000c0: 4e37 c63e 6b0e 18bf bd0d 893f 3f3b fcbe
000000d0: 74f7 d43e 3772 a13d 62ce 91be 0a24 3bbf
000000e0: debb ac3e e054 3abe bbc6 32bf ca6f 75bf
000000f0: 6d0c 74be f845 48bf 0b57 b4be 013e 55bf
00000100: c827 e03e 5ba8 dfbd f8ae fbbe 5616 9a3f
00000110: b31b c03e bda8 51bf 1fa9 02bf 7ac6 28bc
00000120: 5542 543f cdaa 233f ffe3 473f 846d 5abf
00000130: e755 473f 1d52 163e 880f 21be 9db7 08bf
00000140: 4ff9 863f 7c76 8c3e 15c0 b43e f76c 173d
00000150: a94f b23d e774 aebe b6ad 71bf 3ea0 90bf
00000160: 4475 4a3f dd11 9d3e 30e4 aa3e 4997 07bf
00000170: f05f b03e d572 94bf 85bd 98bf 3c0e 05be
00000180: ebf3 603e 3cc1 a5be 6624 f6be 41cd ca3e
00000190: 2e79 a5be d750 d0be dff3 f23e 5070 0a3f
000001a0: 1cd5 c8be 792c 29be 5619 c43e 845e e6be
000001b0: bcaf 8abd 8e50 f1be a76a d03e 9690 21bd
000001c0: 4ded 883f 414b df3e 40dd 15bf 5a06 d33e
000001d0: f3bb 11bf a481 5abf e19a 08bf 52ef 11bf
000001e0: a637 423f 24c5 37be ef15 ad3e 755d cd3e
000001f0: 5af7 313f ae0c 18bf 2603 37bf e68f 103f
00000200: 3b42 21be 4246 07bf 65cf 02bf 0ad2 493d
00000210: a835 afbe fab7 4f3e baab 0e3f b4b2 e53e
00000220: 3e85 3dbf ef48 fabe 32eb d8be bcfb 24be
00000230: f694 9a3e d9c9 39bf 87e1 463e 8189 093f
00000240: 1fae a9be dcc5 b43e a59c ebbe 2268 ed3e
00000250: 0277 0abd 40b0 39be f17d e5bd 1ce9 983e
00000260: 74ef 8fbd 642b 11bd 3f7b 0e3e 6d86 313f
00000270: a7ba b63e d3bb 803e 521d c73d 4dc5 023f
00000280: acea acbd 9c67 163b 12f0 6abe cb38 dbbe
00000290: 55ab 12be 2014 3bbd c3cb 253f 791b 10be
000002a0: 7336 1cbf e1e9 e0be fd28 6dbe 514c ae3e
000002b0: 2266 22be 1aca 05be bfab bc3e 66e5 da3e
000002c0: 1c84 3cbf fafb 9dbd 7e13 abbe b817 dc3d
000002d0: 6b09 e03e b401 c73e 22e5 ce3e 7c72 d03e
000002e0: 614b e8be 67c8 933d c026 aebe e127 9cbc
000002f0: 3b95 5abe 2ca5 383f 7e1c 333f 2260 c73d
00000300: 5a6e 0b3b a917 9f3c 8e24 fd3d 8b1c 7abe
00000310: df12 2dbe 05d2 933e 3bfe 003e ac20 10bf
00000320: c745 f9bd 5dcd a53d b830 25be 5b8c f03e
00000330: e399 91bd 07ce 0e3f 438a 933e 96f3 473d
00000340: 6f14 e0be 6d4f 86be 64bd ac3e 7a55 1fbe
00000350: e54d eb3e 9028 263e 6749 243f 1656 6b3e
00000360: 01fe 0cbf 9edf 01be b3d9 94be d34d b0be
00000370: d19d 6ebe 4dd7 aa3e 0f63 d53e f6f5 aabe
00000380: e62c de3e e207 1dbc 8337 42bd 4014 0fbe
00000390: c49c 8c3e 0c89 c93e e6e5 d1be 4610 a0be
000003a0: 46ef 2c3e 5508 913e e320 16be 8da7 243e
000003b0: 5543 58be 9654 373e 2046 6dbe 42f9 72be
000003c0: cba4 b93e c379 9bbe 4d8d e83e bcf6 3bbe
000003d0: 4819 d83d 4e88 783e 0beb 0a3d 5433 07be
000003e0: d816 0cbe d9c7 37be 1574 373d f452 e5bd
000003f0: a65b a43d 441e b63b 8afa 6bbe 4767 8cbe
0.64703107 1.496242 1.0085386 -0.60635126 0.36831787 0.9527679 -1.0669478 -1.531105
0.5310363 0.82231766 -0.8685518 1.2864006 -1.1030413 0.53663635 -0.934939 -0.42822614
-0.5919587 -1.1575466 0.77399886 -0.8661048 0.9536641 0.89560616 0.98410475 1.1905605
-1.0357674 -0.13481626 -0.6413999 -0.70271355 -0.4935534 0.72954196 -0.024994383 -1.0350295
1.009749 0.768742 0.62290394 0.6559109 0.7730038 -0.4993379 -1.3528968 -0.58287615
1.5038738 1.0760098 0.82633364 0.09074263 -0.16024593 0.18409531 -0.5191217 -1.2748103
0.3871407 -0.59397 1.0707318 -0.4926395 0.41595042 0.07883113 -0.2847777 -0.73101866
0.3373708 -0.1819644 -0.6983449 -0.958737 -0.23832865 -0.78231764 -0.3522266 -0.83297735
0.4378035 -0.10920783 -0.49156928 1.2038066 0.37521133 -0.818981 -0.5103931 -0.010301227
0.82913715 0.63932496 0.7808227 -0.8532336 0.7786545 0.14679761 -0.15728581 -0.5340517
1.0544833 0.27434146 0.35302797 0.03696915 0.087066 -0.34073564 -0.94405687 -1.1298902
0.79085183 0.3067769 0.33377218 -0.5296522 0.34448195 -1.1597544 -1.1932837 -0.12993711
0.21968047 -0.3237399 -0.48074645 0.3960972 -0.32319015 -0.40686676 0.47451684 0.54077625
-0.3922509 -0.16520871 0.3830058 -0.44993985 -0.067718 -0.4713177 0.4070637 -0.03944453
1.0697418 0.43612102 -0.58540726 0.41215783 -0.5692741 -0.85354066 -0.53361326 -0.570058
0.7586616 -0.17946297 0.33805797 0.40110365 0.69518054 -0.5939435 -0.7148918 0.5646957
-0.15747921 -0.5284158 -0.5109771 0.049272574 -0.34220624 0.20285025 0.55730784 0.44862902
-0.74031436 -0.4888377 -0.4236694 -0.16111654 0.30191773 -0.7257362 0.1942197 0.5372544
-0.33140656 0.35307205 -0.46017948 0.4636851 -0.0338049 -0.1813364 -0.11205662 0.29865348
-0.07028094 -0.03544177 0.13914202 0.6934574 0.3568928 0.25143299 0.09722389 0.5108231
-0.084431976 0.002294994 -0.22943142 -0.42816767 -0.1432317 -0.04567349 0.6476404 -0.1407298
-0.6102058 -0.43928435 -0.23160167 0.340426 -0.15859273 -0.13065377 0.36849782 0.42753142
-0.7363908 -0.07714076 -0.3341331 0.107467115 0.43757185 0.38868487 0.4040919 0.40712345
-0.4537001 0.07215958 -0.3401394 -0.019061984 -0.2134599 0.7212703 0.6996535 0.09735133
0.0021275491 0.019420462 0.12360488 -0.24424951 -0.1690173 0.2887117 0.12596981 -0.56299853
-0.12171512 0.080958106 -0.16131866 0.46982083 -0.0710943 0.5578312 0.28816423 0.048816286
-0.4376559 -0.26232472 0.33738244 -0.1555995 0.45957866 0.16226411 0.64174503 0.22982058
-0.5507508 -0.1268296 -0.2907234 -0.34434375 -0.2330239 0.33367386 0.41677138 -0.33390778
0.4339363 -0.009584399 -0.04741622 -0.13972569 0.27463353 0.3936237 -0.4099571 -0.31262416
0.1688815 0.2832667 -0.14660983 0.1607954 -0.21119435 0.1790336 -0.23171282 -0.23727897
0.3625854 -0.30366334 0.45420304 -0.1835584 0.10551697 0.24270746 0.03391556 -0.13203174
-0.13680589 -0.1794733 0.04478844 -0.11197463 0.08025293 0.005557807 -0.23044792 -0.27422544

fc4.bias f4 [20]
00000000: 3c43 97bd 51d2 fc3c f0a5 0c3e bb77 983d
00000010: a441 adbc 939d 4dbd 6536 9fbd dcb0 ad3d
00000020: 1b36 9e3d c93f b63d d69d 483d 2a2f a23c
00000030: 6537 d3bc 1d58 733c f81b 13bd d119 2a3d
00000040: 102a 663d 9772 1b3d 89ef 403b baeb 8abd
-0.07385871 0.030862005 0.13735175 0.07444712 -0.021149464 -0.050199103 -0.07774047 0.08480999
0.077251635 0.08898885 0.04897865 0.01979788 -0.02578325 0.014852551 -0.035915345 0.041528527
0.056192458 0.03795108 0.002943965 -0.067832425
