transfer/dampedSpring/data/transfer_retraining/k(0.9)_model_weights.pth (torch, 13651 bytes, 8 tensors)

fc1.weight f4 [32, 2]
0	0x3d0bf0e0	0.034165263
1	0xbe206a93	-0.15665655
2	0xbe283302	-0.16425708
3	0x3d0453d4	0.032306507
4	0xbe1dc495	-0.15407021
5	0x3d592fcf	0.05302411
6	0x3cc3453c	0.023836724
7	0xbe25ea1a	-0.16202584
8	0x3e2f74fb	0.17134468
9	0xbcc01762	-0.02344865
10	0xbcb301f4	-0.021851517
11	0x3e2ea39f	0.17054604
12	0x3f41484a	0.7550093
13	0x3f59ce31	0.8508025
14	0xbc87b5c0	-0.016566157
15	0x3f1e53bc	0.6184652
16	0xbf7d7365	-0.99004203
17	0x3f8e2b79	1.1107017
18	0x3988d281	0.0002609678
19	0xbe263f76	-0.16235146
20	0xbe2998e7	-0.16562234
21	0x3d393e4c	0.045225427
22	0x3e916149	0.28394535
23	0xbe1b885c	-0.15188736
24	0xbc4a23ae	-0.012337608
25	0x3e2c062a	0.16799226
26	0xbca52af3	-0.020162081
27	0x3e2b9537	0.1675614
28	0xbd13310e	-0.035935454
29	0xbe0bae92	-0.13640812
30	0xbb75a30e	-0.0037481221
31	0xbe27cc1a	-0.16386452
32	0x3e15189b	0.14560167
33	0x3d112dfe	0.035444252
34	0xbd789505	-0.06068899
35	0xbdecf2b6	-0.11569731
36	0x3ed21322	0.41030222
37	0x3ef6cfa6	0.48205298
38	0x3ef8be5b	0.4858273
39	0xbf1ecb05	-0.62028533
40	0xba9cb722	-0.0011956433
41	0xbe2925d6	-0.1651834
42	0x3f1976a4	0.59946656
43	0xbc3295aa	-0.0108999405
44	0x3ddf9543	0.10917141
45	0xbdf4fc08	-0.11962134
46	0xbe1f8fea	-0.15582243
47	0xba99d165	-0.0011735378
48	0xbe2e46f6	-0.17019257
49	0x3c8d8660	0.017275989
50	0x3c964f9e	0.018348511
51	0x3e18633d	0.14881606
52	0xbf8854b6	-1.0650852
53	0x3f955100	1.1665344
54	0x3d7f159d	0.06227647
55	0x3ded0c35	0.11574594
56	0xbef8a7d2	-0.48565537
57	0x4018ae5d	2.3856423
58	0x3e25bf32	0.16186216
59	0x3b5c0b84	0.00335762
60	0x3e28bda7	0.16478597
61	0xbc0b0012	-0.0084839035
62	0x3e0bfffb	0.13671868
63	0x3d0aea7d	0.03391503

fc1.bias f4 [32]
0	0xbe1e6383	-0.15467648
1	0x3b9b7923	0.004744665
2	0xbe10e510	-0.1414988
3	0xbe0ed1fb	-0.13947289
4	0xbdb260fa	-0.08709903
5	0x3e8fcf76	0.28087968
6	0x3d590959	0.05298743
7	0x3d1e8d9c	0.038709268
8	0x3e2b5a2d	0.16733618
9	0xbe4c3851	-0.19943358
10	0x3db1063b	0.086437665
11	0x3e3108f2	0.17288569
12	0x3e93236c	0.28737962
13	0x3e82e3c8	0.25564408
14	0x3d3b498d	0.04572444
15	0x3d91a23d	0.071110226
16	0x3eaf1bce	0.342009
17	0xbdaa2d06	-0.08309369
18	0x3ccc044a	0.024904389
19	0xbc9322a2	-0.01796085
20	0x3d200147	0.03906372
21	0xbd42261b	-0.04739962
22	0x3d527ea7	0.051390316
23	0xbde0b711	-0.10972417
24	0x3e029d7a	0.12755385
25	0x3e1be345	0.15223415
26	0x3e653964	0.22385174
27	0x3e272792	0.16323689
28	0x3e014ec2	0.126277
29	0x3dcda000	0.10040283
30	0x3d8a4170	0.067507625
31	0x3d8ff19b	0.070285045

fc2.weight f4 [32, 32]
0	0xbeabaf13	-0.3353201
1	0x3ec98673	0.3936039
2	0x3efb6cab	0.49106345
3	0xbe660490	-0.22462678
4	0xbec6f178	-0.388561
5	0xbde0df4d	-0.10980091
6	0x3ebbea8d	0.36702386
7	0x3e0a7045	0.1351939
8	0x3f00130d	0.5002907
9	0x3e9ed856	0.31024426
10	0x3ed6041e	0.41800016
11	0xbe212424	-0.15736443
12	0xbdffe546	-0.12494902
13	0xbe089eae	-0.13341781
14	0x3f1c8bfc	0.611511
15	0xbeaa14d9	-0.3321903
16	0xbf3db06b	-0.7409732
17	0x3ecfe0a1	0.40601066
18	0x3e76160a	0.24031845
19	0xbbb86bd1	-0.005628087
20	0x3e63e8ce	0.22256777
21	0x3e7f1716	0.2491115
22	0xbe828209	-0.25489834
23	0x3e700880	0.23440742
24	0x3ed73295	0.4203078
25	0xbe771e63	-0.24132685
26	0xbf053e11	-0.5204783
27	0xbe97ec06	-0.2967226
28	0x3e9a798d	0.3017086
29	0xbe7c0e98	-0.24614942
30	0xbea10c3f	-0.31454656
31	0xbef82ff4	-0.48474085
32	0xbe9aa51f	-0.30204102
33	0x3eb65571	0.35612062
34	0x3ebbd39a	0.36684877
35	0x3e350540	0.17677784
36	0xbf4ac9ea	-0.79214346
37	0xbe27202e	-0.1632087
38	0x3e20418e	0.15650007
39	0xbed5ec9b	-0.41782078
40	0x3de308fc	0.11085698
41	0x3c4ea10c	0.012611639
42	0x3ed3a8d9	0.41339758
43	0x3e2e9a88	0.17051136
44	0x3e943fc1	0.2895489
45	0xbd9b2c78	-0.07576841
46	0x3ea6e07f	0.32593152
47	0xbe004a2a	-0.12528291
48	0xbee79668	-0.45231938
49	0x3ec9faeb	0.39449248
50	0xbf17b43d	-0.59259397
51	0x3ed0ff72	0.4081989
52	0xbeb07e2d	-0.34471264
53	0x3ea261a1	0.3171511
54	0xbe17ad85	-0.14812286
55	0x3efe9cfe	0.4972915
56	0x3e720d18	0.23637807
57	0x3deef85d	0.11668465
58	0x3e5da05b	0.21643202
59	0x3e4530d1	0.19256903
60	0xbea8d390	-0.3297391
61	0xbed60b63	-0.41805562
62	0xbf2ef16d	-0.68337137
63	0xbd332ea1	-0.04374564
64	0xbd592d3e	-0.053021662
65	0xbec72ccd	-0.38901368
66	0xbe1ff6e3	-0.15621524
67	0x3ddd4728	0.108045876
68	0x3ed7e3ca	0.42165977
69	0xbeae7197	-0.34071037
70	0x3e132367	0.14368974
71	0xbd1e105b	-0.038589817
72	0xbebbe14b	-0.36695322
73	0x3e51df14	0.20495254
74	0xbeb3042f	-0.3496413
75	0x3f0a8419	0.54107815
76	0x3dc6e93b	0.09712454
77	0xbe1513f7	-0.14558397
78	0xbeaf45eb	-0.3423303
79	0xbe07fc4e	-0.1327984
80	0x3ed1279e	0.40850538
81	0xbe37ebf9	-0.1796111
82	0x3e0e52da	0.13898793
83	0x3e27fe2f	0.16405557
84	0x3e5a4ac9	0.21317591
85	0xbeccc18c	-0.39991415
86	0x3def9309	0.116979666
87	0xbe91fd9b	-0.28513798
88	0xbe6d0815	-0.23147614
89	0x3e88e0d4	0.2673403
90	0xbdffcdf9	-0.12490458
91	0x3e70e635	0.23525317
92	0x3e021180	0.12701988
93	0xbd27b631	-0.040945236
94	0x3f2b5603	0.6692812
95	0x3e89dc19	0.26925734
96	0x3eeb4148	0.45948243
97	0xbe613e1b	-0.21996348
98	0xbde5db8e	-0.11223517
99	0x3e899a18	0.26875377
100	0xbe11432d	-0.14185782
101	0xbe41960d	-0.18904896
102	0xbde861a4	-0.113467485
103	0x3ea6364c	0.324633
104	0xbccb51ef	-0.024819342
105	0x3e98b5ef	0.29826304
106	0xbe5ebf6b	-0.21752708
107	0x3db86689	0.09003932
108	0xbf42a30c	-0.7603004
109	0xbdd1961a	-0.10233708
110	0x3eefc2ba	0.46828252
111	0x3e48fc52	0.19627503
112	0x3eb7586d	0.3580965
113	0x3e9e1f03	0.30883035
114	0x3e1f3e7f	0.15551184
115	0x3bb422cb	0.0054973117
116	0x3eb5b7fa	0.35491925
117	0xbec483cd	-0.38381806
118	0x3ee02336	0.43776864
119	0x3ef9714a	0.48719245
120	0xbdc7a447	-0.0974813
121	0xbea0f7b5	-0.31438985
122	0xbeb15b69	-0.34640053
123	0xbc9448ae	-0.018101063
124	0xbeac495e	-0.33649725
125	0x3eb5e653	0.35527286
126	0x3e8b9b43	0.27266893
127	0xbf05658f	-0.5210809
128	0x3ece4496	0.40286702
129	0x3e8d7440	0.27627754
130	0x3e6913e0	0.22761488
131	0x3e17b899	0.14816512
132	0xbe0b2f7c	-0.13592333
133	0xbe87eeab	-0.26549277
134	0xbec92c22	-0.39291483
135	0xbe8a03e7	-0.26956102
136	0x3e6b12e5	0.22956426
137	0x3ebce2c4	0.36891758
138	0x3e5eee54	0.21770602
139	0x3eb74396	0.3579375
140	0xbee27af1	-0.44234422
141	0xbd5f82d5	-0.05456813
142	0x3e7807d7	0.2422174
143	0x3e0b4d71	0.1360376
144	0xbea463ca	-0.32107383
145	0x3e844627	0.25834772
146	0xbde23f70	-0.11047256
147	0x3e683cfc	0.22679514
148	0x3d6e5542	0.058186777
149	0x3c1b2bf1	0.009470926
150	0x3ec6f799	0.38860777
151	0x3eefa0d5	0.46802393
152	0x3dbc831a	0.09204693
153	0xbeefe8fb	-0.46857437
154	0xbe22a34e	-0.15882608
155	0xbda4a155	-0.08038584
156	0xbd0988a8	-0.03357759
157	0xbe233fba	-0.15942279
158	0xbe8dd471	-0.27701142
159	0xbe6ed861	-0.2332473
160	0xbe207415	-0.15669282
161	0xbe54ac0b	-0.20768754
162	0x3eacf4fa	0.33780652
163	0xbef72ad3	-0.4827486
164	0xbd8ca466	-0.06867294
165	0x3f378d19	0.7169967
166	0x3e000bdc	0.12504524
167	0xbe851a62	-0.2599669
168	0xbded2c9b	-0.115807734
169	0xbf0de375	-0.55425197
170	0xbadd2721	-0.0016872623
171	0xbe16ab5b	-0.14713804
172	0x3f1149a9	0.5675302
173	0x3f0c2294	0.5474026
174	0xbf21de88	-0.6323018
175	0xbf1d5569	-0.6145845
176	0x3d178e40	0.037000895
177	0xbf0e59cf	-0.5560579
178	0xbee6171b	-0.44939503
179	0x3f11731f	0.56816286
180	0xbf2b96f1	-0.67027193
181	0xbdc874cf	-0.097879045
182	0xbc577c41	-0.013152183
183	0x3e95b6ec	0.2924112
184	0x3e3787c6	0.17922887
185	0x3f3dfbba	0.7421223
186	0xbea29648	-0.3175528
187	0x3e801669	0.25017098
188	0xbe2301a7	-0.15918599
189	0x3efb42a3	0.49074277
190	0xbdbd2bcd	-0.0923687
191	0x3eb5e0f7	0.35523197
192	0xbcfa4a40	-0.030552983
193	0xbc9a7ad7	-0.018857403
194	0xbdbea1db	-0.09308215
195	0x3e3d44c1	0.18483259
196	0x3e228845	0.15872295
197	0xbda2c388	-0.07947451
198	0x3e222ee4	0.158382
199	0x3e635dae	0.22203705
200	0xbe99015f	-0.2988386
201	0xbddd477a	-0.10804649
202	0x3e26d9b6	0.16293988
203	0xbc2f4c00	-0.010699272
204	0x3c9af168	0.01891394
205	0x3ee75744	0.45183766
206	0xbdbaeec3	-0.091275714
207	0x3db934a9	0.09043247
208	0xbe5fec8f	-0.21867584
209	0x3f115e68	0.5678468
210	0xbecf653b	-0.4050692
211	0x3d5c7b15	0.053828318
212	0xbe642346	-0.22279081
213	0x3ef8216d	0.48463002
214	0xbe1b6761	-0.15176155
215	0xbe0a2e3e	-0.13494202
216	0xbef1e05e	-0.4724149
217	0xbe84da97	-0.2594802
218	0xbe84a0a7	-0.25903818
219	0x3ea00c64	0.31259453
220	0xbcc5447e	-0.024080511
221	0xbeb4a858	-0.35284686
222	0x3d7932fd	0.06083964
223	0xbdff6242	-0.12469913
224	0xbc6bb365	-0.014386033
225	0x3e4ff85c	0.20309585
226	0x3e90fb4c	0.28316724
227	0x3f26b4d2	0.6511966
228	0x3e004efc	0.1253013
229	0xbc9ba4f8	-0.018999562
230	0xbe048afb	-0.12943642
231	0x3cf706ce	0.030154612
232	0xbe4ee291	-0.20203616
233	0x3f4d983c	0.80310416
234	0x3e10194e	0.14072153
235	0x3d9ca2e9	0.0764826
236	0xbf496cb7	-0.7868151
237	0xbd61f8ec	-0.05516903
238	0x3d5dca24	0.054147854
239	0x3eddc66c	0.43315446
240	0xbef93c86	-0.48678988
241	0x3e02a0e6	0.1275669
242	0x3d517fb8	0.051147193
243	0x3ed8c30f	0.42336318
244	0x3e207c87	0.15672503
245	0x3f0c54e5	0.5481704
246	0xbe4b5cd8	-0.19859636
247	0xbe2c1007	-0.16802989
248	0x3e806a84	0.25081265
249	0xbe0c36a5	-0.1369272
250	0xbda98a35	-0.08278314
251	0x3cfc4a06	0.030797016
252	0xbebc4659	-0.3677242
253	0xbd9a5bfa	-0.075370744
254	0xbf2285fc	-0.63485694
255	0xbe9dca45	-0.30818382

fc2.bias f4 [32]
0	0xbdad30d3	-0.08456578
1	0xbcb73906	-0.022366058
2	0xbd6926ed	-0.05692189
3	0xbdef1519	-0.11673946
4	0x3c456f60	0.01205048
5	0x3dfdcae3	0.12392213
6	0xbd1c0cbf	-0.038098093
7	0xbd243b95	-0.040095884
8	0x3d3f7651	0.046743695
9	0xbd11f5ff	-0.03563499
10	0x3e27cf45	0.16387661
11	0x3b8d89aa	0.0043193894
12	0x3d976ccf	0.073938005
13	0xbc07b160	-0.008282036
14	0x3e2e244f	0.17006038
15	0xbd039164	-0.032121077
16	0xbd699aff	-0.05703258
17	0x39743a34	0.00023291336
18	0xbd86b549	-0.06577546
19	0xbd82f7a3	-0.06394889
20	0xbd281185	-0.041032333
21	0xbd76c418	-0.060245603
22	0x3d510f6a	0.05104009
23	0xbe1a222b	-0.15052097
24	0xbd08a165	-0.033357043
25	0x3d964e4d	0.073391534
26	0xbd114f7e	-0.0354762
27	0xbe06928f	-0.13141845
28	0xbc12b937	-0.0089552915
29	0xbcb2cd3a	-0.021826375
30	0x3e1b6ddc	0.15178627
31	0xbd3cbe2e	-0.046079807

fc3.weight f4 [32, 32]
0	0xbed974da	-0.42471963
1	0xbd087db2	-0.033322997
2	0x3e3491f1	0.17633797
3	0xbd45750a	-0.04820732
4	0xbdae27a6	-0.08503656
5	0x3ecc7057	0.39929458
6	0xbe3ee16f	-0.18640684
7	0xbeb1ae96	-0.3470351
8	0x3ee26edd	0.44225207
9	0x3e7c44e6	0.24635658
10	0xbf47f977	-0.7811503
11	0x3f3665d4	0.7124913
12	0x3f04eda4	0.5192511
13	0xbed6d092	-0.41956002
14	0x3e8dc227	0.2768719
15	0xbe342f5d	-0.17596193
16	0xbd8fea6e	-0.07027136
17	0xbd22bd52	-0.03973133
18	0xbef56276	-0.47926682
19	0x3cdcfa07	0.026974691
20	0xbd7164c1	-0.058933977
21	0x3f0dd2b7	0.5539965
22	0x3c14439a	0.009049321
23	0x3ed439c1	0.41450313
24	0xbe936c08	-0.2879336
25	0x3f435e33	0.7631561
26	0xbd0775b7	-0.033071246
27	0xbd8e6bc1	-0.06954146
28	0xbf1e721b	-0.6189286
29	0xbe95c77d	-0.2925376
30	0xbc41a8ce	-0.011820031
31	0xbee5c179	-0.4487417
32	0xbf3211ee	-0.6955861
33	0x3e91199c	0.2833985
34	0x3ed682aa	0.41896564
35	0xbe92cd60	-0.28672314
36	0xbe63cc36	-0.22245869
37	0x3da62f8f	0.0811454
38	0x3eea33c1	0.4574261
39	0xbe83a8ad	-0.25714627
40	0x3e1ae101	0.15124895
41	0x3e219067	0.15777741
42	0xbeb003b3	-0.34377822
43	0x3e0d3a0c	0.13791674
44	0x3d9c9483	0.07645514
45	0xbdf87225	-0.12131146
46	0x3ec4d6e6	0.38445204
47	0xbec01e5a	-0.37523156
48	0xbcd45e5f	-0.025923906
49	0x3f08c3e2	0.53423893
50	0xbe0d1e12	-0.13781002
51	0xbe8697e4	-0.26287758
52	0xbea4348d	-0.32071343
53	0x3deed132	0.116609946
54	0x3e287bcb	0.16453473
55	0xbe2ab7a5	-0.16671617
56	0xbf0fb4dd	-0.5613535
57	0x3ed6b6e2	0.41936404
58	0xbcf52c69	-0.029928403
59	0xbea8dc0e	-0.32980388
60	0xbec4ea63	-0.38460073
61	0xbea02653	-0.3127924
62	0x3f252bb4	0.6451981
63	0x3dac1ec0	0.084043026
64	0xbdb8bdba	-0.090205625
65	0xbea159ca	-0.31513816
66	0x3aaffa8d	0.001342611
67	0xbe447531	-0.1918533
68	0x3e9a21ed	0.30104008
69	0xbf096877	-0.53675026
70	0x3eab2284	0.3342477
71	0x3e350eaf	0.17681383
72	0x3ea1e956	0.31623334
73	0x3b333e7a	0.0027350471
74	0xbdc7773e	-0.097395405
75	0x3e005b62	0.1253486
76	0x3d9abc3d	0.07555435
77	0x3eb5de4c	0.35521162
78	0xbee68138	-0.4502046
79	0x3e158e76	0.14605126
80	0x3eed5d6f	0.46360347
81	0xbe8a4f14	-0.27013457
82	0x3e962d2e	0.29331344
83	0x3dfa2592	0.12214197
84	0x3cf502a6	0.02990849
85	0xbde05c0c	-0.109550565
86	0x3cfb2613	0.030657804
87	0x3ea0cb82	0.31405264
88	0x3f16a66d	0.58847696
89	0xbd35c69e	-0.04437887
90	0xbf5c5669	-0.8606935
91	0x3f0da454	0.5532887
92	0xbd05493d	-0.03254055
93	0x3c38e950	0.011286095
94	0xbf4b65aa	-0.79452
95	0xbd9e3d95	-0.077265896
96	0x3d809115	0.06277672
97	0x3f0891f2	0.53347695
98	0xbe9d665b	-0.30742154
99	0x3ebc90d6	0.3682925
100	0x3f217732	0.630725
101	0x3d11659c	0.035497293
102	0x3eaf6a0a	0.3426059
103	0xbdfa7642	-0.12229587
104	0x3d541862	0.051781066
105	0xbf2334bf	-0.6375236
106	0x3f2f1c21	0.68402296
107	0xbe820232	-0.253923
108	0xbf48d305	-0.7844699
109	0xbdccd8d5	-0.10002295
110	0xbdf30834	-0.11866799
111	0x3e0e22b8	0.13880432
112	0x3ee59dbc	0.44846904
113	0xbef86bb3	-0.48519668
114	0xbc9135ff	-0.017725943
115	0xbed1dd0b	-0.40988955
116	0x3e8dc154	0.2768656
117	0xbeda542c	-0.42642343
118	0xbee740a8	-0.45166516
119	0xbe3f2b83	-0.18668942
120	0xbe8adee5	-0.2712318
121	0xbe8471d5	-0.25868097
122	0xbd81ecc5	-0.06343988
123	0xbe8395b5	-0.25700155
124	0x3f2d1269	0.67606217
125	0xbefaece5	-0.4900886
126	0x3db655b8	0.08903068
127	0x3e907375	0.28213087
128	0x3f75e343	0.960499
129	0x3e29e314	0.1659053
130	0xbe795b76	-0.24351296
131	0x3eb8b249	0.3607352
132	0xbbb6476f	-0.0055627148
133	0xbe02ad0c	-0.12761325
134	0x3f23c583	0.63973254
135	0x3d38598d	0.045007277
136	0xbf2b5cd5	-0.66938525
137	0xbea51ae8	-0.3224709
138	0x3e9c126b	0.30482802
139	0xbec5a510	-0.38602495
140	0xbf22fe15	-0.6366895
141	0x3e2496e7	0.1607319
142	0xbf22b19a	-0.6355225
143	0x3d4e538b	0.05037264
144	0xbe0d69a6	-0.13809833
145	0xbe58d24f	-0.21173976
146	0x3e738d1c	0.23784298
147	0xbeb3e287	-0.35133764
148	0x3ebffdb9	0.37498263
149	0xbf05be13	-0.52243155
150	0xbeb67f8b	-0.35644183
151	0xbe931a83	-0.28731164
152	0x3e0b69ea	0.13614622
153	0xbf266c60	-0.6500912
154	0xbba2d347	-0.004969034
155	0x3ca165fd	0.019701952
156	0x3f2bd23c	0.6711767
157	0x3daba42a	0.08380921
158	0xbe2d750d	-0.16939183
159	0xbd0764d1	-0.03305513
160	0x3f03b019	0.5144058
161	0x3d811bea	0.06304152
162	0xbe868bd6	-0.2627856
163	0xbf075d5f	-0.5287685
164	0x3b0e55ea	0.002171869
165	0x3f9c6fc0	1.2221603
166	0x3b61b4cb	0.0034440036
167	0xbe8eef36	-0.27916878
168	0x3d1b4532	0.037907787
169	0xbe6fd6d6	-0.23421797
170	0x3ed6a92b	0.4192594
171	0x3e2ac027	0.16674863
172	0x3e455a64	0.19272763
173	0xbe286b7d	-0.16447254
174	0x3f1d2d1a	0.61396945
175	0x3df768ad	0.12080512
176	0xbeda52cc	-0.42641294
177	0x3ed87162	0.42274004
178	0xbe8b897c	-0.2725333
179	0xbe789c52	-0.24278381
180	0xbd013187	-0.031541374
181	0x3e4dab0c	0.2008478
182	0xbf8453cb	-1.0338072
183	0xbec5af5b	-0.38610348
184	0xbf042cb0	-0.5163069
185	0xbe2c522f	-0.16828226
186	0xbe8444c0	-0.25833702
187	0xbf003707	-0.50083965
188	0xbe070ed1	-0.13189246
189	0x3e950e9e	0.29112715
190	0x3f11e7b5	0.5699418
191	0x3d56aca3	0.052410733
192	0xbefac512	-0.48978478
193	0xbf04416a	-0.51662314
194	0x3ea4b85e	0.3217191
195	0xbeac9a7e	-0.33711618
196	0xbee524e0	-0.44754696
197	0x3eb39899	0.3507736
198	0xbeb8d6fc	-0.3610152
199	0x3cf00ccc	0.029302977
200	0x3e071e56	0.13195166
201	0x3cfd7d27	0.030943466
202	0x3de6ceca	0.11269911
203	0x3f293292	0.6609279
204	0xbdb3f8e1	-0.08787704
205	0xbec1767e	-0.37785715
206	0x3e889a66	0.26680297
207	0xbe8c0eea	-0.2735513
208	0xbc0201f7	-0.007935039
209	0x3e72ffaa	0.2373034
210	0xbf1948cf	-0.5987672
211	0xbdc7025e	-0.097172484
212	0x3c9a9dfb	0.01887416
213	0x3e64c600	0.22341156
214	0x3f56b98f	0.8387689
215	0xbd973114	-0.07382408
216	0xbf1d25fa	-0.6138607
217	0xba15f62f	-0.0005720583
218	0x3d31ed4b	0.04343919
219	0x3c576793	0.013147253
220	0x3e227682	0.1586552
221	0xbe5e98de	-0.21738002
222	0xbd0758c8	-0.033043653
223	0x3c20afa6	0.009807503
224	0x3ee67dc1	0.45017818
225	0x3eb25000	0.3482666
226	0xbe0af7d3	-0.135711
227	0xbe74897f	-0.23880576
228	0xbe5abe70	-0.21361709
229	0x3f1fe0e4	0.6245253
230	0xbdd121f8	-0.10211557
231	0xbe40dbd3	-0.18833856
232	0x3d8f3476	0.06992428
233	0x3d23c701	0.039984707
234	0x3e81084e	0.25201648
235	0xbbb5510a	-0.0055333422
236	0x3e05cdbc	0.13066763
237	0xbefdec85	-0.49594513
238	0x3ecfc227	0.40577814
239	0x3d027106	0.03184607
240	0xbf303df5	-0.6884454
241	0x3e9de736	0.30840462
242	0xbdda5393	-0.10660472
243	0xbed75b24	-0.42061722
244	0xbece706e	-0.40320152
245	0x3df54162	0.119753614
246	0xbe7f3be1	-0.24925186
247	0xbb24578d	-0.0025076598
248	0xbf2643fd	-0.6494749
249	0x3d8832e7	0.06650334
250	0x3d6b91dd	0.057512153
251	0xbf07e037	-0.530765
252	0x3df2b0bf	0.11850118
253	0x3e40e43e	0.18837067
254	0x3f495062	0.7863828
255	0xbdc1025c	-0.09424278

fc3.bias f4 [32]
0	0x3c2136ad	0.009839696
1	0x3cb4734c	0.022027634
2	0xbda0ceab	-0.07851919
3	0xbd1befe4	-0.038070574
4	0x3dd7e4a1	0.105416544
5	0x3e199492	0.14998081
6	0x3dcee2d1	0.101018555
7	0x3d490c5c	0.049084052
8	0x3d083321	0.033251885
9	0xbd6ab4a8	-0.057301193
10	0xbccf1768	-0.025279716
11	0x3dfbf74a	0.12303026
12	0xbda03768	-0.07823068
13	0xbd143da9	-0.036191616
14	0xbb914e0c	-0.0044343527
15	0xbc87856a	-0.016543109
16	0xbd59a103	-0.05313207
17	0xbd005580	-0.03133154
18	0xbd5fb88d	-0.05461936
19	0xbdd4f35e	-0.10397981
20	0xbc8ec87f	-0.017429588
21	0x3c9c5b93	0.019086635
22	0xbb92d9fc	-0.004481552
23	0xbd8503c4	-0.06494859
24	0xbbeec1da	-0.0072862925
25	0x3ce63ba6	0.028104614
26	0x3c3e6204	0.011620048
27	0x3c9b06b7	0.0189241
28	0xbd8d8729	-0.069105454
29	0xbc3770a5	-0.01119629
30	0x3d4751c5	0.048661966
31	0xbdd5456f	-0.10413634

fc4.weight f4 [20, 32]
0	0x3f941382	1.1568453
1	0x3f1171fb	0.56814545
2	0xbedb64c9	-0.4285033
3	0xbf9551df	-1.166561
4	0xbf942485	-1.1573645
5	0x3e0c0cee	0.13676807
6	0x3f12d4ce	0.57355964
7	0x3e8882a9	0.26662186
8	0x3f8bd28f	1.0923632
9	0x3f0d2303	0.5513155
10	0xbeaa25e4	-0.33232033
11	0xbf9aee88	-1.2104044
12	0x3f33b068	0.7019105
13	0xbf71fc78	-0.9452586
14	0xbf50eec5	-0.81614333
15	0xbf0d03ae	-0.5508374
16	0xbf294ea1	-0.66135603
17	0xbf96cb0c	-1.1780715
18	0x3f6d64ea	0.9273211
19	0xbf223f8e	-0.63378227
20	0x3fb1006d	1.3828255
21	0xbebb7876	-0.36615342
22	0x3f5dca88	0.86637163
23	0xbf321824	-0.69568086
24	0x3f343dff	0.704071
25	0x3f5d0833	0.86340636
26	0x3ef3f4b0	0.4764762
27	0xbfb52fbf	-1.4155196
28	0x3f015280	0.5051651
29	0xbf47e204	-0.7807925
30	0x3f96e000	1.1787109
31	0x3ee0aa8c	0.43880117
32	0x3e12e9e2	0.14347032
33	0x3f4f910a	0.8108069
34	0xbf71fdc2	-0.9452783
35	0x3e7c8ccf	0.24663089
36	0xbe5bb51b	-0.21455805
37	0x3fab16b9	1.336631
38	0x3da7853f	0.081797116
39	0x3fa23dd3	1.2675117
40	0x3f02770c	0.509629
41	0xbf3e8f6c	-0.74437594
42	0xbef84b29	-0.48494843
43	0xbf7a14eb	-0.9768817
44	0xbe159454	-0.14607364
45	0xbf1a480c	-0.60266185
46	0xbf1a030b	-0.60160893
47	0xbf6ccdbe	-0.9250144
48	0xbf775366	-0.9661163
49	0xbcaff504	-0.021479137
50	0x3f606b5e	0.8766383
51	0xbf026d26	-0.509478
52	0xbe1900ee	-0.14941761
53	0xbee63378	-0.44961143
54	0x3f81128a	1.0083783
55	0x3f018331	0.5059081
56	0xbf4875b1	-0.7830458
57	0x3f2e3319	0.6804672
58	0x3f4f7956	0.8104452
59	0xbef62c6f	-0.48080775
60	0x3d23ed59	0.040021274
61	0x3c95852d	0.01825198
62	0x3f8540fb	1.0410455
63	0xbd5733fe	-0.052539818
64	0xbe95f8c3	-0.29291353
65	0x3d908422	0.07056452
66	0xbf5ca683	-0.86191577
67	0x3ef20884	0.47272122
68	0x3eb67dbd	0.35642806
69	0x3f227a71	0.6346808
70	0xbf0b974d	-0.5452774
71	0x3f6dea37	0.9293551
72	0xbc7bf6b6	-0.015378645
73	0xbf6a2816	-0.91467416
74	0xbf4ac560	-0.7920742
75	0xbe09ff35	-0.1347626
76	0xbeb102c4	-0.34572423
77	0xbcc3e2ec	-0.023911916
78	0x3f56e3ad	0.83941156
79	0x3e51c25f	0.20484303
80	0xbe2db5fd	-0.16963954
81	0x3e5b09ac	0.21390408
82	0x3e715598	0.23567808
83	0x3ee8779f	0.45403764
84	0xbebbbcf1	-0.36667588
85	0xbe7899aa	-0.24277368
86	0x3f37724c	0.7165878
87	0x3f3622d4	0.71146894
88	0xbf841984	-1.0320287
89	0xbcce6c37	-0.025198085
90	0x3f274864	0.65344834
91	0xbedbef6b	-0.429561
92	0xbf16432a	-0.58696234
93	0x3f61435d	0.87993413
94	0x3efbc985	0.49177185
95	0xbf3ad5fe	-0.72982776
96	0xbe5a94a4	-0.21345764
97	0xbf5b032a	-0.855517
98	0xbe63e680	-0.22255898
99	0x3e3da258	0.1851896
100	0x3f780767	0.96886295
101	0x3e9306db	0.28716168
102	0xbeb9cc63	-0.36288747
103	0xbdad379e	-0.08457874
104	0xbf44e6bd	-0.7691458
105	0xbf12047d	-0.570381
106	0x3dfd0984	0.123553306
107	0x3eb863f6	0.36013764
108	0xbebbd584	-0.36686337
109	0x3f15f88d	0.58582383
110	0x3e8e1a02	0.27754217
111	0x3f4dd08b	0.80396336
112	0xbebb1977	-0.36542866
113	0x3ea7ce49	0.3277457
114	0x3e612841	0.21988012
115	0x3f2b8af3	0.67008895
116	0xbf03c7d0	-0.51476765
117	0xbe95e056	-0.29272717
118	0xbe8284cf	-0.2549195
119	0x3f484b7b	0.78240174
120	0xbe6fe285	-0.23426254
121	0xbed72d78	-0.42026877
122	0xbbfc6818	-0.0077028386
123	0x3e59480d	0.21218891
124	0xbcd5766e	-0.026057448
125	0x3eec252b	0.46122107
126	0xbea38e28	-0.31944394
127	0xbf0bf836	-0.54675615
128	0xbe56df33	-0.20983581
129	0xbea5a6dd	-0.3235387
130	0x3ef59053	0.47961673
131	0x3eb4596e	0.3522448
132	0x3e31693a	0.17325297
133	0xbe0c505c	-0.1370253
134	0xbe8838af	-0.26605746
135	0xbee9d6f5	-0.45671812
136	0xbf3f2729	-0.7466913
137	0x3e733fc3	0.23754792
138	0x3e15a756	0.14614615
139	0x3ec40cdd	0.38291064
140	0x3e25819e	0.16162726
141	0xbe6af41b	-0.22944681
142	0x3e14c141	0.14526846
143	0x3f3374f9	0.7010036
144	0x3e45fd2f	0.19334863
145	0x3f2eb46a	0.6824404
146	0xbf325b41	-0.6967049
147	0x3eb7f95e	0.3593244
148	0xbe9dff16	-0.30858678
149	0x3d258a10	0.04041487
150	0xbf2365c8	-0.6382718
151	0x3e13e334	0.1444214
152	0x3efc22b4	0.49245226
153	0xbee7f646	-0.4530508
154	0xbdf29de1	-0.11846519
155	0x3eed7fc1	0.4638653
156	0xbda5ecf5	-0.081018366
157	0xbe569f25	-0.20959146
158	0xbe47808b	-0.19482629
159	0xbe8ecb76	-0.27889603
160	0x3e6533b7	0.22383009
161	0xbd8b5f62	-0.06805302
162	0x3db3a78f	0.08772194
163	0xbd5db151	-0.05412418
164	0xbe8cd0ac	-0.27502954
165	0xbf3dc6bf	-0.7413139
166	0xbe642bb8	-0.22282302
167	0x3c8d2681	0.017230274
168	0xbc9b4c7c	-0.018957369
169	0x3ecb64ba	0.39725286
170	0x3e01c195	0.12671502
171	0x3f0a72c7	0.54081386
172	0x3f198638	0.59970427
173	0xbdc2083e	-0.09474228
174	0x3d5e1c06	0.054225944
175	0xbd20a7bb	-0.03922246
176	0x3f0ad88f	0.5423669
177	0xbeb82955	-0.35969034
178	0xbe0e5e1b	-0.13903086
179	0xbd83877a	-0.064223245
180	0xbe372d33	-0.17888336
181	0xbb01ea49	-0.0019823483
182	0xbf274cff	-0.6535186
183	0xbe12ab62	-0.1432319
184	0x3e8bf566	0.27335662
185	0xbe49f810	-0.19723535
186	0xbefaba5c	-0.48970306
187	0x3efd9e3f	0.49534795
188	0x3f1196fa	0.56870997
189	0xbea434cd	-0.32071534
190	0xbe71c0ec	-0.2360875
191	0x3e443a2f	0.1916282
192	0x3f19238a	0.59819853
193	0xbe144817	-0.14480625
194	0xbbe86902	-0.007092596
195	0xbe6b8a80	-0.23002052
196	0xbe8ef19d	-0.2791871
197	0xbee7656f	-0.45194575
198	0x3e4bfcf0	0.19920707
199	0x3e265dd6	0.16246733
200	0x3ca443b0	0.020051807
201	0x3e44bf54	0.19213611
202	0x3f14f045	0.5817912
203	0xbebaac50	-0.3645959
204	0x3e25a29c	0.16175312
205	0xbed1cebd	-0.4097804
206	0xbea37241	-0.31923106
207	0xbef85e55	-0.4850947
208	0xbd59ac1d	-0.053142656
209	0x3e78169e	0.24227378
210	0x3efd877b	0.49517426
211	0xbe242ea7	-0.16033421
212	0x3e653f81	0.22387506
213	0x3c94f97f	0.018185375
214	0xbe927d60	-0.2861128
215	0xbeab5434	-0.3346268
216	0x3f375571	0.7161475
217	0xbe93f3bc	-0.28896892
218	0x3deb4756	0.114882156
219	0x3d859a62	0.06523587
220	0xbd281f2b	-0.04104535
221	0x3da641be	0.08118008
222	0xbeec99d0	-0.462111
223	0x3e863fd1	0.26220563
224	0x3e97fe34	0.2968613
225	0x3ee9cff2	0.45666462
226	0x3decc5b9	0.1156115
227	0xbc9f26f5	-0.019427756
228	0xbc2f8fe5	-0.0107154595
229	0x3ea14f15	0.31505647
230	0x3ea43541	0.3207188
231	0x3d9a696f	0.07539641
232	0x3dc97430	0.09836614
233	0xbe089b15	-0.13340409
234	0xbeb3ad60	-0.35093212
235	0xbe7c693a	-0.24649516
236	0x3e2b6f06	0.16741571
237	0xbedd9e3e	-0.43284792
238	0xbeb1a279	-0.3469427
239	0xbe9e96de	-0.30974478
240	0xbe614579	-0.21999158
241	0x3e92dd50	0.28684473
242	0xbe29c703	-0.16579823
243	0xbdf7ceb1	-0.1209997
244	0x3da4ed58	0.08053082
245	0x3e8b7a77	0.2724187
246	0x3eb64717	0.35601112
247	0xbd2953a6	-0.04133954
248	0x3f0a06be	0.5391654
249	0x3e84c9cc	0.2593521
250	0xbe273341	-0.16328146
251	0xbd6129ea	-0.054971613
252	0xbe8558a6	-0.26044196
253	0xbeed87c5	-0.46392646
254	0x3e5a77f8	0.21334827
255	0xbe95db41	-0.2926884

fc4.bias f4 [20]
0	0x3d84f316	0.064916775
1	0xbba02434	-0.0048871282
2	0xbdde0b99	-0.10842056
3	0x3cef4116	0.02920584
4	0xbc886f44	-0.016654618
5	0x3cee9449	0.029123442
6	0x3dddc097	0.10827749
7	0xbd637189	-0.055528197
8	0x3dd31987	0.10307603
9	0x3ba021ad	0.004886827
10	0x3d58b58f	0.052907523
11	0xbd0af0a9	-0.033920918
12	0x3d3fc46b	0.04681818
13	0x3d683822	0.056694157
14	0x3d0635f7	0.03276631
15	0x3d06b4d4	0.032887295
16	0x3d108d22	0.035290845
17	0xbc00a763	-0.007852408
18	0x3d9b81c7	0.075931124
19	0xbc10d587	-0.008839971
