transfer/dampedSpring/data/transfer_retraining/k(1.1)_model_weights.pth (torch, 13651 bytes, 8 tensors)

fc1.weight f4 [32, 2]
-0.07807188 -0.23791893 0.027433489 -0.2549294 0.011258378 0.25844738 -0.06519702 0.19637029
0.034178566 0.7018794 -0.016925158 0.25996947 0.120217435 -0.446563 1.479964 -1.5208757
0.04314625 0.22512735 -0.030312253 -0.24584888 0.25061598 -0.060369845 0.11804747 0.15721145
0.19114523 0.0037804737 0.34715295 2.8090723 -0.2080408 0.010305285 1.5138128 -1.5416619
0.0382503 -0.21301277 -0.09049725 0.4547165 -0.14256428 -0.1600032 0.182891 0.061748803
0.896884 -0.8662382 0.54809904 -2.4816766 0.20338878 0.015805457 0.0026595176 -0.23551658
-0.039903782 -0.24598043 -0.5685219 0.0010875491 0.22852778 -0.035100218 -0.21684396 0.016906677
-0.20702313 0.023572419 0.07412312 0.23348004 -0.20027818 -0.0016924532 -0.2161541 -0.019060144
00000000: 26e4 9fbd 05a1 73be 32bc e03c 1b86 82be
00000010: 0f75 383c 3753 843e 0486 85bd 4b15 493e
00000020: d3fe 0b3d 5eae 333f a1a6 8abc b81a 853e
00000030: 8f34 f63d e8a3 e4be 766f bd3f 0eac c2bf
00000040: 1fba 303d c987 663e 6751 f8bc cfbf 7bbe
00000050: bd50 803e 5f46 77bd dfc2 f13d 0afc 203e
00000060: 93bb 433e d3c1 773b 08be b13e d7c7 3340
00000070: a608 55be 80d7 283c 9ec4 c13f 2d55 c5bf
00000080: 59ac 1c3d 0520 5abe 9f56 b9bd 9ad0 e83e
00000090: 5ffc 11be e1d7 23be c747 3b3e 50ec 7c3d
000000a0: 319a 653f c9c1 5dbf 3850 0c3f cad3 1ec0
000000b0: 2645 503e 727a 813c 4d4b 2e3b 422b 71be
000000c0: 2672 23bd 4be2 7bbe a78a 11bf 188c 8e3a
000000d0: 3003 6a3e 3fc5 0fbd 580c 5ebe df7f 8a3c
000000e0: dffd 53be f21a c13c ddcd 973d 6415 6f3e
000000f0: b915 4dbe 4ed5 ddba 8057 5dbe 0524 9cbc

fc1.bias f4 [32]
0.32007208 0.3168008 0.26495203 -0.09890582 0.21886322 0.48935878 -0.41879544 -0.054879416
0.0013651556 -0.36961308 0.43823373 0.10752153 0.19344002 0.090699255 0.24348664 -0.076078236
0.24091314 0.24888338 -0.0073284656 0.19017561 -0.085161686 -0.0053852587 -0.030630905 0.024756169
0.22808842 0.01206719 0.52438015 0.19115995 -0.075747564 -0.07086076 0.077641025 0.28395596
00000000: 7de0 a33e b733 a23e cba7 873e 228f cabd
00000010: ae1d 603e 3c8d fa3e 5b6c d6be 3dc9 60bd
00000020: 05ef b23a ed3d bdbe 2c60 e03e 3f34 dc3d
00000030: 2415 463e 88c0 b93d 9054 793e e8ce 9bbd
00000040: efb1 763e 49db 7e3e a023 f0bb 65bd 423e
00000050: 4069 aebd d376 b0bb aaed fabc 73cd ca3c
00000060: 0390 693e 77b5 453c c73d 063f 6fbf 433e
00000070: 8a21 9bbd 721f 91bd 4202 9f3d ad62 913e

fc2.weight f4 [32, 32]
-0.14737956 0.34313554 -0.2706382 0.55352753 -0.103714064 -0.08215199 0.017224927 0.30586222
-0.04832185 -0.5692893 -0.027755762 -0.88490707 -0.4738543 0.38397098 0.76086915 -0.30715382
-0.1831784 0.22839461 0.3419263 0.28667647 -0.35411972 -0.24866267 -0.18212014 0.092827894
0.29065084 -0.82554996 -0.23388588 0.8364191 0.4918145 -0.3369807 0.23906747 0.502547
0.15781654 0.21311231 -0.410235 -0.059460253 0.613932 -0.33138552 -0.14804511 0.25032884
-0.6901464 0.5285222 -0.2829257 -0.34586075 0.2800427 0.055401806 -0.20624273 -0.4384742
0.48223215 0.39047766 0.45364603 -0.4665276 -0.12759893 0.21496755 -0.117284365 0.4962291
0.72951394 -0.04505688 0.44386297 0.07183125 -0.210046 -0.5643555 -0.24983227 -0.031552855
-0.5464426 -0.20124167 0.10997495 -0.105632156 -0.2674255 -0.050435934 -0.07493345 0.19280669
0.1195013 0.05925344 -0.09007563 -0.1251099 0.011200593 0.074468285 -0.89494365 0.08232136
-0.26815403 -0.32666776 -0.52590024 0.39971828 -0.044368736 0.23051058 0.42934862 0.39400005
-0.25670597 -0.2293384 0.5958212 -0.071881846 -0.2704894 0.2293176 -0.7124353 -0.1977972
-0.4538555 0.11878016 0.018327668 -0.15016162 -0.15233152 -0.3260355 0.2785637 0.1966485
-0.3779091 0.037270714 0.13546647 0.28340656 0.4675968 0.16758808 -0.49817714 -0.27651048
-0.4442451 -0.39258295 0.030625192 0.47394767 0.4161368 -0.20335625 -0.08096795 -0.09414923
-0.11129467 -0.031607278 0.04772136 -0.6492889 -0.9398544 0.3109332 -0.1451897 -0.37462208
0.3545431 0.2264096 -0.5469845 -0.617407 0.1716328 -0.29693884 0.22192688 -0.16333601
-0.22954321 0.48838627 -0.33133438 -0.20785467 -0.18438482 -0.28329834 0.3128363 -0.28994292
0.1980422 0.11651241 -0.15716659 0.26662615 0.20076975 -0.06870489 0.21374042 0.73427963
0.45921987 0.029327787 -0.03010239 0.19906509 -0.48134845 -0.49973202 -0.009160981 -0.26274416
0.035001297 -0.49237338 -0.28670898 0.0064280694 -0.3446692 -0.04227774 -0.19251303 0.035614822
-0.09152994 -0.30822948 0.13530634 0.24939144 -0.15800571 -0.3460452 0.14445876 -0.27072555
-0.09795944 -0.14073761 -0.3463706 -0.19508107 -0.13211037 0.25809115 0.16306558 -0.25765917
0.003382804 -0.222623 -0.035507187 -0.32082942 -0.10744305 -0.3754707 0.14426547 -0.13158841
0.36928552 0.05980254 -0.03938401 0.22946255 -0.27874854 0.21710822 -0.36936113 -0.1647691
-0.11487478 -0.07485287 -0.1742904 -0.17361827 -0.49801135 0.04162749 0.40491563 -0.10951156
-0.060237043 -0.19447172 0.13756156 -0.26154545 0.45251337 0.1366335 -0.23205598 0.29067403
0.17429435 0.05154298 -0.388609 0.67037874 0.36746305 0.15215336 0.33281523 0.59955066
-0.03919091 0.36054465 -0.8721638 -0.3005551 -0.34946743 -0.49999705 -0.36323464 0.3754185
-0.24119154 0.060423564 -0.052970763 0.17087811 0.23212336 -0.22183047 -0.98296213 -0.15877134
0.44647467 0.13107826 -0.059768066 0.41263434 -0.2944842 0.0127084525 -0.5235692 0.53046185
0.4678886 0.11482318 0.107234284 -0.24774595 0.1414698 -0.14241835 -0.20910956 0.05411872
00000000: abea 16be 76af af3e 1791 8abe fbb3 0d3f
00000010: 0a68 d4bd 4d3f a8bd 4a1b 8d3c f999 9c3e
00000020: 22ed 45bd f2bc 11bf 0d60 e3bc 4589 62bf
00000030: 089d f2be d897 c43e 52c8 423f 4443 9dbe
00000040: 1e93 3bbe 47e0 693e f710 af3e 42c7 923e
00000050: 2e4f b5be 6da1 7ebe b47d 3abe 8d1c be3d
00000060: 30d0 943e 3e57 53bf c87f 6fbe 901f 563f
00000070: 1ccf fb3e bc88 acbe 1ace 743e eca6 003f
00000080: a99a 213e 1d3a 5a3e 520a d2be 988c 73bd
00000090: a62a 1d3f 5dab a9be 2399 17be 1a2b 803e
000000a0: 6fad 30bf 3b4d 073f a3db 90be a914 b1be
000000b0: c261 8f3e 01ed 623d 4b31 53be b17f e0be
000000c0: 22e7 f63e b0ec c73e 4b44 e83e b5dc eebe
000000d0: 4ba9 02be 7420 5c3e c932 f0bd be11 fe3e
000000e0: 6dc1 3a3f 908d 38bd 0242 e33e 431c 933d
000000f0: 4c16 57be 9a79 10bf 08d4 7fbe 913d 01bd
00000100: aae3 0bbf 4c12 4ebe 8c3a e13d ac55 d8bd
00000110: ffeb 88be e995 4ebd b576 99bd 1e6f 453e
00000120: 19bd f43d bcb3 723d 9279 b8bd cf1c 00be
00000130: b182 373c d482 983d 071b 65bf 1a98 a83d
00000140: 7c4b 89be ff40 a7be 66a1 06bf e0a7 cc3e
00000150: febb 35bd f70a 6c3e 95d3 db3e 60ba c93e
00000160: f76e 83be afd7 6abe bd87 183f ca36 93bd
00000170: 967d 8abe 3cd2 6a3e 2962 36bf 598b 4abe
00000180: c05f e8be 0343 f33d e823 963c f8c3 19be
00000190: cbfc 1bbe 20ee a6be e79f 8e3e 395e 493e
000001a0: 4d7d c1be 2da9 183d b9b7 0a3e aa1a 913e
000001b0: d968 ef3e 369c 2b3e 1311 ffbe c892 8dbe
000001c0: 1874 e3be a200 c9be afe1 fa3c 45a9 f23e
000001d0: e20f d53e 9f3c 50be 86d2 a5bd 50d1 c0bd
000001e0: 76ee e3bd a276 01bd 7977 433d cc37 26bf
000001f0: 4c9a 70bf a332 9f3e 9cac 14be 77ce bfbe
00000200: ac86 b53e ebd7 673e 2d07 0cbf 630e 1ebf
00000210: 82c0 2f3e 5e08 98be cd40 633e 8e41 27be
00000220: 600d 6bbe c40d fa3e a9a4 a9be dbd7 54be
00000230: 60cf 3cbe 7b0c 91be 142c a03e 6673 94be
00000240: 93cb 4a3e 0f9e ee3d 47f0 20be 3983 883e
00000250: 9696 4d3e 26b5 8cbd c5de 5a3e c0f9 3b3f
00000260: de1e eb3e d440 f03c 4a99 f6bc b8d7 4b3e
00000270: 4e73 f6be e0dc ffbe f017 16bc 6786 86be
00000280: 855d 0f3d 5d18 fcbe 85cb 92be 8ea2 d23b
00000290: 7b78 b0be 6c2b 2dbd 2322 45be d9e0 113d
000002a0: 0d74 bbbd 41d0 9dbe bf8d 0a3e 7860 7f3e
000002b0: 40cc 21be d62c b1be ffec 133e 8a9c 8abe
000002c0: f59e c8bd 851d 10be 7d57 b1be 55c3 47be
000002d0: f147 07be 8624 843e aafa 263e e7eb 83be
000002e0: 09b2 5d3b 49f7 63be fc6f 11bd c143 a4be
000002f0: 1a0b dcbd b23d c0be 54ba 133e 1dbf 06be
00000300: fe12 bd3e 82f3 743d 2151 21bd 3bf8 6a3e
00000310: 21b8 8ebe 9e51 5e3e e71c bdbe 3bb9 28be
00000320: 7843 ebbd 764c 99bd 2f79 32be fdc8 31be
00000330: 58fb febe 9681 2a3d 1a51 cf3e 9947 e0bd
00000340: 1ebb 76bd 9823 47be f0dc 0c3e 49e9 85be
00000350: d5af e73e a7e9 0b3e 15a0 6dbe 3ad3 943e
00000360: 387a 323e bb1e 533d c2f7 c6be f19d 2b3f
00000370: 1e24 bc3e 17ce 1b3e c266 aa3e 277c 193f
00000380: a686 20bd 4f99 b83e 2046 5fbf 5ce2 99be
00000390: 65ed b2be 9dff ffbe e4f9 b9be db36 c03e
000003a0: eafa 76be b37e 773d dff7 58bd acfa 2e3e
000003b0: bfb1 6d3e 8727 63be 68a3 7bbf f494 22be
000003c0: 5498 e43e 6139 063e 5ccf 74bd cf44 d33e
000003d0: a2c6 96be 1d37 503c a208 06bf 59cc 073f
000003e0: 188f ef3e 6a28 eb3d a69d db3d 1db1 7dbe
000003f0: 76dd 103e 1ed6 11be d120 56be 97ab 5d3d

fc2.bias f4 [32]
-0.07203239 -0.025522782 -0.07105295 -0.049134213 -0.12799072 -0.12114052 0.041520454 0.009562389
-0.08304838 -0.020161493 0.0066344505 -0.13780612 -0.1420289 -0.18447982 0.20425694 0.11930754
0.11327377 -0.12631454 -0.16119963 -0.12196246 0.025120044 -0.036254074 -0.13224076 0.019623926
-0.19779833 -0.17564332 -0.08147113 -0.054837525 0.055771746 -0.17149107 -0.20033374 -0.10589086
00000000: b885 93bd 2715 d1bc 3684 91bd f540 49bd
00000010: 0010 03be 8518 f8bd 5a11 2a3d 91ab 1c3c
00000020: 4515 aabd b729 a5bc ce65 d93b 0c1d 0dbe
00000030: 0670 11be 47e8 3cbe bb28 513e 8357 f43d
00000040: 14fc e73d 9958 01be 8411 25be 74c7 f9bd
00000050: 8dc8 cd3c 277f 14bd 1f6a 07be 5bc2 a03c
00000060: a58b 4abe d8db 33be 56da a6bd 509d 60bd
00000070: ea70 643d 5b9b 2fbe 4a24 4dbe 4fdd d8bd

fc3.weight f4 [32, 32]
0.38305974 -0.47150993 -0.5185305 -0.19270654 -0.028369762 0.52781874 0.77098227 -0.12552269
0.27857894 -0.50772035 -0.5943149 0.46167517 0.34604827 0.42995533 -0.5379789 -0.45819643
-0.6058947 0.40341777 0.1524631 -0.4874517 -0.34888923 0.03843386 0.16228184 0.24648257
0.25061494 0.14995761 -0.29710662 -0.6622052 -0.5315063 -0.040001113 0.3552479 0.23652686
0.41667804 -0.0596463 -0.39953178 -0.4099775 0.03338172 0.2503883 0.3182719 -0.4173076
0.08602967 -0.24074727 -0.6815591 0.08214981 0.19059122 0.7946338 0.52403414 -0.3283003
-0.2840852 0.6837861 0.42588782 -0.5755714 0.3936503 -0.4037319 -0.1106966 0.3200277
-0.025542593 -0.20733537 -0.67947376 -0.6542753 -0.17494361 -0.09058961 0.48183298 0.44378242
-0.3008669 -0.5050135 0.11673368 0.1106395 -0.13570969 -0.15167592 -0.5378821 -0.078927204
0.38861644 -0.12928745 0.12767859 0.4444823 -0.09991286 -0.28557777 -0.013012306 0.8128041
-0.052533455 -0.7758825 -0.08410529 0.44023213 0.1373366 -0.3457623 -0.31905645 -0.010860499
-0.21797064 0.122760944 0.12764972 0.55633855 -0.11175459 0.4878056 -0.03390935 -0.12097179
-0.33748665 -0.36098668 0.09421879 0.20750132 -0.0030295695 0.14281921 0.01992341 -0.39693516
-0.20707327 -0.15510598 -0.18915771 -0.52228385 -0.09156921 -0.251927 0.25257063 -0.19395085
-0.26505965 -0.12089931 -0.2675053 -0.07464049 0.31442305 -0.555508 -0.16906908 -0.3891862
-0.18540065 -0.37249136 0.23750024 0.036498763 -0.24691266 -0.0568136 -0.031337135 0.090442315
0.15624487 -0.36125547 -0.2677846 -0.11900288 0.16249757 -0.2176269 -0.0066231065 -0.44439504
-0.22823057 -0.35300478 0.006128715 -0.3983987 0.22770792 0.76318 -0.20559488 -0.22515868
-0.5435017 0.82392985 0.36426535 -0.24535246 -0.357439 -0.07434011 0.34720412 0.3488417
0.39625126 0.50960296 -0.56980085 -0.4560597 -0.14638056 -0.21446663 0.09791375 0.087697305
0.0683557 0.12110129 -0.44528207 -0.2720111 0.25921762 0.1818052 -0.17651187 -0.23403981
-0.024540937 -0.16843398 -0.018463012 -0.07436381 0.47890088 0.12375237 -0.7620125 -0.6083218
-0.3431236 0.011377427 0.23807389 -0.31783673 -0.3757473 -0.36450806 0.2407826 -0.38627532
0.8722221 0.07049918 -0.17216685 -0.04976532 -0.4465622 -0.23638701 0.7264824 0.47008815
-0.6885885 0.36524606 0.32223633 0.5729685 -0.078408435 0.3694458 -0.897886 -0.07954311
0.5682071 0.010735028 -0.012735797 -0.09569673 -0.6969221 -0.07031993 -0.590421 0.63145864
0.13654807 -0.45091015 -0.47740415 -0.20047723 0.26522824 -0.24341545 -0.32082936 -0.31506044
0.17252906 0.16528833 0.29286635 0.4647318 -0.19128568 0.4486739 -0.17947192 -0.7798723
-0.17686124 0.3692192 0.18278982 -0.21562637 1.1102877 0.14924558 -0.07765675 0.57759625
-0.63747615 0.09512144 -0.12126206 -0.2616461 0.20242475 -0.07316767 -0.6635765 -0.6946056
0.087552056 0.3485936 -0.3014254 -0.45251182 -0.71831244 -0.15199344 -0.37940916 -0.2013647
0.46531492 0.58825517 -0.12829831 0.3345318 -0.1947536 -0.2385494 -0.15966527 -0.022074625
00000000: 6820 c43e c069 f1be 6abe 04bf dd54 45be
00000010: b467 e8bc 211f 073f 185f 453f 0589 00be
00000020: e6a1 8e3e f6f9 01bf 0525 18bf b060 ec3e
00000030: 3d2d b13e 1b23 dc3e fcb8 09bf b998 eabe
00000040: ea1b 1bbf c68c ce3e 491f 1c3e 4593 f9be
00000050: 9ca1 b2be d36c 1d3d 362d 263e ed65 7c3e
00000060: 9a50 803e 7d8e 193e 5c1e 98be 4886 29bf
00000070: cc10 08bf 35d8 23bd 0ee3 b53e 1934 723e
00000080: d356 d53e ae4f 74bd 6e8f ccbe 92e8 d1be
00000090: 45bb 083d e532 803e 89f4 a23e 57a9 d5be
000000a0: 5330 b03d 7486 76be a87a 2ebf 293e a83d
000000b0: 582a 433e 1f6d 4b3f 1a27 063f fa16 a8be
000000c0: 9e73 91be 9b0c 2f3f f80d da3e a658 13bf
000000d0: 888c c93e f3b5 cebe e6b4 e2bd acda a33e
000000e0: b33e d1bc b94f 54be fef1 2dbf 967e 27bf
000000f0: 6b24 33be 0c87 b9bd d0b2 f63e 7337 e33e
00000100: 3a0b 9abe 9148 01bf 1112 ef3d f696 e23d
00000110: 7bf7 0abe ef50 1bbe a4b2 09bf 96a4 a1bd
00000120: bcf8 c63e ee63 04be 2dbe 023e 2f93 e33e
00000130: 1d9f ccbd 4037 92be 9131 55bc ee13 503f
00000140: 522d 57bd 3ca0 46bf 653f acbd 1b66 e13e
00000150: f7a1 0c3e c207 b1be 5e5b a3be 3cf0 31bc
00000160: b233 5fbe 176a fb3d 9cb6 023e 346c 0e3f
00000170: 97df e4bd a8c1 f93e 88e4 0abd 0fc0 f7bd
00000180: 0dcb acbe 3fd3 b8be c8f5 c03d 3a7b 543e
00000190: be8b 46bb 333f 123e 6b36 a33c 163b cbbe
000001a0: 040b 54be 1ad4 1ebe 8fb2 41be 65b4 05bf
000001b0: a388 bbbd 93fc 80be f050 813e 0d9b 46be
000001c0: e6b5 87be 0f9a f7bd 74f6 88be 1ddd 98bd
000001d0: 0ffc a03e c635 0ebf 7220 2dbe 6a43 c7be
000001e0: abd9 3dbe 30b7 bebe 4333 733e ba7f 153d
000001f0: acd6 7cbe 61b5 68bd 5e5b 00bd d239 b93d
00000200: a8fe 1f3e 7af6 b8be 101b 89be c8b7 f3bd
00000210: c365 263e 96d9 5ebe a506 d9bb bf87 e3be
00000220: 46b5 69be 0bbd b4be 63d3 c83b eafa cbbe
00000230: 442c 693e c45f 433f 7787 52be ff8f 66be
00000240: ed22 0bbf 11ed 523f fd80 ba3e ad3d 7bbe
00000250: 3f02 b7be a13f 98bd bdc4 b13e 619b b23e
00000260: 72e1 ca3e 5775 023f 78de 11bf a880 e9be
00000270: c9e4 15be 249d 5bbe 0187 c83d a59a b33d
00000280: 13fe 8b3d f403 f83d 03fc e3be 0a45 8bbe
00000290: 2cb8 843e 242b 3a3e 87bf 34be 22a8 6fbe
000002a0: 130a c9bc f579 2cbe be3f 97bc 0e4c 98bd
000002b0: 7f32 f53e e271 fd3d 4013 43bf faba 1bbf
000002c0: e6ad afbe 6368 3a3c a4c9 733e 7fbb a2be
000002d0: f361 c0be cda0 babe b78f 763e e1c5 c5be
000002e0: f349 5f3f e061 903d 824c 30be b8d6 4bbd
000002f0: cda3 e4be 700f 72be c0fa 393f 65af f03e
00000300: 5647 30bf 8801 bb3e 29fc a43e 10ae 123f
00000310: 9a94 a0bd 0028 bd3e dbdb 65bf 80e7 a2bd
00000320: 0576 113f f9e1 2f3c cea9 50bc a6fc c3bd
00000330: 7d69 32bf e503 90bd d525 17bf 46a7 213f
00000340: 42d3 0b3e b2dd e6be 516e f4be e749 4dbe
00000350: ffcb 873e e641 79be bf43 a4be 9a4f a1be
00000360: 75ab 303e 5841 293e 94f2 953e 54f1 ed3e
00000370: 65e0 43be 96b8 e53e 7dc7 37be b6a5 47bf
00000380: 1d1b 35be 4d0a bd3e 412d 3b3e 29cd 5cbe
00000390: e81d 8e3f d5d3 183e 810a 9fbd 59dd 133f
000003a0: a331 23bf 08cf c23d 3e58 f8bd 7af6 85be
000003b0: 6f48 4f3e eed8 95bd 26e0 29bf acd1 31bf
000003c0: 7e4e b33d dc7a b23e 6e54 9abe a1af e7be
000003d0: 53e3 37bf 2ba4 1bbe eb41 c2be 8c32 4ebe
000003e0: c23d ee3e e497 163f a260 03be c147 ab3e
000003f0: 7d6d 47be 4b46 74be 4b7f 23be d8d5 b4bc

fc3.bias f4 [32]
-0.24520744 -0.08392645 0.015198552 -0.078695536 -0.056973096 -0.19518949 -0.07697627 -0.23975974
-0.090803996 -0.044096746 -0.17725201 -0.053369224 -0.07136143 -0.106310725 -0.09688027 -0.03666864
-0.083956756 -0.073176436 -0.10898872 -0.3399019 -0.11679677 -0.10109012 -0.0041389517 0.07057525
-0.24082804 0.00558665 -0.12507269 -0.24045315 -0.060536083 -0.116027154 -0.099709846 -0.09228128
00000000: a917 7bbe a1e1 abbd 5903 793c 202b a1bd
00000010: 9f5c 69bd c1df 47be bca5 9dbd 9483 75be
00000020: 72f7 b9bd ca9e 34bd 8d81 35be b099 5abd
00000030: f125 92bd 70b9 d9bd 2a69 c6bd db31 16bd
00000040: 85f1 abbd 87dd 95bd 7a35 dfbd 9f07 aebe
00000050: 2533 efbd 5608 cfbd 0ba0 87bb c289 903d
00000060: a09b 76be 3810 b73b 0e13 00be 5a39 76be
00000070: aff4 77bd a59f edbd ad34 ccbd f8fd bcbd

fc4.weight f4 [20, 32]
-1.0205384 -0.63482803 0.64203554 0.39424214 -1.1945364 -0.96560395 0.6452178 -0.7644574
0.7216549 -0.97134405 1.0120252 0.98866236 -1.2009016 0.79426676 -0.9052674 0.8706685
0.7627631 0.683727 -0.091978915 -0.65835583 0.24228291 1.2284278 1.0647485 0.82878166
-1.0148388 -0.66504836 1.1383592 -0.79899824 -0.98634994 0.83080125 -0.6637689 0.19115
0.5054014 1.0420723 0.071712896 -0.17176037 0.11094866 -0.549826 -0.323433 -1.0157156
0.81297433 0.35550556 -0.1154662 -0.5347694 -0.19420987 1.3795764 -1.1322494 0.9183865
0.27424154 -1.0876628 0.14619347 -0.06764242 -0.5593669 1.1201892 -0.24836044 0.560992
-0.80498683 -1.1889886 0.45729065 0.56087357 -0.44662404 1.0179919 -0.85276574 0.3472019
0.6518709 1.1013999 -0.23372346 0.1989057 0.59338856 0.5623407 -1.0548065 -0.4158452
0.45207307 0.7339921 -0.55524284 -0.47340563 0.75548023 0.89220846 0.09229626 0.37931058
-0.14665002 -0.96588165 1.0707654 0.27150506 -0.9146751 -0.13253273 -0.65682876 -0.08771122
-0.040558416 -0.8203862 -0.45051652 0.46152624 -0.2404528 -0.69422 0.029104559 0.0556154
0.6119839 0.54226804 -0.51526636 -0.11719077 0.22576609 0.49503157 -0.4401992 0.35928446
-0.093800694 0.315386 -0.47453445 -0.3042554 0.15964024 -0.21409717 0.51131475 0.025791746
-0.69087774 -0.24295487 0.634831 0.5713275 -0.22342706 -0.64026016 -0.674306 -0.7713045
0.34959665 0.2999686 -0.32573834 0.03433008 0.4865484 -0.46034932 0.47846526 -0.23926021
-0.30886787 0.22985621 0.034262143 0.43129203 0.30893895 0.046454288 0.22769214 0.24221681
-0.50480944 0.0032447036 -0.32059625 0.52384156 -0.10719617 -0.8232865 0.14060403 -0.69766855
0.18589938 0.26301256 -0.094645426 -0.18737338 0.77817 -0.30936843 -0.14551236 -0.42732623
0.86514294 0.3802463 -0.24164075 -0.48794836 0.17590167 -0.6520377 0.36538157 -0.38382143
-0.31195575 -0.05058514 0.08731641 -0.01069423 -0.2128304 -0.077547684 0.3693847 0.021036666
-0.34250098 -0.44387707 0.19306041 0.49034095 -0.757486 -0.3362494 0.049113903 0.31253663
0.036788892 0.35756144 -0.5057342 -0.5657064 0.632891 -0.22317508 0.09671798 -0.24884932
0.15199241 0.5375122 0.43363285 -0.16709617 0.19732422 0.18186797 0.09257023 -0.37581548
-0.057367425 -0.29823503 0.616912 0.45712286 -0.2086207 -0.67749244 0.28169474 -0.1431825
-0.0164732 -0.581284 0.25537768 0.23994204 -0.12710556 0.04502078 0.14757033 0.16021916
0.12908584 0.039429143 -0.26928708 0.23266536 0.003385275 0.022383917 0.04534896 0.4384404
-0.19602057 -0.41986388 0.14651951 -0.124667995 -0.014092811 0.07918014 -0.22117856 0.23600349
0.13858221 -0.30205455 0.307215 0.03351196 -0.03382378 -0.11381415 0.2941242 -0.35858694
0.54881185 0.3649833 -0.12854192 -0.39578286 0.18895607 0.09230575 -0.46745273 0.022176163
0.49024096 -0.35081953 -0.017308608 -0.01163745 -0.1235282 0.20541713 0.16103052 0.14331625
-0.09948164 -0.28601313 0.0021552087 0.06297621 -0.13963434 -0.029021401 -0.10584793 -0.11971454
00000000: 01a1 82bf 1784 22bf 715c 243f 1bda c93e
00000010: 92e6 98bf d231 77bf fe2c 253f 7bb3 43bf
00000020: 60be 383f 01aa 78bf 0b8a 813f fa18 7d3f
00000030: 25b7 99bf 1155 4b3f 9bbf 67bf 21e4 5e3f
00000040: 7144 433f bc08 2f3f 715f bcbd 028a 28bf
00000050: 0319 783e 1f3d 9d3f ae49 883f 092b 543f
00000060: 3de6 81bf 9c40 2abf c1b5 913f 268b 4cbf
00000070: 6e81 7cbf 64af 543f c2ec 29bf d3bc 433e
00000080: fc61 013f a062 853f 36de 923d f3e1 2fbe
00000090: 0d39 e33d 66c1 0cbf 0399 a5be f802 82bf
000000a0: 161f 503f d304 b63e 8b79 ecbd a6e6 08bf
000000b0: f4de 46be f695 b03f 8ced 90bf 611b 6b3f
000000c0: 6369 8c3e 8938 8bbf beb3 153e 1c88 8abd
000000d0: ab32 0fbf 5c62 8f3f 3352 7ebe 2c9d 0f3f
000000e0: 9e13 4ebf c730 98bf 0022 ea3e 6995 0f3f
000000f0: e8ab e4be 8f4d 823f db4e 5abf 73c4 b13e
00000100: 03e1 263f acfa 8c3f 3455 6fbe f0ad 4b3e
00000110: 50e8 173f 8ff5 0f3f e603 87bf a9e9 d4be
00000120: 1f76 e73e e8e6 3b3f 6524 0ebf 3962 f2be
00000130: 2767 413f c667 643f d205 bd3d ff34 c23e
00000140: 6c2b 16be 0544 77bf d70e 893f b602 8b3e
00000150: 2628 6abf a9b6 07be ee25 28bf f1a1 b3bd
00000160: 9520 26bd d404 52bf 1aaa e6be 2b4d ec3e
00000170: 4239 76be 67b8 31bf af6c ee3c f9cc 633d
00000180: faaa 1c3f 14d2 0a3f 7fe8 03bf b701 f0bd
00000190: 3a2f 673e c774 fd3e ca61 e1be 22f4 b73e
000001a0: 941a c0bd 467a a13e 2ef6 f2be 5dc7 9bbe
000001b0: bb78 233e 4a3c 5bbe 86e5 023f 3649 d33c
000001c0: 5ddd 30bf 29c9 78be 4984 223f 8542 123f
000001d0: 10ca 64be 17e8 23bf 519f 2cbf 3674 45bf
000001e0: 55fe b23e 7c95 993e 2dc7 a6be b39d 0c3d
000001f0: df1c f93e e8b2 ebbe 66f9 f43e a100 75be
00000200: ee23 9ebe 6d5f 6b3e 7656 0c3d 4fd2 dc3e
00000210: 3f2d 9e3e da46 3e3d 2128 693e af07 783e
00000220: 313b 01bf 18a5 543b 3125 a4be 7b1a 063f
00000230: aa89 dbbd e7c2 52bf 81fa 0f3e 689a 32bf
00000240: 685c 3e3e 95a9 863e 76d5 c1bd cfde 3fbe
00000250: 2636 473f 8a65 9ebe 3101 15be 81ca dabe
00000260: 027a 5d3f a5af c23e ac70 77be 5ed4 f9be
00000270: 911f 343e f1eb 26bf 4b13 bb3e 3e84 c4be
00000280: aab8 9fbe 5d32 4fbd f2d2 b23d da36 2fbc
00000290: 36f0 59be 52d1 9ebd fe1f bd3e 1655 ac3c
000002a0: 4a5c afbe db43 e3be a1b1 453e f80d fb3e
000002b0: 9aea 41bf e228 acbe a92b 493d cd04 a03e
000002c0: f3af 163d 4b12 b73e cc77 01bf 22d2 10bf
000002d0: 2505 223f 0288 64be 1414 c63d 5bd2 7ebe
000002e0: e6a3 1b3e 669a 093f 2005 de3e 421b 2bbe
000002f0: 5c0f 4a3e 993b 3a3e 7695 bd3d e36a c0be
00000300: 1bfa 6abd 43b2 98be f2ed 1d3f 020c ea3e
00000310: aaa0 55be 2570 2dbf 4b3a 903e 6f9e 12be
00000320: cef2 86bc 07cf 14bf ddc0 823e 5eb3 753e
00000330: f627 02be b667 383d ad1c 173e 7e10 243e
00000340: 142f 043e 7480 213d ffdf 89be d43f 6e3e
00000350: 7ddb 5d3b 7a5e b73c d5bf 393d 437b e03e
00000360: 9eb9 48be 66f8 d6be 3609 163e ef51 ffbd
00000370: 89e5 66bc 3229 a23d a27c 62be e6aa 713e
00000380: 7fe8 0d3e e5a6 9abe 494b 9d3e d643 093d
00000390: ce8a 0abd 6517 e9bd 7297 963e b598 b7be
000003a0: ef7e 0c3f 17df ba3e 7ea0 03be 0da4 cabe
000003b0: b37d 413e cc0a bd3d f755 efbe c9aa b53c
000003c0: dd00 fb3e 9e9e b3be c8ca 8dbc 01ab 3ebc
000003d0: 5afc fcbd de58 523e 2fe5 243e 7fc1 123e
000003e0: 08bd cbbd 5070 92be 673e 0d3b acf9 803d
000003f0: 4efc 0ebe 4abe edbc cdc6 d8bd e62c f5bd

fc4.bias f4 [20]
0.015798243 -0.032374736 -0.081728645 0.021893358 0.076284625 0.002439993 0.09757348 -0.019771937
-0.014078445 0.0831365 0.07904941 0.056960113 0.054054555 0.03410547 0.08530637 0.104601085
0.081681915 0.037576694 0.037510354 -0.00737597
00000000: 516b 813c 5f9b 04bd 5961 a7bd b359 b33c
00000010: 1d3b 9c3d 4ae8 1f3b 9bd4 c73d c2f8 a1bc
00000020: 47a9 66bc 7843 aa3d a8e4 a13d 024f 693d
00000030: 4f68 5d3d 2db2 0b3d 1bb5 ae3d 1839 d63d
00000040: d948 a73d 05ea 193d 75a4 193d 1fb2 f1bb
