transfer/dampedSpring/data/transfer_retraining/m(0.9)_model_weights.pth (torch, 13651 bytes, 8 tensors)

fc1.weight f4 [32, 2]
-0.36238772 -0.46178338 -0.14732304 -0.041761797 0.0010352195 0.18213452 -0.1954341 0.046039235
0.0066271625 0.18348753 -0.037253298 0.16955583 -0.3743434 0.25737816 0.11558847 0.07672127
-0.16934992 0.0031946222 0.07547159 0.1201488 -0.37177277 -0.42565832 -0.6112677 0.74107915
0.01063865 -0.1898106 0.57677424 -0.4989122 -0.17661573 0.002969302 -0.5940308 0.0028695888
-0.016182154 -0.17669706 0.01688968 -0.18954667 -0.6938564 -0.6294151 -0.020863755 0.1883362
-0.005555456 0.18854943 -0.85609156 1.0319049 0.011003131 -0.18314998 -0.18858574 0.038208574
-0.18846874 0.016324852 -0.71261144 0.6997645 -0.01516494 -0.59291804 0.13550161 0.057058595
0.16724437 -0.057207596 -0.10651434 -0.08824525 0.038575776 -0.16482702 0.1693806 -0.040311877
00000000: e28a b9be df6e ecbe dadb 16be 6b0e 2bbd
00000010: 34b0 873a 7981 3a3e e01f 48be a393 3c3d
00000020: ab28 d93b 28e4 3b3e ea96 18bd 0ba0 2d3e
00000030: f0a9 bfbe 12c7 833e a6b9 ec3d 0b20 9d3d
00000040: 116a 2dbe de5c 513b d990 9a3d 9310 f63d
00000050: 0059 bebe e3ef d9be 0a7c 1cbf 5db7 3d3f
00000060: bb4d 2e3c b65d 42be 7aa7 133f 6b71 ffbe
00000070: c1da 34be 9f98 423b 6712 18bf b60f 3c3b
00000080: 7090 84bc 13f0 34be 3a5c 8a3c 8618 42be
00000090: 93a0 31bf 5921 21bf 77ea aabc 34db 403e
000000a0: 8b0a b6bb 1a13 413e d128 5bbf 7615 843f
000000b0: 7a46 343c ab8b 3bbe 9f1c 41be 9880 1c3d
000000c0: f3fd 40be b2bb 853c b46d 36bf c423 333f
000000d0: 5e76 78bc 7ac9 17bf efc0 0a3e 46b6 693d
000000e0: 1c42 2b3e 8352 6abd 3124 dabd edb9 b4bd
000000f0: a201 1e3d 6ac8 28be 1c72 2d3e 111e 25bd

fc1.bias f4 [32]
-0.107998624 -0.073620275 -0.08052256 -0.47251055 -0.022638755 0.04209167 0.24029846 0.119679414
0.038641833 0.0873781 0.010850019 0.061159424 0.24616264 0.09992232 -0.034821264 0.09001449
-0.17928648 0.087435946 -0.15742616 -0.20420055 -0.01805003 0.058513723 -0.20136759 0.1506342
0.24825978 -0.00011131508 -0.044626057 0.18147384 0.14233446 -0.0811728 0.0862244 -0.16617681
00000000: 622e ddbd 3ac6 96bd 03e9 a4bd e7ec f1be
00000010: e974 b9bc 5168 2c3d cd10 763e 7b1a f53d
00000020: e646 1e3d 4af3 b23d 47c4 313c 4e82 7a3d
00000030: 0f12 7c3e 13a4 cc3d bea0 0ebd 8459 b83d
00000040: e096 37be 9e11 b33d 5334 21be f319 51be
00000050: a8dd 93bc 16ac 6f3d 4e33 4ebe da3f 1a3e
00000060: d037 7e3e d471 e9b8 d0c9 36bd 47d4 393e
00000070: 20c0 113e ed3d a6bd 6b96 b03d 412a 2abe

fc2.weight f4 [32, 32]
0.3892718 -0.72425634 0.51617736 -0.15476243 0.26116142 -0.4578541 -0.37053177 0.4581548
-0.5205865 0.32389614 0.2761247 -0.11049283 0.27547106 -0.22604099 -0.8612023 0.17099772
-0.15869325 -0.58124745 0.11661435 0.32867196 -0.17442179 -0.3356806 -0.15171154 -0.4417072
-0.28658873 -0.10421942 0.76911557 0.5161222 0.66174924 -0.10165976 0.4471951 0.24888432
0.5288655 -0.2581789 0.0923621 -0.64435303 0.49659643 -0.119834766 -0.34797993 0.34586257
-0.29465213 0.89114183 0.28803462 0.29138115 0.054674916 -0.06578487 -0.37688655 0.26446056
-0.5394273 -0.32444018 0.23372269 -0.3329204 -0.14717823 -0.26702884 0.07998071 -0.45501208
-0.49797168 -0.083043896 0.20860529 0.35654408 0.4385333 -0.4200593 0.13881838 0.04267594
0.1677607 -0.21113841 0.014223367 -0.28139308 -0.01718662 -0.43918413 -0.0862282 0.34372172
-0.43307012 -0.26280352 -0.34379524 -0.34916604 0.5560385 -0.3123916 -0.45185387 0.42121267
0.07460056 0.9041489 -0.04966945 -0.23438212 -0.014029224 -0.3224763 0.6014908 -0.22017683
0.22419085 -0.16919704 -0.8128557 -0.03489491 0.6491407 0.7106589 0.16480124 0.04107101
-0.41714096 0.6536115 -0.6254483 0.5464483 0.062764496 0.23958515 0.045467302 -0.13146974
0.97282165 -0.3697851 -0.12771097 -0.581415 0.26551652 -0.0066158674 0.32503018 -0.0015469866
0.13056128 -0.4677684 0.049632706 0.23070358 -0.19667812 -0.09853542 0.0065202527 0.13671498
0.3664737 -0.19685481 -0.07544071 -0.104369484 -0.4819594 0.40287718 0.14840479 0.08014993
-0.29270884 0.43695027 -0.58920074 -0.12047073 -0.35195902 0.35765487 0.30910045 -0.14999688
0.3356266 -0.55607903 0.08505 -0.31557626 -0.02521066 0.064245194 0.45372877 -0.67103946
0.8180004 0.47840136 -0.20277508 0.13933977 -0.36671054 0.069543034 0.36057177 0.031884003
0.074151 0.012673666 0.032112833 -0.2745025 -0.027272858 0.1311623 0.1845052 -0.3855137
-0.34316662 0.2566429 -0.13784465 0.57748365 0.35813087 0.38928503 -0.31988046 -0.31794974
0.6876304 -0.4414419 0.12724951 -0.76356477 0.066785514 0.11182776 0.37911353 0.057251327
-0.08538729 -0.051726546 -0.1640273 -0.12969635 -0.10514501 -0.00076860667 -0.15902103 0.6923207
0.5406746 0.1852528 0.0032012428 -0.53175694 -0.17026673 0.55067974 0.1099534 -0.44796824
-0.0055711125 -0.5026711 0.21675034 0.123812824 0.7365026 0.20770438 -0.5008239 0.027423969
-0.53199315 0.44073203 0.12654041 -0.051444434 -0.30914092 0.359069 -0.30532268 -0.017276973
-0.119546026 -0.6294745 -0.22504345 0.12851049 -0.09526955 -0.045240745 -0.19141258 -0.25253186
-0.20862076 0.10448765 0.28521714 -0.26958907 0.24783017 -0.26813692 -0.10307767 0.07575791
0.067908086 -0.27708605 0.38577175 -0.5142867 0.75779563 0.21327287 -0.49715182 0.32894233
0.009042405 0.10552353 -0.18148184 -0.21424523 0.012338869 0.2777051 0.050646048 0.17434512
-0.3848728 0.12824316 -0.50561875 0.5099975 0.032202665 0.15544808 -0.47050205 -0.18579565
0.24576981 0.26961765 -0.056116868 0.40505373 0.5653961 -0.4761294 0.1170397 0.052962996
00000000: a24e c73e dd68 39bf 3324 043f 0b7a 1ebe
00000010: f3b6 853e da6b eabe 57b6 bdbe 4493 ea3e
00000020: 2845 05bf b7d5 a53e 3760 8d3e 114a e2bd
00000030: 8b0a 8d3e 4a77 67be c177 5cbf 071a 2f3e
00000040: 7c80 22be a2cc 14bf 81d3 ee3d b147 a83e
00000050: a09b 32be 54de abbe 455a 1bbe 7227 e2be
00000060: c2bb 92be fe70 d5bd c2e4 443f 9620 043f
00000070: 6668 293f fe32 d0bd c2f6 e43e 88db 7e3e
00000080: bb63 073f 0630 84be 5728 bd3d 52f4 24bf
00000090: e341 fe3e ee6b f5bd 6d2a b2be e614 b13e
000000a0: a5dc 96be df21 643f 4679 933e e92f 953e
000000b0: cef2 5f3d 38ba 86bd 46f7 c0be 6067 873e
000000c0: e817 0abf 061d a6be 0055 6f3e 8b74 aabe
000000d0: e4b5 16be 01b8 88be edcc a33d 58f7 e8be
000000e0: 25f6 febe eb12 aabd a09c 553e f28c b63e
000000f0: 7087 e03e 0312 d7be 6826 0e3e f7cc 2e3d
00000100: 76c9 2b3e ab34 58be 2009 693c c112 90be
00000110: f4ca 8cbc bedc e0be 6998 b0bd 4bfc af3e
00000120: 5ebb ddbe 2f8e 86be ee05 b0be e4c5 b2be
00000130: 8a58 0e3f cbf1 9fbe 6459 e7be 30a9 d73e
00000140: 2ec8 983d 4d76 673f 3172 4bbd de01 70be
00000150: d5da 65bc 9d1b a5be 4dfb 193f 0976 61be
00000160: 4992 653e fd41 2dbe 5017 50bf f7ed 0ebd
00000170: 162e 263f beed 353f a8c1 283e 133a 283d
00000180: 8093 d5be 1553 273f 611d 20bf 09e4 0b3f
00000190: ac8a 803d cf55 753e ec3b 3a3d 01a0 06be
000001a0: d70a 793f 7954 bdbe aac6 02be 9dd7 14bf
000001b0: c8f1 873e ebc9 d8bb 5b6a a63e 42c4 caba
000001c0: dbb1 053e 577f efbe aa4b 4b3d 8f3d 6c3e
000001d0: fd65 49be f0cc c9bd d8a7 d53b 03ff 0b3e
000001e0: 71a2 bb3e 4f94 49be a980 9abd abbf d5bd
000001f0: 62c3 f6be eb45 ce3e 6df7 173e a625 a43d
00000200: efdd 95be f2b7 df3e dcd5 16bf 5cb9 f6bd
00000210: f933 b4be 8a1e b73e 6a42 9e3e c898 19be
00000220: 40d7 ab3e 325b 0ebf b22e ae3d 3693 a1be
00000230: 9686 cebc fc92 833d 234f e83e 3ec9 2bbf
00000240: 7968 513f 06f1 f43e 45a4 4fbe 16af 0e3e
00000250: 7cc1 bbbe 946c 8e3d dd9c b83e cd98 023d
00000260: 7bdc 973d 35a5 4f3c bf88 033d 978b 8cbe
00000270: 546b dfbc 694f 063e eeee 3c3e 0d62 c5be
00000280: 89b3 afbe b366 833e 2627 0dbe f8d5 133f
00000290: ee5c b73e 5e50 c73e 5fc7 a3be 4fca a2be
000002a0: 8c08 303f ac04 e2be b24d 023e fb78 43bf
000002b0: d8c6 883d f405 e53d 2b1b c23e 5e80 6a3d
000002c0: 88df aebd 37df 53bd c6f6 27be 1fcf 04be
000002d0: 4456 d7bd 527c 49ba 69d6 22be ee3b 313f
000002e0: a769 0a3f e9b2 3d3e f1cb 513b 3921 08bf
000002f0: 675a 2ebe 59f9 0c3f 402f e13d 185c e5be
00000300: e18d b6bb 0eaf 00bf cdf3 5d3e 9491 fd3d
00000310: 6f8b 3c3f 75b0 543e ff35 00bf 3ba8 e03c
00000320: b430 08bf a1a7 e13e cf93 013e 66b7 52bd
00000330: b847 9ebe e4d7 b73e 4153 9cbe 7088 8dbc
00000340: 8cd4 f4bd 3e25 21bf ca71 66be 4198 033e
00000350: af1c c3bd 5c4e 39bd a901 44be db4b 81be
00000360: aea0 55be 9ffd d53d fb07 923e 9407 8abe
00000370: 31c7 7d3e 3e49 89be 631a d3bd f726 9b3d
00000380: 6513 8b3d 39de 8dbe e083 c53e 4ba8 03bf
00000390: e5fe 413f 3464 5a3e af8a febe 216b a83e
000003a0: 9826 143c b81c d83d 60d6 39be 1a63 5bbe
000003b0: f828 4a3c 5d2f 8e3e 3b72 4f3d 8787 323e
000003c0: 0c0e c5be 2d52 033e 3b70 01bf 328f 023f
000003d0: f1e6 033d c82d 1f3e a5e5 f0be 3741 3ebe
000003e0: 15ab 7b3e 530b 8a3e cdda 65bd 3463 cf3e
000003f0: ccbd 103f 3cc7 f3be 83b2 ef3d baef 583d

fc2.bias f4 [32]
0.1548692 0.07733208 -0.07008773 -0.14673223 -0.10102399 0.082612604 -0.085709386 0.20275715
-0.104811035 -0.039600823 -0.06559702 -0.12224202 -0.0274232 0.13755262 0.06263462 -0.14569195
-0.10136884 0.02122844 -0.08057409 0.17663057 -0.07872589 0.022519583 -0.122926734 -0.12529567
0.04838892 0.081528634 0.029147979 0.050304733 0.16911551 -0.08514801 0.031092346 -0.08173647
00000000: 0896 1e3e 4860 9e3d 288a 8fbd f940 16be
00000010: aae5 cebd cc30 a93d 6788 afbd 929f 4f3e
00000020: 2ba7 d6bd 7934 22bd bb57 86bd 065a fabd
00000030: 9ea6 e0bc 98da 0c3e 9446 803d 4530 15be
00000040: 779a cfbd 44e7 ad3c 0704 a5bd a5de 343e
00000050: 0a3b a1bd fd7a b83c 03c1 fbbd 824d 00be
00000060: 7633 463d 7cf8 a63d bec7 ee3c 560c 4e3d
00000070: 9e2c 2d3e 1462 aebd 60b5 fe3c 7365 a7bd

fc3.weight f4 [32, 32]
0.6036737 0.5730035 0.41041562 -0.4669223 0.028852599 -0.55923694 -0.07471818 0.115636855
-0.044821825 -0.24263908 -0.10242282 0.06296866 0.12687154 -0.38528496 0.12855326 0.02178732
-0.26644093 0.18964183 0.28250822 -0.27518725 -0.482902 -0.18137877 0.29325435 -0.20509417
0.09538946 0.6284607 -0.26109475 0.1582509 0.5053543 -0.11691077 0.5179152 -0.054714035
0.590748 0.6307304 0.067168914 -0.2031047 -0.06326882 -0.65219015 0.11784832 0.44410506
-0.47744614 -0.56419 0.09326873 -0.15468809 0.04318058 -0.13708146 -0.10315581 -0.4685848
-0.21284284 0.76425105 0.36101854 -0.15378273 -0.20079894 -0.033795178 0.19797564 -0.6273239
-0.17448473 0.14458744 0.36658764 0.5030178 0.7022181 -0.30563936 0.14540528 -0.12363428
-0.24957155 -0.8247373 0.2739158 0.2754964 0.8446616 0.24469921 -0.23834312 -0.5116755
-0.101983905 -0.08828883 -0.43784446 -0.10127271 -0.23386309 -0.41729704 0.39588133 0.18877979
-0.122105576 -0.30614173 0.6237673 -0.11271651 0.5368348 0.027827863 0.24437942 0.1586679
0.25501245 5.683005e-05 -0.3206632 -0.0977161 -0.4973003 0.13073266 -0.3175168 0.5382469
0.27825016 -0.18253683 0.45960376 0.078159675 -0.018235588 -0.012721227 -0.6630816 -0.37159052
0.34114042 0.14192684 0.35953122 0.36253136 -0.57526565 -0.2663833 0.62075937 0.36043438
-0.029388895 -0.06430526 0.5541327 -0.79125106 -0.23126866 0.3771807 0.5394482 0.29854327
0.6726718 -0.12897165 -0.5685372 -0.062105577 -0.051370427 -0.077316195 -0.052599482 -0.58757377
-0.53609526 -0.25004104 -0.39753908 0.7917282 0.399062 0.09419853 0.009969711 -0.12172051
0.18534032 0.32018533 -0.8859586 -0.51450634 -0.44508484 0.29626855 -0.3735724 0.650679
0.41866353 -0.5829615 0.4465399 -0.36965716 0.35746735 0.16136754 -0.1285041 0.48488873
0.4394935 -0.10161918 0.42469856 -0.1655157 -0.23264544 0.023084886 -0.50894797 -0.009384166
0.029376503 0.5007142 -0.2717605 0.11209872 -0.23959933 -0.5692137 0.3185037 0.6994378
-0.42543563 -0.6071111 0.15221673 -0.46022063 0.46549785 0.37015492 -0.29422477 -0.15696883
0.20314132 0.25385642 -0.47173908 0.44378003 -0.38492277 -0.23969406 -0.16946399 -0.29956254
-0.55449396 -0.18191682 0.06408494 0.011633976 0.020696178 -0.13654299 0.14890684 -0.5478321
-0.5744652 -0.07949296 -0.7338979 0.03815176 0.22409347 0.5255059 -0.043308377 -0.21292807
0.22423482 0.03913457 -0.37088075 -0.31451568 0.7801407 0.60703486 -0.5659392 -0.03193801
0.41533583 -0.3269022 -0.09531585 0.39648166 0.37236068 0.05886351 -0.11414864 0.32194343
-0.081868246 -0.8948926 0.22673376 -0.24486811 -0.30572706 -0.34687206 -0.27322993 0.38397592
-0.48989752 -0.3004315 -0.24142882 0.13512251 0.33295092 0.36003977 -0.3301534 -0.6421576
0.31359816 0.31251967 -0.16813731 0.46035087 0.1189487 -0.06364279 -0.08191264 0.36857983
0.32297012 -0.093851715 0.022654012 -0.22820725 0.5361803 0.30774543 -0.059854686 0.019285811
0.12861905 -0.22002925 -0.14959137 -0.8223171 -0.65307176 0.030862303 -0.5994604 0.29557127
00000000: 5c8a 1a3f 5bb0 123f ff21 d23e 7110 efbe
00000010: 495c ec3c 272a 0fbf d805 99bd 04d3 ec3d
00000020: 1797 37bd 6176 78be 0ec3 d1bd b6f5 803d
00000030: 9dea 013e 1244 c5be 77a3 033e 527b b23c
00000040: f26a 88be 7831 423e eba4 903e 58e5 8cbe
00000050: ee3e f7be 5bbb 39be 6f25 963e 3504 52be
00000060: 8d5b c33d cde2 203f 36ae 85be 860c 223e
00000070: e65e 013f ea6e efbd 1796 043f d31b 60bd
00000080: 433b 173f 8c77 213f db8f 893d aefa 4fbe
00000090: 1593 81bd eff5 26bf 765a f13d bd61 e33e
000000a0: d273 f4be c16e 10bf ad03 bf3d 8e66 1ebe
000000b0: 1fde 303d 155f 0cbe 5a43 d3bd 59ea efbe
000000c0: 79f3 59be f5a5 433f 6cd7 b83e 3879 1dbe
000000d0: 3d9e 4dbe d06c 0abd 20ba 4a3e 4d98 20bf
000000e0: 20ac 32be bb0e 143e 60b1 bb3e c6c5 003f
000000f0: 91c4 333f c37c 9cbe 1fe5 143e f833 fdbd
00000100: af8f 7fbe fc21 53bf b13e 8c3e dd0d 8d3e
00000110: be3b 583f 6e92 7a3e 3810 74be 2afd 02bf
00000120: f0dc d0bd c6d0 b4bd 262d e0be 1168 cfbd
00000130: ce79 6fbe f5a7 d5be f5b0 ca3e 7d4f 413e
00000140: 7d12 fabd 9cbe 9cbe 37af 1f3f ead7 e6bd
00000150: 016e 093f 42f7 e33c 993e 7a3e d779 223e
00000160: fe90 823e cd5c 6e38 f82d a4be 611f c8bd
00000170: 259e febe c8de 053e 9091 a2be 8dca 093f
00000180: ce76 8e3e efea 3abe 2f51 eb3e 2e12 a03d
00000190: cd62 95bc b16c 50bc b7bf 29bf 1d41 bebe
000001a0: f5a9 ae3e 4555 113e 7a14 b83e b69d b93e
000001b0: 9c44 13bf 6463 88be 16ea 1e3f db8a b83e
000001c0: fbc0 f0bc 7ab2 83bd a4db 0d3f 6e8f 4abf
000001d0: b1d1 6cbe d41d c13e 4719 0a3f aada 983e
000001e0: 3834 2c3f 2511 04be a78b 11bf 6b62 7ebd
000001f0: cc69 52bd f457 9ebd 8e72 57bd 3c6b 16bf
00000200: 8a3d 09bf 6105 80be 3e8a cbbe b3ae 4a3f
00000210: db51 cc3e 29eb c03d 0058 233c 9a48 f9bd
00000220: dac9 3d3e 55ef a33e 2fce 62bf b0b6 03bf
00000230: 29e2 e3be 83b0 973e e244 bfbe e692 263f
00000240: 115b d63e f73c 15bf e1a0 e43e b443 bdbe
00000250: f605 b73e 883d 253e 9496 03be 5643 f83e
00000260: 4b05 e13e b71d d0bd 1772 d93e f37c 29be
00000270: 9b3a 6ebe 841c bd3c 6a4a 02bf 0cc0 19bc
00000280: fea6 f03c ce2e 003f 3124 8bbe 0494 e53d
00000290: 8759 75be fdb7 11bf eb12 a33e 5b0e 333f
000002a0: b3d2 d9be a26b 1bbf b4de 1b3e 0aa2 ebbe
000002b0: bc55 ee3e f284 bd3e a1a4 96be 70bc 20be
000002c0: 4704 503e 78f9 813e c987 f1be 2337 e33e
000002d0: 9914 c5be 5c72 75be f887 2dbe 4360 99be
000002e0: 51f3 0dbf 6748 3abe f73e 833d 6f9c 3e3c
000002f0: 088b a93c edd1 0bbe 097b 183e b93e 0cbf
00000300: 2710 13bf 34cd a2bd bce0 3bbf 0545 1c3d
00000310: c278 653e 8e87 063f 2064 31bd d109 5abe
00000320: d09d 653e 924b 203d 15e4 bdbe 3308 a1be
00000330: 4db7 473f a366 1b3f 64e1 10bf 6ed1 02bd
00000340: e6a6 d43e ba5f a7be f534 c3bd a5ff ca3e
00000350: 0fa6 be3e dd1a 713d c3c6 e9bd c5d5 a43e
00000360: 8aaa a7bd ae17 65bf e52c 683e b5be 7abe
00000370: 4288 9cbe 3799 b1be cbe4 8bbe 7e98 c43e
00000380: d9d3 fabe 28d2 99be 1e39 77be 8e5d 0a3e
00000390: 8b78 aa3e 2257 b83e de09 a9be 7164 24bf
000003a0: f08f a03e 9402 a03e 302c 2cbe 1cb3 eb3e
000003b0: 609b f33d 2757 82bd d0c1 a7bd 7fb6 bc3e
000003c0: 575c a53e 5435 c0bd e894 b93c 29af 69be
000003d0: 1d43 093f cf90 9d3e 302a 75bd 47fd 9d3c
000003e0: b6b4 033e 594f 61be 7b2e 19be 6083 52bf
000003f0: b62f 27bf f1d2 fc3c 3d76 19bf 1e55 973e

fc3.bias f4 [32]
-0.14122494 -0.00566728 -0.0050992947 -0.066143066 0.04271905 0.024488993 0.049385205 0.023344152
0.09535875 -0.076756746 0.0077635944 -0.12440623 0.17043708 -0.13674673 -0.060980834 -0.135334
-0.11585088 -0.07754557 0.040516246 0.06613137 -0.13247144 -0.043359973 -0.013335781 0.03242042
-0.06295475 -0.03612127 0.02849837 0.1358527 -0.092323884 0.039434873 0.16876304 0.0033988934
00000000: 459d 10be 97b4 b9bb fc17 a7bb 0476 87bd
00000010: 2cfa 2e3d 249d c83c 2448 4a3d 3c3c bf3c
00000020: 734b c33d a432 9dbd c065 fe3b b2c8 febd
00000030: 0f87 2e3e 5607 0cbe 0ac7 79bd ff94 0abe
00000040: 3a43 edbd 36d0 9ebd 5df4 253d e26f 873d
00000050: 98a6 07be 3a9a 31bd 527e 5abc 46cb 043d
00000060: 6cee 80bd e6f3 13bd 6a75 e93c f81c 0b3e
00000070: 4e14 bdbd 7686 213d 38d0 2c3e f8bf 5e3b

fc4.weight f4 [20, 32]
0.2337694 1.205566 -1.0070978 -0.42196086 -0.7866626 1.4170407 0.13933216 -0.79142296
-0.9243595 -0.14748053 0.7759345 0.8007759 -0.89850754 -0.2982321 0.83231515 0.511146
0.6851094 -0.5644577 0.9847012 -0.642468 -1.0571238 0.50199205 -0.5501476 0.71039623
-0.41245413 -0.8055224 0.7505171 0.91575956 -0.36467424 0.7149033 -0.6942249 0.02043175
-0.51178634 -0.1340294 -0.2734848 -1.1496489 0.2803206 0.3095746 0.7664908 -0.08987291
0.12555814 -0.5726969 0.475835 -0.6226056 0.24555093 -1.0273498 -0.22129035 -0.17011943
0.29756773 -0.5741512 0.61920035 -0.080559574 -0.42414352 0.49536508 -0.05994952 0.5092028
-1.0245516 0.29443845 0.83474374 0.9097631 -0.06432028 0.94096583 0.28750497 0.66543144
-0.53473765 -0.6098628 0.3465825 0.060868677 0.25908273 0.039766848 0.84027535 0.55707055
0.7570191 -0.6271559 0.010284718 -0.6413392 0.64171785 -0.44507945 -0.9092689 -0.79890615
0.070661806 -0.649503 -0.060816452 0.7624925 -0.07181574 -0.33020228 0.48711875 0.44884646
0.12240971 0.10064558 -0.4260773 0.5345769 -0.20247263 -0.037333194 0.5177778 0.15084793
-0.06014439 -0.33614215 0.57767 -0.025596336 0.3673318 -0.09908451 0.87744206 0.6318695
-0.16692571 0.24157503 -0.06002795 -0.07090375 0.45073745 0.23682924 -0.5504772 -0.49853796
-0.31402016 0.43477842 -0.6206281 0.3477453 0.06656545 -0.98365223 0.097901314 -0.45010084
0.31140745 0.4079834 -0.4812213 -0.13624659 -0.18865053 -0.52282745 0.22066322 -0.07221174
0.061612397 0.13262947 0.006531817 0.4584569 -0.03811568 -0.2750635 0.08866506 0.060998086
-0.3266626 0.40665552 -0.16489391 0.19331253 -0.22895315 0.18644077 -0.15258501 0.037563972
-0.46658486 0.30808917 0.107653014 -0.15879129 0.29872814 0.09056193 0.21227401 -0.37099552
0.44376886 0.4990514 -0.13320175 -0.5674367 0.09340982 -0.59127396 -0.3977656 -0.373269
0.057900995 0.44205695 0.026886355 -0.008492181 -0.1824926 -0.050047524 -0.5823634 -0.17253697
-0.028988896 0.11800714 0.06389213 0.34799486 -0.25339428 0.40620473 0.25881296 0.18661457
-0.62808836 -0.111963764 0.08896199 -0.33726594 0.10543286 0.27430823 -0.32784802 -0.059803814
0.64678645 -0.086781375 0.076503016 -0.026926966 -0.2420521 0.10733149 -0.340463 0.23642594
-0.12773639 0.5024396 -0.5941366 -0.25712597 -0.06955764 0.25222263 0.012560635 -0.39746878
-0.3006422 -0.036928177 0.23624025 0.28550476 -0.19365129 0.18993287 0.16980998 -0.17517915
-0.27004704 0.27491724 0.0032299948 0.033588335 0.0017199982 0.2235662 0.4152034 0.27183396
-0.123258196 -0.29815918 -0.047457967 0.21888863 -0.019142812 0.280114 -0.5121397 0.29327238
-0.27720082 0.33406904 -0.2872397 0.2717861 0.14143002 0.23685081 -0.18801168 0.08928252
0.021275219 -0.26438496 -0.16224112 0.08782567 -0.0011827525 -0.19249555 0.21497895 0.24037154
-0.5320275 -0.41122183 0.3351803 -0.2846995 -0.29436058 -0.14811602 0.47194064 0.44411272
-0.5533775 0.26547247 -0.24832103 0.3858031 -0.09712909 0.33619517 0.2922966 -0.048683047
00000000: 3f61 6f3e fd4f 9a3f 95e8 80bf 410b d8be
00000010: b862 49bf 9761 b53f 17ad 0e3e b29a 4abf
00000020: d3a2 6cbf 2305 17be a5a3 463f a6ff 4c3f
00000030: 9704 66bf e1b1 98be 9b12 553f 77da 023f
00000040: 5463 2f3f 4d80 10bf 6115 7c3f c878 24bf
00000050: d54f 87bf 8d82 003f 79d6 0cbf 87dc 353f
00000060: 302d d3be b736 4ebf e321 403f 386f 6a3f
00000070: 95b6 babe e703 373f b9b8 31bf 7c60 a73c
00000080: 6e04 03bf 013f 09be 3306 8cbe b227 93bf
00000090: 2f86 8f3e 9080 9e3e be38 443f 4a0f b8bd
000000a0: 5092 003e 449c 12bf a5a0 f33e 1563 1fbf
000000b0: b471 7b3e 3380 83bf f099 62be ca33 2ebe
000000c0: cc5a 983e 93fb 12bf ea83 1e3f 6bfc a4bd
000000d0: 5729 d9be 7ea0 fd3e a18d 75bd 1d5b 023f
000000e0: 8224 83bf a3c0 963e c4b1 553f 3ce6 683f
000000f0: 5aba 83bd 23e3 703f da33 933e b759 2a3f
00000100: 91e4 08bf f81f 1cbf 4373 b13e 6f51 793d
00000110: 7ea6 843e 90e2 223d 491c 573f 2d9c 0e3f
00000120: 01cc 413f 4a8d 20bf 3c81 283c ce2e 24bf
00000130: 9f47 243f 74e1 e3be d9c5 68bf 1d85 4cbf
00000140: 23b7 903d d445 26bf ac1a 79bd b532 433f
00000150: 2114 93bd 4610 a9be a167 f93e 34cf e53e
00000160: f1b1 fa3d 451f ce3d ce26 dabe 08da 083f
00000170: fc54 4fbe b1ea 18bd 168d 043f e177 1a3e
00000180: f759 76bd d31a acbe 2ee2 133f 68af d1bc
00000190: ea12 bc3e d2ec cabd 0ba0 603f 33c2 213f
000001a0: 93ee 2abe 725f 773e dedf 75bd fc35 91bd
000001b0: 0fc7 e63e 5d83 723e 13ec 0cbf 5e40 ffbe
000001c0: 40c7 a0be 479b de3e 7ce1 1ebf ac0b b23e
000001d0: 7753 883d a2d0 7bbf 7c80 c83d 9e73 e6be
000001e0: cc70 9f3e 33e3 d03e a362 f6be 3a84 0bbe
000001f0: 9b2d 41be 05d8 05bf 8af5 613e c0e3 93bd
00000200: 485d 7c3d 05d0 073e da08 d63b ddba ea3e
00000210: 301f 1cbd 20d5 8cbe 0796 b53d 21d9 793d
00000220: 5240 a7be 2735 d03e f3d9 28be b8f3 453e
00000230: b272 6abe 54ea 3e3e 3f3f 1cbe aedc 193d
00000240: 36e4 eebe ddbd 9d3e 2f79 dc3d 2f9a 22be
00000250: e5f2 983e 8878 b93d 5c5e 593e 20f3 bdbe
00000260: ac35 e33e aa83 ff3e 0a66 08be 8843 11bf
00000270: a64d bf3d bb5d 17bf efa7 cbbe 1d1d bfbe
00000280: 9829 6d3d 4a55 e23e c640 dc3c ca22 0bbc
00000290: 57df 3abe a2fe 4cbd c515 15bf 88ad 30be
000002a0: 1f7a edbc baad f13d e1d9 823d 622c b23e
000002b0: e5bc 81be 11fa cf3e 2283 843e e417 3f3e
000002c0: 66ca 20bf 424d e5bd b431 b63d 1fae acbe
000002d0: 2fed d73d 2172 8c3e b2db a7be d8f4 74bd
000002e0: cc93 253f 6fba b1bd 9dad 9c3d f195 dcbc
000002f0: 81dc 77be 9dd0 db3d 2b51 aebe a419 723e
00000300: 54cd 02be e29f 003f 5619 18bf 04a6 83be
00000310: 3c74 8ebd 5323 813e 1fcb 4d3c 0781 cbbe
00000320: c6ed 99be 0042 17bd f7e8 713e ae2d 923e
00000330: 864c 46be c37d 423e abe2 2d3e 2a62 33be
00000340: 9b43 8abe f4c1 8c3e 52ae 533b ec93 093d
00000350: 9071 e13a 8aee 643e 8a95 d43e d22d 8b3e
00000360: cb6e fcbd 52a8 98be 4963 42bd 5724 603e
00000370: 63d1 9cbc 1a6b 8f3e 961b 03bf cc27 963e
00000380: 44ed 8dbe 190b ab3e 1511 93be 8c27 8b3e
00000390: 08d3 103e 0589 723e 2286 40be c1d9 b63d
000003a0: 5e49 ae3c 775d 87be 8922 26be f2dd b33d
000003b0: 9706 9bba 8e1d 45be 7123 5c3e f523 763e
000003c0: f432 08bf ab8b d2be c19c ab3e 22c4 91be
000003d0: 6eb6 96be baab 17be 34a2 f13e be62 e33e
000003e0: 26aa 0dbf 02ec 873e de47 7ebe fc87 c53e
000003f0: 9eeb c6bd c621 ac3e e6a7 953e e067 47bd

fc4.bias f4 [20]
-0.1063199 -0.06578215 -0.005647199 0.00700368 0.04809015 -0.044507783 -0.0008698207 -0.0013561388
0.02707164 0.070674196 0.0065839957 0.0036035615 0.04096211 0.021922136 0.042630367 0.013810811
0.035392173 0.01510101 -0.0038864175 0.03599855
00000000: 3fbe d9bd cbb8 86bd 240c b9bb 207f e53b
00000010: 2dfa 443d cb4d 36bd ae04 64ba 78c0 b1ba
00000020: 58c5 dd3c a2bd 903d 8fbe d73b bb29 6c3b
00000030: e3c7 273d 0d96 b33c 2e9d 2e3d bd46 623c
00000040: 62f7 103d 3a6a 773c 44b3 7ebb 3773 133d
