transfer/dampedSpring/data/transfer_retraining/m(1.1)_model_weights.pth (torch, 13651 bytes, 8 tensors)

fc1.weight f4 [32, 2]
00000000: 28e6 31bf b945 b73d a021 c0be dbd3 ab3f
00000010: 566b b4be dd4c bebe 6647 333e 20d7 193f
00000020: 5601 9f3e f0cd cf3f 9481 6e3e 5417 f43e
00000030: 1833 a2bc d557 583f 9bf4 a83e 96ab fb3e
00000040: 7174 a3ba 4bb0 53bf aef6 303f b501 783d
00000050: 6452 e4be 1af5 2a3f f620 a33f 48be bc3e
00000060: 3bed fabe a5c3 19bc b474 b4bd 851a 1cbf
00000070: 5476 7fbe c882 1cbf 1676 4dbd c418 c7bf
00000080: 8155 ff3e 6521 f5be 01ab 1d3f 38cd 743e
00000090: 505a 063f 7727 7e3d c92f 2c3f c242 6a3b
000000a0: b39d cb3f 9969 80be 7b57 aabe 7eb0 31bf
000000b0: 4c07 273f 3a24 30bf ed7d 233e 0044 153f
000000c0: 917c 1e3d 1341 173f 2ce1 04be 3b40 28bf
000000d0: fe4c 533f 96b9 683f 7dbe 31bf 9756 e73d
000000e0: a4db 80be 4b96 37bf 42ed ecbe 8bb7 69be
000000f0: b665 223e 9458 36c0 6146 3bbf af43 803d
-0.69491816 0.089488454 -0.37525654 1.3424028 -0.3523814 -0.37168017 0.17507705 0.6009388
0.31055707 1.6234722 0.23291618 0.47674048 -0.019799754 0.8450902 0.3299912 0.49154347
-0.0012470615 -0.82690877 0.69126403 0.060548503 -0.4459411 0.66780245 1.2744434 0.36863923
-0.49009117 -0.009385024 -0.08811322 -0.60977966 -0.24947482 -0.61137056 -0.050161444 -1.5554433
0.49869922 -0.4787704 0.61589056 0.2390641 0.52481556 0.062049355 0.67260414 0.0035745357
1.5907501 -0.25080565 -0.33269867 -0.6940993 0.6524551 -0.6880528 0.15966006 0.58306885
0.038693015 0.5908367 -0.12976521 -0.6572301 0.82539356 0.9090818 -0.6943129 0.112958126
-0.25167572 -0.71713704 -0.46274763 -0.22823922 0.15859112 -2.8491564 -0.73154265 0.062629096

fc1.bias f4 [32]
00000000: 5075 30c0 3660 ab3e b8c9 2dc0 5e99 89bf
00000010: 2347 a7be 8230 dcbf 2c5c 2d40 2f11 dabf
00000020: 5ca1 2d40 4801 5fbf 8c1b a8bf 63dd c13f
00000030: e00b d2bf 2091 1ebf fa4e 10c0 3e4d da3d
00000040: 3c35 c9bf b8dc 30c0 0090 c9bf 041a c2bf
00000050: d313 a23f 2128 633c 0010 dabe fdb5 a6bf
00000060: 250d babf 3b25 393e 1138 65be 04bd 31c0
00000070: 89f8 9a3f 06fc e5bf bcf5 b63e bb45 1c40
-2.7571602 0.3347184 -2.715437 -1.0749929 -0.3267146 -1.7202303 2.7087507 -1.7036494
2.7129736 -0.8711133 -1.3133407 1.5145687 -1.6409874 -0.61940193 -2.2548203 0.10659264
-1.5719371 -2.7634716 -1.574707 -1.5164189 1.26623 0.013864548 -0.42590332 -1.3024288
-1.4535261 0.18080609 -0.22384669 -2.7771616 1.2107097 -1.7967536 0.35734355 2.441756

fc2.weight f4 [32, 32]
00000000: e3c8 b6be 170e 6fbe 5b06 6cbe 3946 28be
00000010: 76a5 2abf b42e c83e 39ac 763e 2116 2bbd
00000020: 96d6 a4be ec51 19be c33f 54be be34 94be
00000030: 1476 4abe 36b9 fbbe e47c 4e3e 3e46 a7bd
00000040: af85 97be 8733 ad3e fce5 513e df64 a43e
00000050: b581 61be 1fa3 e8bc 7527 3c3e 1cc2 ccbe
00000060: 0fff b93c b14f 49bd a97c 5cbc 8650 ffbe
00000070: c8e1 50bf 399a 9fbe b901 afbd fa5c 3ebf
00000080: 94c6 a33e 8951 463b 7889 193f 2836 34be
00000090: e37b 03bf 62b6 b43d 6389 9d3e 9913 42be
000000a0: fbfa 373f 0f0d 13bf 9cc6 a23e 8ef9 12bf
000000b0: 43c3 373e 3cff 8c3e 1c84 283d 7368 32bd
000000c0: 325c d9be 8b72 d0bf 667b eabe 8c4a 80bf
000000d0: 4273 98be 9bb4 edbe 3fd4 7bbe 423e 34be
000000e0: 14df 5c3d 0905 c13e e9a0 4dbf d797 d13e
000000f0: fde3 493f 0dda f13e 330c 68be 2ac9 a13f
00000100: 9be9 86bc 9020 89be 8b97 103d bb78 1fbf
00000110: f0eb fa3c 2bfa e1bd b828 f3be 9d25 6c3e
00000120: 97d7 5bbe 41e9 06bf 0c2a 33bf 7e3d 893e
00000130: d89b e4be b803 6e3b d876 9c3d de51 0bbf
00000140: 53fe d0be 00bc 003f e93c 9ebd 04f8 afbe
00000150: 77ad f6be 5e9c 1dbe 389f 293e 56a2 26be
00000160: dc4c 5ebe 1b76 4ebd 440f edbe 241b 8d3d
00000170: 4574 82be 4aa3 ea3a d0ef 23bf 12f9 33bd
00000180: b3e1 6cbe e94c 903c 99a7 093e a5d8 14be
00000190: dffb 43be 9cc1 dabe ba32 c7be aff5 d73d
000001a0: 45af 13bf a46a cebe 46d1 bc3c 93bd 0ebf
000001b0: 491c c4bd e29c 21be 07b2 d23e 895e 39bf
000001c0: 7187 483e 8435 47bd 78d7 81bd 75dd b33c
000001d0: 9726 703e 97f5 d3be e727 c13b a508 dbbe
000001e0: 007a dbbe 2f15 843d 841d d2be 69f3 d23d
000001f0: 9aad 6dbe 5b2d 63bc 1f89 80be 7695 dcbe
00000200: c71d e23e 815c 95bf b229 4e3f 0cc9 50c0
00000210: fa26 9cbe 1a03 53c0 0d12 51c0 6a0e 07c0
00000220: a1d4 84be 83ab 0bbf 5175 34bf 35ba ae3e
00000230: 23dd d63c e90a 123f 18cc 3f3f 5de8 8dbe
00000240: a8dc dc3e d921 55bf 0309 e8be 4a63 5dbd
00000250: 2798 0c3e 84b7 83be 923b 833e cbbc 4bc0
00000260: 446e 3ec0 fa2f 8a3c da03 2fbf a072 903e
00000270: f749 323e 9bcf cb3d 1d14 8bbe f8ac dfbe
00000280: c175 52bf f7ac 1dbf 78c2 24bf fed1 04bd
00000290: f5e4 e6bc 6da0 9b3d e7c3 9abe ff3b d53e
000002a0: 090a 96be c2d6 e93e 6439 033e 0877 3abe
000002b0: eadc 9ebf 41a4 6ebf a4db 0dbe 6add 543d
000002c0: b5a7 413e 2e4d 763f 1e98 333f e007 243f
000002d0: 7983 f2be 6a89 08bf 4f2b a93e 665f 2b3e
000002e0: 6656 803e df0b efbd faab 3abe 3565 19bf
000002f0: 60d1 88bf c2e8 dfbf 0826 10bd 5eb8 3fc0
00000300: 054b 14be 18e9 1d3e d15e ca3e 3527 10bf
00000310: 5e41 0a3c 99d5 51bd ad15 62be a64f 08bf
00000320: 684d 783e 1856 dabd cbac 80be c5b0 8b3e
00000330: e192 623e 82c1 29bf d63a 7bbe 0f81 91bd
00000340: d589 143e de9b d63d 3110 b93e f4ca 97be
00000350: b68b 45bf 3bd1 92be 3b87 56be f69f b8be
00000360: 5561 0fbf ecc6 7abd bedc c3be 2de0 ad3e
00000370: b916 10be 1fb4 1bbf d780 0cbf b5b2 a4be
00000380: 6dec 3abe c212 5e3e a08b abbd d5ad 3f3e
00000390: 151d b1be db2f 47be ab84 a5bd 9d3c 0dbc
000003a0: 4f86 45bf 6631 7e3d 4d05 e5be f797 ae3e
000003b0: 009b a5be 01a5 e4be 1db4 e63c fb8e eebd
000003c0: 76ed acbe 3022 453e b944 afbd 34af 0dbf
000003d0: 4e27 1a3f 5f94 3dbd 4c1a 0cbf b631 45bd
000003e0: a4ac 28be 8bef 033e 216a 873d 57fe 0dbf
000003f0: 3e20 16bf 3763 0abf ac18 ec3c 6588 66bf
-0.3570014 -0.23345219 -0.230493 -0.16433038 -0.66658723 0.39098132 0.24089135 -0.04176915
-0.32194966 -0.14972657 -0.20727448 -0.2894649 -0.19771606 -0.49164742 0.2016483 -0.081676945
-0.2959418 0.33828375 0.20497888 0.3210821 -0.22022136 -0.028398095 0.18374427 -0.39991844
0.02270463 -0.049148265 -0.013457456 -0.49866122 -0.81594515 -0.3117235 -0.085452504 -0.7436062
0.3198744 0.0030261 0.59975386 -0.17598784 -0.5136091 0.08823849 0.3076888 -0.18952788
0.7186734 -0.574418 0.31792152 -0.5741204 0.1794558 0.27538478 0.041141614 -0.04355664
-0.42453152 -1.6284956 -0.4579727 -1.002275 -0.29775435 -0.46426854 -0.24592684 -0.17601874
0.05392368 0.37699154 -0.80323654 0.40936157 0.7886351 0.47236672 -0.22660904 1.2639515
-0.016468814 -0.26782656 0.035300773 -0.62293595 0.030630082 -0.11034044 -0.47492003 0.23061223
-0.2146896 -0.5269967 -0.69986033 0.26804727 -0.4465015 0.0036318135 0.07639855 -0.54421794
-0.40819034 0.50286865 -0.077264614 -0.34368908 -0.48179218 -0.1539168 0.16564643 -0.16272864
-0.21709007 -0.050405603 -0.4630071 0.06889942 -0.25479332 0.0017901447 -0.640378 -0.043938704
-0.23132972 0.017614799 0.1344284 -0.14535768 -0.1913905 -0.42725837 -0.3890589 0.10544907
-0.57689315 -0.40315735 0.023049008 -0.5575802 -0.095757075 -0.15782502 0.4115145 -0.72409874
0.19582917 -0.04863502 -0.063399255 0.021956185 0.23452221 -0.41398308 0.0058946493 -0.42780033
-0.42866516 0.06449353 -0.41038144 0.10300333 -0.23210755 -0.013865794 -0.25104615 -0.4308278
0.44163343 -1.1668855 0.8053237 -3.262271 -0.30498487 -3.2970643 -3.2667267 -2.1102548
-0.25943473 -0.5455858 -0.7049151 0.3412644 0.026228493 0.570479 0.749208 -0.27716342
0.43137097 -0.8325477 -0.45319375 -0.054049768 0.13729917 -0.2572595 0.25631386 -3.183398
-2.97548 0.01686858 -0.6836525 0.28212452 0.17411028 0.09951707 -0.27163783 -0.43686652
-0.8221093 -0.6159205 -0.64359236 -0.032426827 -0.028185347 0.07598958 -0.30227587 0.41647336
-0.2930453 0.4567166 0.12814862 -0.1820947 -1.2411168 -0.9321938 -0.13853317 0.05196897
0.18911631 0.96211517 0.7015399 0.64074516 -0.4736593 -0.5333468 0.33040854 0.1673561
0.25065917 -0.11672186 -0.18229666 -0.59920055 -1.0688896 -1.7492907 -0.03519252 -2.9956279
-0.14481743 0.1542095 0.39525464 -0.56309825 0.008438436 -0.051229093 -0.22078581 -0.53246534
0.24248278 -0.10660952 -0.2513183 0.27283302 0.22126342 -0.66310894 -0.24534163 -0.07104694
0.14505704 0.10478948 0.36145166 -0.29647028 -0.77166307 -0.28675255 -0.20950024 -0.3605954
-0.5600789 -0.061224863 -0.3825435 0.33960095 -0.14071168 -0.6082172 -0.54884094 -0.32167593
-0.18254252 0.21686843 -0.08376241 0.18718655 -0.345925 -0.19451849 -0.08081945 -0.008620408
-0.77158064 0.06205883 -0.44730607 0.34100315 -0.32344818 -0.44657138 0.028162057 -0.11648365
-0.33774918 0.19251323 -0.0855803 -0.55345464 0.60216224 -0.046284076 -0.54727626 -0.04814311
-0.16472107 0.12884347 0.06612039 -0.55466217 -0.5864295 -0.5405764 0.028820358 -0.9005187

fc2.bias f4 [32]
00000000: 4ec7 fdbe 95bd 18be 0140 bfbe 55ea ddbe
00000010: c22f 1abf b3a3 71bf c00a 94be 2acc 9bbe
00000020: 23df 38bf 077a 51bf 4daf e13e eeea 7dbe
00000030: 6989 99be 9efb 83bd 8a4e 19bf f65a e9be
00000040: 8b8a 10be 82c6 16bf 0a1b 27bf 16e5 46bf
00000050: 6d2e 45bf 387e 3fbf 1119 52bf 5b74 11be
00000060: 172e 1abf 4ed9 d3be 377c 4fbf e96c 4abf
00000070: 1817 cfbd 806f efbe b55a 46bf daab a9be
-0.4956612 -0.1491607 -0.3735352 -0.43342844 -0.6022912 -0.9439041 -0.28914452 -0.30429202
-0.7221548 -0.81826824 0.44079056 -0.2479665 -0.29987648 -0.064444765 -0.59885466 -0.4557721
-0.1411535 -0.5889665 -0.65275633 -0.7769331 -0.77023965 -0.7480197 -0.820695 -0.14204542
-0.6022658 -0.41376728 -0.8104891 -0.79072434 -0.10111827 -0.46764755 -0.7748216 -0.33138925

fc3.weight f4 [32, 32]
00000000: b894 e93e a568 0cbf 4bcf f73e 2bf9 b33e
00000010: 70d9 8ebe 7746 cabe 63ea 0d3e f7d4 e9bd
00000020: 6510 22be 094a 1d3e 7c44 9abf abcf 0bbd
00000030: bb0e fbbc ef0c 84bf 35f0 8cbd 1db2 21bd
00000040: 5ef7 d5be 1e61 eb3e 6bdd 8abd 746a 04be
00000050: 22d2 dfbd 956e 3ebe e64d da3e 8b5d 0ebf
00000060: 19f9 6b3e 6fa7 09bd 949e a5be 4779 e03e
00000070: 0680 3c3d 4c2a dfbd d592 cc3e acbc 5abd
00000080: 9ae3 463e 4fb0 66be 2490 45be 2185 e73d
00000090: 0505 00bf 96d3 4d3e 65d0 433d 24a1 0f3f
000000a0: 5363 403f 2a94 453e 01f2 b8bf b024 0abf
000000b0: e0b4 fd3d cae1 c5bf e06c 0a3f 98be b13f
000000c0: 98b6 b13e 63e7 c83e bfbd 623e 2841 e6be
000000d0: ea61 e93e 07a2 143f 8a4e 893d 4540 62be
000000e0: fec0 8b3e 7a19 60bf ce28 d83e 5d7a 103f
000000f0: 00d8 013e 598a a1be 4c08 03bc 45c6 42be
00000100: e49f 433f 1188 b4bf 0f87 5dbe e081 923e
00000110: fd70 123e 63bc 9a3f 9cc1 2a3e 30fb 783c
00000120: d43e 793f 56ec 4fbe 5dfa acbf 8d45 0c3f
00000130: c2e9 fd3e 6ce6 80be 5d5e 81be 9ffb 2c3f
00000140: 46c9 efbe 4ebf c3be 83c1 883e f3e8 1abf
00000150: c929 143f ad71 513e 5b7e 0cbb 0fa3 18bf
00000160: 7938 0a3e 2889 1abe 0eee 08bf 77bd 143e
00000170: ffe9 f23e 740d b7be aba8 61be ebfc 4a3e
00000180: 402a 51be a5d6 12be 11fb 013e 14a6 c63d
00000190: 7d05 413f a303 c4be 966d b73e 0b44 753d
000001a0: 3dda 4abe 29cc 163e 0e30 86bf 815a 16bf
000001b0: c229 a03e 8147 01bf 3758 853e 5641 dfbe
000001c0: 0cef eebc 2266 613e 9e9d e43b 0208 9b3e
000001d0: f23d 84be f39a 17be fa72 1f3e d451 bbbf
000001e0: 447f bfbc 1bf7 873e 61c1 b53e 70ac 8bbd
000001f0: 9bc2 53bf 51a8 3fbf 97ed 24be 6987 0a3e
00000200: 528b 81bf 397e 163e cc05 cbbe c3c2 23bf
00000210: e620 673f ef92 7ebf cc9d 723e 62a8 10bf
00000220: 6003 4fbf 377b b43f 0d48 5cbe 3efe b6bf
00000230: 4aa4 72be ed73 9e3d 7171 003e 12aa 28bf
00000240: 32d9 c53e 9d34 803e 5aee 92bf ab9f ab3e
00000250: 0923 79bf 0cfe cb3c 72d5 373c 9e24 37be
00000260: 709c e9be 4cdb 6e3e 13a4 393f cc33 35be
00000270: 6612 d8be 822d 9fbf a714 e1bf 6bcf 85bf
00000280: e9c4 ba3e c785 00bf 867a 1e3e d1b0 263e
00000290: 26d5 573e 8e1f 92be b725 113e d37f d1be
000002a0: 0308 943e f48a c53e cf4c acbf 9fe7 3dbe
000002b0: 41c5 883e cd77 7dbe 2f87 c33e 8666 b1be
000002c0: 51f0 1c3f 53cd e43e ff10 adbd 48a8 bc3e
000002d0: 0e9c 5abe f1ba e3bd 6c5c 4d3e 11d4 04bf
000002e0: d564 cdbe 2d25 823e 30cb 443e 5cf3 ec3e
000002f0: 8091 b6be 10dd f6be b98f a3be 5e12 713e
00000300: d87b 04be a748 313d 6f7d 0dbd 8264 33be
00000310: 06fc ffbe 6c43 933d 9d17 41be 8f83 e63e
00000320: 7f10 a0be a722 3bbf a532 bcbf 2c7e 48bf
00000330: fd66 0a3f 967b 37bf df1d 8abe 2fc4 1bbf
00000340: dc92 a53c 818d f23e 3f1d a13e 0914 5ebe
00000350: c754 d93c 1db4 e43e dab4 893e adf9 553c
00000360: 97e1 393f b949 01bf 7879 c93e c5b8 db3d
00000370: cdf6 7f3d 21fe 78be c1b6 553e d171 73bd
00000380: 5b83 1fbf 474e 0c3e 8c69 eebd 5844 e7bd
00000390: 9149 db3f ce1b f0bd 228f 4ebf 61ac d4be
000003a0: 8c6a 8dbd 00cd 163f 3d52 0d3e 0367 763e
000003b0: 35fb 923d 775e d3bd ef1f e3bd 1729 76bf
000003c0: 1212 b5be 445f acbe 427c 0bbe 53df bbbd
000003d0: aad4 41bf cd4a 5c3c c333 313e 1da9 fbbf
000003e0: 4efd 7cbf b0b3 c13e 390f a83e e294 adbe
000003f0: 755b dabf f7c2 213d 0342 17bf e41a 993d
0.45621276 -0.54847175 0.4840034 0.35151038 -0.27900267 -0.39506885 0.13858943 -0.11417573
-0.15826567 0.15360273 -1.205215 -0.034133594 -0.030646672 -1.0316447 -0.06881753 -0.039476503
-0.4179029 0.45972532 -0.067805134 -0.12931234 -0.109287515 -0.18596871 0.42637557 -0.55611485
0.23044242 -0.033606943 -0.32347548 0.43842527 0.04602053 -0.10896739 0.39955774 -0.053402588
0.1942276 -0.22528194 -0.19293267 0.11304689 -0.5000766 0.20100245 0.047806162 0.56105256
0.75151557 0.19294801 -1.4448854 -0.5396223 0.12388015 -1.545953 0.5407238 1.388629
0.3470962 0.39239034 0.22142695 -0.44971585 0.45582515 0.58059734 0.06704433 -0.2209483
0.2729568 -0.87538874 0.42218632 0.5643671 0.12680054 -0.31550863 -0.007997584 -0.19020946
0.7641585 -1.4104024 -0.21633552 0.28614712 0.14300914 1.2088741 0.16675419 0.0151966065
0.97361493 -0.20304999 -1.3513905 0.54793626 0.49592406 -0.25175798 -0.25267306 0.67571443
-0.46833247 -0.3823189 0.26710138 -0.605117 0.5787626 0.2045352 -0.0021437618 -0.5962381
0.13498105 -0.15091383 -0.5348824 0.145254 0.4744415 -0.3575245 -0.22036998 0.19823043
-0.20426273 -0.14339693 0.1269343 0.09699646 0.75399 -0.38284025 0.35825795 0.059879344
-0.19809814 0.14726318 -1.0483415 -0.5873185 0.3128186 -0.5049973 0.26043865 -0.43604535
-0.02916672 0.22011617 0.0069767972 0.30279547 -0.2582851 -0.14805202 0.15571204 -1.4634347
-0.023376115 0.26555714 0.354991 -0.06819999 -0.8271882 -0.74866205 -0.16106258 0.13528217
-1.0120642 0.14696588 -0.3965286 -0.6396906 0.90284574 -0.9944295 0.23693007 -0.5650693
-0.80864525 1.4100102 -0.2151186 -1.4296339 -0.23695484 0.07736955 0.12543274 -0.65884507
0.3864227 0.2504014 -1.1478989 0.33520254 -0.97319084 0.024901412 0.011220323 -0.17885062
-0.45627165 0.23325843 0.7251598 -0.1769554 -0.42201537 -1.2435763 -1.7584428 -1.0453924
0.36478356 -0.5020413 0.15476426 0.16278388 0.21077403 -0.285397 0.14174543 -0.40917835
0.28912362 0.38582575 -1.346094 -0.18545388 0.26712993 -0.24752732 0.38189074 -0.34648532
0.61304194 0.446879 -0.084505074 0.36847138 -0.21348593 -0.111196406 0.20054787 -0.5188609
-0.4011599 0.25418988 0.19218135 0.46279418 -0.35657883 -0.48215532 -0.3194559 0.23542163
-0.12937868 0.043282177 -0.03454345 -0.1751881 -0.49996966 0.07190594 -0.18856664 0.45022246
-0.31262586 -0.7309975 -1.4702955 -0.78317523 0.540634 -0.7167295 -0.26975915 -0.6084623
0.02021163 0.47373584 0.31467625 -0.2168733 0.026529683 0.44668666 0.2689579 0.013060016
0.7260985 -0.50503117 0.39350486 0.10728601 0.062491227 -0.24315692 0.20870496 -0.059434716
-0.6230981 0.13701735 -0.11641225 -0.112923324 1.7131826 -0.11724053 -0.80687153 -0.41537765
-0.06905088 0.58906555 0.13800903 0.24062733 0.0717682 -0.10320752 -0.11090075 -0.9615645
-0.3536535 -0.33666432 -0.1362162 -0.09173455 -0.75715125 0.013445568 0.17304902 -1.9660984
-0.9882401 0.37832403 0.32824114 -0.3390265 -1.705916 0.039492574 -0.590851 0.07475832

fc3.bias f4 [32]
00000000: f883 f3bf a016 7ebf 1b94 b4bf f2bc ccbf
00000010: 86c0 25bf 8b20 f0bf 7037 f7bf 6c66 63bf
00000020: 02db 45bf c13a a0bf 98ba e7bf 096f a5bf
00000030: 9975 dabf 1371 9fbf bf84 31bf f870 cfbf
00000040: 8107 babf 9b10 a5bf 9e40 b1bf 6044 e6bf
00000050: dd07 e1bf 3c31 a1bf 91c1 84bf 038b a6bf
00000060: ebe6 0ac0 a55a cdbf 5150 edbe 9f76 abbf
00000070: 8ca2 39bf 09d4 98bf 2129 54bf 85cb 64bf
-1.9024649 -0.99253273 -1.4107698 -1.5995162 -0.6474689 -1.8759931 -1.9313793 -0.8882816
-0.77287304 -1.251793 -1.8103819 -1.292451 -1.7067138 -1.2456383 -0.6934318 -1.620635
-1.453354 -1.2895693 -1.3847845 -1.7989616 -1.7580525 -1.259315 -1.0371572 -1.3011173
-2.170344 -1.6043288 -0.4635034 -1.3395575 -0.7251365 -1.1939708 -0.8287526 -0.89373046

fc4.weight f4 [20, 32]
00000000: 50ec 393f 2233 013f 0d3c 9f3f d33e b5bf
00000010: 7f65 0cc0 c51d b5bf e450 a23e 924b 03c0
00000020: 00a4 e03f b454 31bf e7ba 993f 8ae3 a03e
00000030: eaca 9ebf c4be 7f3f 5a98 a03f 9657 053e
00000040: b0dd 30bf d12c b33f 87d1 abbf 039c 4a3f
00000050: 6c0c 923f dae5 aabf b5e9 ab3f 5bc2 3fbf
00000060: fff0 3a3f 2edd b3bf aa70 cc3f ad73 a2bf
00000070: d781 dc3f 03c4 71be 8251 edbf df3f e4bf
00000080: 936a a53d 1075 c13f 42cd eb3a 8009 84bf
00000090: 2af6 9dbd 1f29 4cbf 63a1 a83f 68c9 debf
000000a0: 7b05 e53e bd87 883f 2a7d 14bf 33e3 bfbf
000000b0: 57a7 a93e cd1a 163e 6b37 f73f 82b4 6f3f
000000c0: 9d9a 8d3f 2be7 243f 34f8 b6bf f9fa 0f3f
000000d0: 1431 0e3e 9146 a0bf 01ea 393f dd6c 71bf
000000e0: 161b d8be d262 e0be 3032 f13f 47ea 403f
000000f0: 6b3a 39bf 991d dcbf 3ad1 cb3e 4d8c 10c0
00000100: 7616 8f3e 4846 ce3f 5d61 32bf abb2 d23e
00000110: 9676 af3f 7c1b 643d d08d 473f 25fe 65bf
00000120: 7fd3 3fbf 3726 c23f 8f02 8abf eb31 cbbf
00000130: 1f12 a83f ce18 6bbf 450f 2c3f 7bdb 083f
00000140: ffb2 cb3f f069 c73e 300a 2ebf 3e81 bcbc
00000150: aa75 bdbe b34a 19bf 2416 ce3b e9c4 bdbf
00000160: 8e52 1bbf ba50 9e3f a0e4 813f ad86 db3f
00000170: db1d e3bf 795c bcbf 355a ae3f da42 1cbf
00000180: b4a5 3f3f 8988 803e fdc9 57bf 78d0 393f
00000190: 990b b73f 61c1 9c3e be16 ad3e 81df 143f
000001a0: 5700 8ebf 980a 853f 6c90 3cbf 55a4 fabe
000001b0: f5e7 1b3f 5984 1bbf c14d c6be 30e4 813d
000001c0: bdc8 de3e cac0 12bf a928 b23e 82c6 f53d
000001d0: e73d 10bf 22d9 803e 7d67 babe 41ef 92be
000001e0: 2091 16be 99af 3f3f 8361 acbe ef32 9f3f
000001f0: f8a5 9abf 9ffe c1be 9323 8c3f ef94 1d3f
00000200: e152 acbf e356 70bf 8991 dd3b ac88 5d3e
00000210: 2cc1 373f 2171 e33e 914a bebd 8ad8 4b3f
00000220: 9135 09bf be19 4bbd f450 00bf 89aa fe3d
00000230: 0b04 993e 6751 173d a2e5 51bf eac2 0cbf
00000240: bb1c 44be c892 b9be 2fb4 7c3f a576 74bf
00000250: ad25 b0be becb 7d3f 5b2b 2bbf bb55 8f3f
00000260: e8a5 4abf dda2 3d3e b77d 3dbf 7b1c 93bd
00000270: 4663 55ba 810a 423f 7cc3 33bd 4ebd 883f
00000280: aeca 3fbf 63e0 48bf a737 ab3e 312c 213d
00000290: 1ba2 e9be f0d6 d0be 7a71 a2bf 7926 1d3f
000002a0: f7ec 423e 94b8 6cbf 448a fe3b 2dc2 2e3f
000002b0: 6a5e 70bf 9712 01be 63df 03bf 7dea e4bf
000002c0: 10a0 3ebf 7434 72be dc7b bd3e 5acc 5fbf
000002d0: a6ae d9bc 1ab6 ba3e e98e e4be 8abc 133f
000002e0: 21fd b8be ddfe 37be bd8d e8be 57e5 20bf
000002f0: c36c 3f3f f89b 893f 2517 d7be ea04 113f
00000300: 157b 6ebe d063 5ebe 5277 0c3f 5e28 e4bd
00000310: f414 0bbf ed68 bbbe 1445 1f3e 3230 0d3e
00000320: 9c8d cb3e 52b1 33bf b565 a8be ab7e e73e
00000330: 682a 74bf f987 6e3f e056 dfbe af62 45be
00000340: 04c0 82be c4e9 bfbe 6fee f0be 0922 39bf
00000350: 941c 983d 0ff9 cdbe c32e 4e3e ef33 adbe
00000360: 7dd4 26bf 8edb 23bf 4ce7 da3e d36c 1bbf
00000370: 5518 423f b7e9 073f de10 3ebf 21b3 b2bd
00000380: 0b77 863f 903a 243e a8ca d83d 2b47 9c3e
00000390: e72b d4be a008 443e 7712 b73e 9e53 05bf
000003a0: 8709 733e 1603 dabd 46b9 3e3e ba62 84be
000003b0: 81f0 873d 8e39 d8bd 3714 893e 1801 583e
000003c0: 7277 c3bb b341 d63e e0bb 0fbe 49df 283f
000003d0: 45fc 283f 6e24 a4be 321f d53e 572d 72bd
000003e0: f691 3d3f d275 11be d52f c13e 2365 48be
000003f0: 438a 8f3e 7715 f1bc fa57 9cbe 2a5e 01bf
0.7262621 0.5046865 1.2440201 -1.4159797 -2.1936948 -1.414971 0.3170234 -2.0514874
1.7550049 -0.6926987 1.2010163 0.314236 -1.2405674 0.9990046 1.2546494 0.13021693
-0.6908827 1.3998052 -1.3423318 0.79144305 1.1410041 -1.3351395 1.3430697 -0.7490594
0.7302398 -1.4051874 1.5971882 -1.2691551 1.7227124 -0.23609929 -1.8540499 -1.7831992
0.08076968 1.511385 0.0017990249 -1.0315399 -0.07712968 -0.79750246 1.3174251 -1.7405214
0.44730744 1.0666424 -0.58003485 -1.4991211 0.33135483 0.14658661 1.9313787 0.9363481
1.1062809 0.64415234 -1.4294496 0.5624233 0.1388591 -1.2521535 0.72622687 -0.9430674
-0.42208165 -0.43825394 1.8843441 0.7535748 -0.72354764 -1.7196532 0.39808065 -2.2585633
0.27946824 1.6115198 -0.69679815 0.41151938 1.3708065 0.055690274 0.77950764 -0.8984092
-0.7493209 1.5167912 -1.0782031 -1.5874609 1.313053 -0.91834724 0.672108 0.534599
1.5914 0.3894801 -0.67984295 -0.023010846 -0.37003833 -0.59879607 0.0062892605 -1.4825717
-0.60672843 1.2368386 1.0147896 1.7150475 -1.7743486 -1.471572 1.3621279 -0.6103951
0.7486222 0.25104168 -0.84292585 0.72583723 1.4300414 0.30616286 0.33806413 0.5815354
-1.1093854 1.0393858 -0.7365787 -0.489535 0.60900813 -0.6074882 -0.38731197 0.063423514
0.43512526 -0.5732542 0.34796646 0.12000753 -0.56344455 0.2516566 -0.3640708 -0.2869816
-0.14703798 0.74877316 -0.33668146 1.2437419 -1.20819 -0.37889573 1.0948356 0.6155538
-1.3462793 -0.9388258 0.006761734 0.21634167 0.7177913 0.44422248 -0.09291566 0.7962729
-0.5359736 -0.049585097 -0.50123525 0.12434871 0.29885897 0.036942866 -0.81991017 -0.54984915
-0.19151585 -0.36244798 0.9871244 -0.9549354 -0.34403744 0.9913901 -0.6686303 1.1198038
-0.791594 0.18519159 -0.7401995 -0.071831666 -0.0008140098 0.7579728 -0.0438876 1.0682771
-0.7491864 -0.78467387 0.33440897 0.039348785 -0.4563149 -0.40788984 -1.269088 0.6138683
0.19035707 -0.92469144 0.0077679474 0.6826504 -0.93894064 -0.12604748 -0.51512736 -1.788406
-0.74462986 -0.23652822 0.3700856 -0.8742119 -0.026572537 0.36467057 -0.44640282 0.5770956
-0.36130622 -0.17968316 -0.45420638 -0.62849945 0.7477533 1.0750723 -0.42009845 0.56648123
-0.2328914 -0.21717763 0.5486957 -0.11140512 -0.54328847 -0.3660349 0.15553695 0.13787916
0.39756477 -0.70192444 -0.32890096 0.45213827 -0.95377207 0.9317623 -0.43620968 -0.19275926
-0.2553712 -0.37483037 -0.4705691 -0.7231756 0.07427326 -0.4022908 0.20135026 -0.33828685
-0.6516798 -0.6400689 0.4275459 -0.6071293 0.7581838 0.53090996 -0.7424449 -0.087255724
1.0505079 0.16037965 0.105855286 0.30523047 -0.41439745 0.19143915 0.35756275 -0.52080715
0.23734103 -0.1064512 0.18625364 -0.25856572 0.06637669 -0.10557853 0.26773235 0.21094167
-0.0059651667 0.41847 -0.14036512 0.65965706 0.6600993 -0.32059044 0.41625363 -0.05912527
0.74050844 -0.14205101 0.37731805 -0.1956983 0.28035173 -0.02942918 -0.3053587 -0.5053431

fc4.bias f4 [20]
00000000: 580e 9d3e 3182 073e 58c2 7fbd 076f 25be
00000010: 141e fcbd 5a04 2d3d b61a a03d 92af f03c
00000020: 182a 97bc a195 58bd 70b7 253d 1d86 6bbd
00000030: 81dc 24bc 75d5 6b3b eaed 74bd 0646 9f3b
00000040: 17b5 803d 383f 063d bb1f 47ba 4584 8cbc
0.30675006 0.13233258 -0.0624412 -0.16155635 -0.123104244 0.042240478 0.07817595 0.029380593
-0.018452689 -0.052877072 0.040458143 -0.057500947 -0.010062338 0.0035985385 -0.059797205 0.0048606424
0.0628454 0.032775134 -0.0007595976 -0.017152915
