transfer/dampedSpring/data/transfer_retraining/u(-1.0)_model_weights.pth (torch, 13651 bytes, 8 tensors)

fc1.weight f4 [32, 2]
000000 d0 08 1b bf 2a 73 76 bd 1e 55 66 3c d3 d3 ef be
       -0.6056032 -0.060168423 0.014058379 -0.46841297
000010 85 65 eb be 7b fb 93 bd e6 84 8b 3f ba 1c 8c 3f
       -0.4597589 -0.072257005 1.0899932 1.0946267
000020 05 7a 98 3d b3 df e9 3e 65 e1 c6 be 13 0f e9 be
       0.074451484 0.4567848 -0.38843837 -0.45519313
000030 3d 77 d1 3e 1d 59 37 3e cb f1 f1 bc 99 69 14 bf
       0.40911284 0.17905088 -0.029534241 -0.5797363
000040 77 bd 86 3e f8 73 9d 3e 14 33 04 3f e3 f8 f8 3c
       0.26316425 0.3075254 0.5164044 0.030392116
000050 58 a4 f6 bf e0 1b af 3f f1 34 d8 be 58 df 8d bf
       -1.9268904 1.3680382 -0.4222789 -1.1083784
000060 6b ef 51 3e f9 0d 14 bf 50 c4 3e 3c cb 6f e8 be
       0.20501487 -0.5783382 0.011643484 -0.4539779
000070 d6 ae e6 3d 90 db 0f 3f 18 8c 67 3e c8 47 d8 3e
       0.11263816 0.561944 0.22612035 0.42242265
000080 db 49 98 be 93 89 9e be f0 55 db 3e 95 ce 15 3e
       -0.29743847 -0.30964336 0.42839003 0.14629586
000090 1a 90 22 bf df 6e f0 bc 8e 49 1a bf 5b f6 b9 bc
       -0.6350113 -0.029349742 -0.60268486 -0.02270048
0000a0 c7 fb 39 3e 4e ed b3 3e d7 a3 96 3e 1d d0 02 bf
       0.18162452 0.35141987 0.29421875 -0.51098806
0000b0 d4 0f f6 3e 5c b8 71 bd 88 36 fb bd 8f bb da be
       0.4805895 -0.05901371 -0.122662604 -0.4272122
0000c0 52 a3 f7 be 37 56 6b 3e 22 70 e5 be e2 5a 43 bd
       -0.4836679 0.22982107 -0.44812113 -0.047694094
0000d0 fd 13 eb be 0f 53 aa bd 6b ee 99 bd 53 45 12 3f
       -0.45913687 -0.083166234 -0.07516178 0.5713703
0000e0 13 32 5c bc d9 eb 2f bf 9a 4f f7 3e cf 32 8c 3d
       -0.013439673 -0.6871925 0.4830292 0.068456285
0000f0 ea a3 43 3d 4f 04 24 3f 23 fd 8c 3f 9a 44 ca be
       0.047763743 0.64069074 1.1014751 -0.39505464

fc1.bias f4 [32]
000000 a8 83 ef 3f fa 76 86 bf b8 86 02 bf 02 b5 5d bf
       1.8712053 -1.0505059 -0.50986814 -0.8660432
000010 3d 64 c3 be f6 30 3f 3e 57 d3 3c be 21 c9 9c 3e
       -0.38162413 0.18671021 -0.18439995 0.306222
000020 f0 d2 35 bf e6 f3 8b 3f 4f 1a 34 bf b9 3a b0 bf
       -0.7102499 1.0933807 -0.70352644 -1.3767921
000030 e7 52 97 bf 66 dd 99 bf 58 94 85 3f b0 e0 82 3e
       -1.1822175 -1.202069 1.0435896 0.25562048
000040 f5 ed 8e bf 3d e2 0a bd c8 9b e3 3f 69 96 21 c0
       -1.1166369 -0.033907164 1.7781916 -2.5248053
000050 cd 9f 32 bf 35 2c c6 be 63 31 29 bf da 6c 37 bf
       -0.69775087 -0.38705602 -0.66090983 -0.7165047
000060 0c 5d fd bf 5a c0 b8 bf f5 7d ef be 36 25 0c c0
       -1.9794021 -1.4433701 -0.46775785 -2.1897712
000070 f4 e6 08 40 d5 d7 69 3e 34 0a 01 40 24 af 6f bf
       2.1390963 0.2283624 2.0162477 -0.9362662

fc2.weight f4 [32, 32]
000000 46 23 40 3d ef df eb 3e 76 a7 f4 3e 66 68 17 bf
       0.04690864 0.46069285 0.47784013 -0.59143674
000010 4d 23 be bf da f0 e3 3e dd 08 3a bf a4 0b 2d 3f
       -1.4854523 0.44519693 -0.72669774 0.6759589
000020 ee f7 ab bf 2d f6 24 bf a8 fd bf be c3 42 be bc
       -1.3435037 -0.64438134 -0.37498212 -0.023225194
000030 00 3c f0 bb d6 7c 1b 3f 52 4b c7 bf 81 c9 bb bf
       -0.0073313713 0.6073736 -1.5569861 -1.4670869
000040 ab da 6d bd fb 59 24 bf 12 f3 15 bf 36 07 06 3e
       -0.058069866 -0.641998 -0.5857402 0.13088688
000050 11 84 aa bf 90 c1 a0 3e 10 1e 80 3e 71 74 47 3e
       -1.3321553 0.31397676 0.25022936 0.19478013
000060 9a d6 4e 3d e0 9b 8c 3d a5 9f 44 bd f7 9c 3d bf
       0.05049763 0.06865668 -0.04800381 -0.74067634
000070 83 97 43 be 9e b3 f5 be 42 49 d9 bf b6 33 3a 3f
       -0.19100766 -0.479886 -1.6975482 0.72735155
000080 9c 07 bc bf e6 c9 3c 3e 2b 5e d8 be 48 93 32 be
       -1.4689822 0.18436393 -0.42259344 -0.17438996
000090 06 4b c2 bf 3a b6 94 be 76 f1 8f 3e 28 0a 3c 3e
       -1.5179145 -0.29045278 0.28113908 0.1836325
0000a0 87 ec 11 3e e0 f4 bb 3d 6f d3 14 bf b7 bb a1 3e
       0.14250384 0.091775656 -0.5813512 0.31588528
0000b0 7d 27 ee bd 6a 12 9e 3e 55 4b a3 bf 61 1a 26 bf
       -0.116286255 0.30873424 -1.2757365 -0.64884
0000c0 3d 8e 6a 3e b7 c7 0a 3e 9f 7c 9b bf eb 0e 37 be
       0.22905822 0.13552748 -1.2147406 -0.17876785
0000d0 e0 74 46 bf 94 46 85 3e 11 c6 c0 3e e2 bf d4 3d
       -0.7752209 0.2603041 0.37651113 0.10388161
0000e0 a4 e5 17 bf 4b c1 18 bf e2 c6 ab be 67 59 95 bf
       -0.5933478 -0.5966994 -0.33550173 -1.1667908
0000f0 04 0c 3a 3e 2a dd 1e 3e bc d5 df bf 68 4a b4 bd
       0.18168646 0.15514055 -1.7487102 -0.08803254
000100 a4 d1 0d 3f ee 21 82 be 8d 4a 92 3e 20 19 e3 be
       0.5539801 -0.2541651 0.28572503 -0.44355106
000110 f2 aa 33 3e 55 65 bb 3e 1c aa 71 bf e4 44 fb be
       0.17545679 0.36600748 -0.9440019 -0.49075997
000120 05 7c cc be 7d d6 68 bf 13 71 bc 3e bb f8 51 3e
       -0.3993837 -0.90952283 0.3680502 0.2050504
000130 56 b5 25 bf d0 2e 5c be d5 87 b6 3e 86 27 54 be
       -0.6472982 -0.21502233 0.35650507 -0.20718202
000140 8f b4 85 3e f2 20 2b bf 15 73 67 3e e0 cf b4 3e
       0.26114318 -0.66847146 0.22602494 0.35314846
000150 7e 19 25 3e 42 2c 92 bf b3 9a a8 bf b7 58 f5 be
       0.16123006 -1.1419756 -1.317221 -0.47919247
000160 df 6f 28 3f a5 ba 03 3f 93 89 9c 3d 73 51 ee bd
       0.657957 0.5145667 0.07643428 -0.11636629
000170 e1 1b 40 bf 37 d2 a8 bf 0e c1 42 be 0c 65 69 bf
       -0.7504254 -1.3189152 -0.19018957 -0.9116981
000180 d5 fc bf be 2e 39 0d bd f0 ab 4a 3e 4a 1a 00 bd
       -0.37497583 -0.03447836 0.19792151 -0.03127507
000190 e5 9c ad be e5 cd 5a 3e 7d 46 27 bf c7 98 02 bf
       -0.33908764 0.21367605 -0.6534193 -0.5101437
0001a0 7b 04 a6 be 10 28 39 bf 29 90 ca be 34 7e 4e bf
       -0.32425293 -0.72326756 -0.3956311 -0.8066132
0001b0 e9 83 bc bd eb d2 bf be a3 c5 1e bf 8b 3f 83 be
       -0.09204847 -0.37465605 -0.6202032 -0.25634417
0001c0 51 f9 b3 bd f7 ed 08 bf c1 2c 11 bf 10 6d a9 3c
       -0.08787788 -0.53488106 -0.56708914 0.020681888
0001d0 22 ce 7f bd ff 72 7e bf fa e7 1a bf 56 d8 44 be
       -0.062452443 -0.9939422 -0.6051022 -0.1922315
0001e0 4f 1e dc 3e 0d 7f 0c 3e 48 09 8e 3e bb be d3 3e
       0.42991874 0.13720341 0.27741456 0.41356453
0001f0 fc 08 0d bf f2 6a 71 bf 33 99 a1 be 70 63 10 bf
       -0.55091834 -0.9430381 -0.31562194 -0.5640173
000200 be f2 a5 be b1 40 0e 3f 7d b7 20 be 22 7a 32 bf
       -0.3241176 0.5556746 -0.15694995 -0.6971761
000210 f2 d6 a0 bf 90 04 7b 3f ca d4 81 bf 10 74 bc 3e
       -1.2565596 0.98053837 -1.0143063 0.368073
000220 0b 9b 6d bf 60 c1 43 be 7f cf a1 be 91 fd 0a 3f
       -0.928147 -0.19116735 -0.3160362 0.5429316
000230 eb 6d 85 3e ef c2 ab 3e 1a 72 bb bf 79 ee 77 bf
       0.26060423 0.3354716 -1.4644196 -0.96848255
000240 25 06 ff 3e 82 e8 2f bf 0a 70 16 be 9e 24 d9 bd
       0.49809375 -0.68714154 -0.14691177 -0.10602687
000250 7a 63 04 bf f5 a7 04 3f ac 2e 0c be f6 33 84 3f
       -0.5171429 0.5181878 -0.13689679 1.0328357
000260 87 27 44 bf 67 cd a0 3c 8d ce c9 3d 0d 10 8a bf
       -0.76622814 0.019629193 0.098538496 -1.0786148
000270 ac 8c ae 3e 44 dd e2 bd 47 b7 9c bf 19 61 0d 3e
       0.340917 -0.11077359 -1.2243432 0.13806571
000280 d8 ab ba bf 00 10 86 3e 02 ba 3c bf 01 7d 3c be
       -1.4583693 0.26184082 -0.73721325 -0.1840706
000290 15 19 8b bd 92 86 aa be 35 62 d4 3e c4 c0 e7 3d
       -0.067918934 -0.33305794 0.41481176 0.11316064
0002a0 6a 33 91 3e 36 16 77 3e 54 2d b2 3c 10 ec b7 be
       0.28359538 0.24129567 0.02175013 -0.3592229
0002b0 c9 9e b1 3e b2 9b 1c 3f 04 49 11 bf 37 42 0e bd
       0.34691456 0.6117507 -0.5675204 -0.034731116
0002c0 9e cb 0e bf 27 ac c4 3e cb 55 da bf 2c 50 bc bf
       -0.55779445 0.38412592 -1.7057432 -1.4711967
0002d0 ea 1f e1 3e 0d 68 6e 3d 2c 05 56 3f 1c 19 5b be
       0.4396966 0.0582047 0.8360164 -0.21396297
0002e0 d5 e8 9d bf 3c 7c b4 bf 78 86 2a bf f6 b9 6a 3e
       -1.233668 -1.4100413 -0.66611433 0.22922501
0002f0 db 5f 9b be 60 c5 81 3f 1b 80 4e bf 60 28 dc 3d
       -0.3034657 1.0138359 -0.80664223 0.107498884
000300 58 bb 60 bf e5 7c fc 3d d3 14 46 bf f7 39 38 3e
       -0.87785864 0.12328509 -0.77375525 0.17990862
000310 a3 b2 a9 be a3 61 57 bf 89 26 f5 3e 96 69 cd 3e
       -0.33144102 -0.84133357 0.47880962 0.40119618
000320 e5 1a b9 bd 27 ba 9e 3e 16 b9 c0 3e 2a a7 42 bf
       -0.09038333 0.31001398 0.3764121 -0.7603632
000330 e7 cc 24 be f4 57 42 be ff 89 51 bd 44 79 c3 3d
       -0.16093789 -0.18978864 -0.051156994 0.09544614
000340 28 42 df be c5 2b e8 3e 30 f6 32 bf 08 8a 7b bf
       -0.4360516 0.45345894 -0.699069 -0.98257494
000350 e9 21 4c bd ff 4a 81 3f d2 23 08 3f eb 01 61 3e
       -0.049837027 1.0101012 0.5317966 0.21973388
000360 ea d2 7d bf 59 63 84 bf 25 5e 18 bf c7 49 4d bf
       -0.99149954 -1.0342818 -0.59518653 -0.801907
000370 c9 ce 39 3f 11 0f 54 3f 95 bc b1 3c 70 06 d0 3e
       0.72581154 0.8283549 0.021696368 0.4062991
000380 6a 18 03 c0 28 4e bb 3d 6e 47 e1 bf 73 93 cd be
       -2.048365 0.091457665 -1.7599924 -0.40151557
000390 81 9a 09 bd d4 24 bf bf e6 76 2b 3f a7 57 bb be
       -0.033594612 -1.4933114 0.669783 -0.3659031
0003a0 04 a6 4f be 35 e9 84 3e fc cc 0b 3e d4 25 ce 3e
       -0.20278174 0.25959173 0.13652414 0.40263236
0003b0 de 42 d0 3e 95 cc b3 3d 43 87 5f be 9b a3 41 3e
       0.40676016 0.08779255 -0.21828942 0.18910067
0003c0 7b 50 ac bf db e0 40 3f d1 a6 fb bf 66 34 5d bf
       -1.3462061 0.753431 -1.9660283 -0.8640808
0003d0 8a d4 81 3e 26 bd ac 3e c5 74 a9 3e d1 49 59 bf
       0.25357467 0.3373806 0.330969 -0.8487826
0003e0 19 e5 94 bf 5e e5 0d c0 5b c4 a9 bf d6 64 6d 3d
       -1.1632415 -2.2171245 -1.3263048 0.057957493
0003f0 56 b2 db be bb b8 68 3f 8e 93 48 bf bd db c8 be
       -0.42909497 0.90906876 -0.7835015 -0.39230147

fc2.bias f4 [32]
000000 c0 58 ba be bb d7 1f bf fb a1 18 bc 91 f0 f2 be
       -0.36395836 -0.62438554 -0.009315963 -0.47449163
000010 b4 74 6d be ec 5e 6d be 2b 3d ba bd e1 98 b0 be
       -0.2318905 -0.23180741 -0.09093698 -0.34491637
000020 40 b3 2c bf ab b7 c1 be f0 19 95 bd b0 d1 cd be
       -0.67461014 -0.3783544 -0.07280338 -0.4019904
000030 fe 72 83 be 90 39 c1 be 30 9d e3 be ca 7d fe be
       -0.2567367 -0.3773923 -0.44455862 -0.49705344
000040 53 86 49 bf c1 50 2d be 27 fd 3d bf 8e 28 f8 3e
       -0.7872059 -0.16925336 -0.74214405 0.4846844
000050 c9 ae 01 be c3 c7 ac be a7 11 09 bf 68 18 18 be
       -0.12664331 -0.33746156 -0.5354256 -0.1485306
000060 6f 42 84 be bc 70 d9 be fa 79 52 be d8 ef 41 bf
       -0.25831935 -0.42468822 -0.20554343 -0.757566
000070 29 b4 fd be 7c 49 b9 bd e5 30 22 be 87 0c aa be
       -0.49551514 -0.09047219 -0.15838964 -0.33212683

fc3.weight f4 [32, 32]
000000 ff 36 75 be 78 ca 93 be e8 87 15 bf b3 71 2a bf
       -0.2394676 -0.2886541 -0.584105 -0.6657974
000010 e6 b9 ca be 4e 96 7c bd a4 54 a5 be c8 6d dd bc
       -0.39594954 -0.06166678 -0.32291138 -0.027029887
000020 48 a8 34 3c e1 c0 94 be c9 3d c3 bd d5 7e 41 3d
       0.0110264495 -0.29053405 -0.09533269 0.047240097
000030 c8 5d 40 bf aa d4 91 bd 55 2a f5 be e4 c6 62 bf
       -0.751431 -0.071206406 -0.4788386 -0.88584733
000040 b2 3d a8 be 60 5f 7d be b7 95 76 be 15 47 e2 bf
       -0.3285957 -0.24743414 -0.24080549 -1.7677943
000050 76 08 11 c0 06 74 57 be 11 44 ed be 24 f8 0e 3e
       -2.2661414 -0.21040353 -0.46340993 0.13961846
000060 70 bc 0e bf 15 05 fa be a4 f8 0c bf b4 db 91 be
       -0.5575628 -0.48832002 -0.55066895 -0.28487933
000070 3f 30 74 bf f0 dd a7 3e fa 29 fa bd 30 13 d1 be
       -0.9538612 0.32786512 -0.12215038 -0.4083495
000080 1c 59 a1 3e 52 22 47 3e 00 ab 85 3e 9a d7 d9 3d
       0.31513298 0.19446686 0.26107025 0.10636826
000090 25 14 3b be da 15 85 bf f4 b1 77 bf cd db 00 bf
       -0.18269403 -1.0397294 -0.9675591 -0.5033539
0000a0 7a 83 c8 be b4 d6 ed bd 87 7c 34 bf fd 9f bc bd
       -0.3916281 -0.11613217 -0.70502514 -0.09210203
0000b0 0f c3 05 bf 77 10 74 3c 74 5f 92 be 21 16 61 3e
       -0.5225076 0.014896504 -0.2858845 0.21981098
0000c0 01 c5 3e be ba b1 06 bf 24 e5 38 bf bb e4 0d c0
       -0.18629839 -0.5261494 -0.7222464 -2.2170856
0000d0 92 ea 32 bf 50 60 eb bf a8 66 07 3f 9d 7b 83 bf
       -0.69889176 -1.8388767 0.52891016 -1.0272099
0000e0 b9 f2 97 3e 41 a0 e8 be 6b b6 33 be 95 82 c8 bd
       0.2967737 -0.45434764 -0.17550056 -0.097905315
0000f0 ba b1 9a 3d 4e 14 29 bf e9 ae 58 bf 9b b4 0a 3e
       0.0755343 -0.6604661 -0.8464189 0.13545458
000100 aa 23 20 bf 91 87 23 be e7 5d 1b bf 70 41 34 bf
       -0.6255442 -0.15969683 -0.6069016 -0.7041235
000110 d9 92 98 bf fa f0 e3 3d 4f e3 a0 be 87 59 85 3d
       -1.1919814 0.11129947 -0.31423423 0.065112166
000120 5f 0a 4f be 7d cf 36 bf ab ad 20 bf 5a 00 cf 3e
       -0.202188 -0.7141035 -0.62764996 0.40429956
000130 92 ba 9b bf eb 85 9c 3e 68 c7 20 bf 03 e0 3b bf
       -1.2166312 0.3057092 -0.6280427 -0.7338869
000140 8b e6 28 bd cd 55 67 3f bd 6c 2f be 70 18 c7 bf
       -0.041235488 0.90365297 -0.17131324 -1.5554333
000150 51 dc 0a c0 18 56 a5 3e 4e dd 43 bf 5f a8 66 3b
       -2.169697 0.32292247 -0.7650956 0.0035195572
000160 a9 ed ca be 62 f3 64 be ac 5c 6a bf be 8d b8 be
       -0.39634445 -0.22358468 -0.91547656 -0.3604564
000170 0d 06 28 bf 12 ca 3c 3d 02 8a 01 3f 40 c0 cd 3e
       -0.6563423 0.046091147 0.5060121 0.40185738
000180 15 b9 25 bf e9 cf 0e be 1c a0 c8 bf d8 00 84 bf
       -0.6473554 -0.13946499 -1.5673862 -1.0312757
000190 f1 6f 96 bf 87 02 ef 3e 71 78 17 bf 1c 24 57 3f
       -1.1752912 0.46681616 -0.59168154 0.84039474
0001a0 6f 2b 92 bf e7 a2 6f bf df 1d a5 be 4d 07 36 3f
       -1.1419505 -0.93607944 -0.32249352 0.7110489
0001b0 b9 76 ee bf 27 f1 9a bf 71 96 56 bf 7f 86 67 bf
       -1.8629981 -1.2104844 -0.83823305 -0.904396
0001c0 9b bc d7 be 14 78 41 3d 62 6e b7 3e 1c cd a5 bf
       -0.42136082 0.047233656 0.35826403 -1.295322
0001d0 cd 29 9e bf 01 8b b2 3e 7a 01 3c bf d2 ae 1a 3f
       -1.2356507 0.34871677 -0.73439753 0.60423005
0001e0 e8 c9 aa bf 33 fc f5 be be c2 13 be f9 0e 61 be
       -1.3342867 -0.48043975 -0.14429757 -0.21978368
0001f0 de bb 1d 3f 47 db 4d 3e 95 72 d9 3e d5 40 a5 3e
       0.6161479 0.20103179 0.42470232 0.32276025
000200 f3 51 e8 3d 8d a2 2c 3f d7 dc a2 bf 5f 16 5b bf
       0.113437556 0.6743553 -1.2723645 -0.8558101
000210 41 17 97 3e 44 79 52 3e ed 1b 05 bf b1 5c 80 be
       0.2950993 0.20554072 -0.51995736 -0.25070718
000220 25 8e 21 bf f3 cf 7a bf 8a 69 a7 be 9e b1 44 bf
       -0.6310752 -0.97973555 -0.32697707 -0.7683352
000230 68 dc 64 bf 38 de 18 3e 48 e4 6e be f0 f2 11 3e
       -0.89398813 0.1492852 -0.2332927 0.1425283
000240 a7 43 a2 3e 86 0b 84 bf c9 a1 74 bd 77 12 01 c0
       0.3169224 -1.0316017 -0.059724603 -2.016752
000250 d8 29 21 bf 90 dc 07 3f 1d 5d 81 3d 03 9e 2f be
       -0.62954473 0.53070927 0.06316588 -0.1715012
000260 4a 54 1c bf c4 dd 1d bf b9 cd 46 be 14 48 82 bd
       -0.61066115 -0.6166651 -0.19414414 -0.06361404
000270 02 85 05 3f b4 14 36 bf 1a f8 5a bf 8f 71 9a bf
       0.5215608 -0.7112534 -0.8553482 -1.2065905
000280 40 76 f1 bf 4e 75 71 bf 77 5f a0 3e e4 d8 84 3d
       -1.8864212 -0.9431962 0.31322834 0.06486681
000290 3b d7 25 c0 3b 3c 19 3d 63 17 13 bf 63 13 53 3e
       -2.5912616 0.037410956 -0.5745756 0.20612864
0002a0 f9 88 76 3d 6f 10 10 3e 41 7d 94 3e cc 1b 10 3f
       0.06018922 0.14068769 0.2900181 0.56292415
0002b0 01 20 2d bf 8d 74 2e bf 52 d9 2b 3f f4 1e 02 c0
       -0.6762696 -0.6814659 0.6712848 -2.0331392
0002c0 f9 c6 63 bf 0e bf 8c 3f 26 3d dc be 64 34 3d bf
       -0.88975483 1.0995805 -0.43015403 -0.73908067
0002d0 7e 9f bb bf 2d 7c d8 3e c2 b8 d8 bf 8d ad 16 3c
       -1.4658048 0.4228224 -1.6931384 0.009196651
0002e0 ec 44 a7 3c 01 9e a5 3e d6 57 2f bf f2 b4 75 bf
       0.020418607 0.3234711 -0.684934 -0.95979226
0002f0 5a ae 11 bf 93 2f a1 3e 0f 79 05 3f aa a1 60 3f
       -0.56906664 0.3148161 0.52137846 0.8774668
000300 51 6d 44 bf ad 02 ee be ad 17 00 3f b8 e8 00 bc
       -0.76729304 -0.46486416 0.50036126 -0.0078679845
000310 31 33 aa be 78 c7 ec be cf 2a 5f bf 37 a4 5a be
       -0.3324218 -0.46245933 -0.87174696 -0.21351705
000320 63 ee 01 3f b9 1f 18 3f c7 e0 01 bf 9e 7a d6 3e
       0.50754374 0.59423405 -0.5073361 0.41890424
000330 1e 93 06 bf 80 3e 41 bf 35 4d 1a bf c5 f2 17 bf
       -0.52568233 -0.7548599 -0.6027406 -0.5935481
000340 36 62 90 be c7 f0 a6 bb 3a 79 1f bd d5 af 0c c0
       -0.2819993 -0.005094621 -0.03893397 -2.198232
000350 3f ed dd bf 3d b0 ba 3e 9f 2d 4c bf 76 56 72 3e
       -1.7338027 0.36462584 -0.7975711 0.23665795
000360 f2 b8 66 3e 10 96 86 be d6 ed 7a bf d8 9b 15 bf
       0.22531489 -0.26286364 -0.9801916 -0.58440924
000370 81 51 2a bf df e1 02 bf 9a af 7a 3e ec 9e cd 3d
       -0.66530615 -0.511259 0.24481049 0.100400776
000380 5d 26 cb be ab a6 87 3e e8 aa 60 bf 05 b4 6c be
       -0.39677706 0.26494345 -0.8776078 -0.23115547
000390 8e 4e 5f bf 3c 94 2d bf 38 84 3d bf 88 ec 9a 3e
       -0.8722924 -0.6780431 -0.74029875 0.30258584
0003a0 58 d9 cb be a9 dd 80 bf ef 54 5a bf de f3 08 3f
       -0.39814258 -1.0067645 -0.8528585 0.5349711
0003b0 10 e6 00 bf cc 59 6c be af 24 41 be 3a 85 55 be
       -0.5035105 -0.2308113 -0.1886165 -0.20851603
0003c0 9a 98 aa 3d 96 71 fe bc 38 08 c1 be 6a fa c8 bf
       0.08329888 -0.031060021 -0.37701583 -1.570142
0003d0 2e af 67 bf 91 08 fb be 30 b8 b6 bd ed 19 ad 3d
       -0.9050168 -0.49029973 -0.0892185 0.084522106
0003e0 1d eb 88 bf 18 58 92 be 91 e5 34 bf 7c 5b 3d 3e
       -1.0696751 -0.28582835 -0.7066279 0.1849193
0003f0 70 9f 95 be f6 96 87 3c c1 2c 1e 3e 7a e2 d3 be
       -0.29223204 0.016551476 0.1544676 -0.41383725

fc3.bias f4 [32]
000000 af 7f 01 c0 8b a5 b6 bf b4 65 e0 bf d5 3f ad bf
       -2.0234182 -1.426927 -1.7531037 -1.3535105
000010 0e 2a f0 bf d8 43 50 bf fd 46 ed bf 99 c1 1b c0
       -1.8762834 -0.8135352 -1.8537289 -2.4336913
000020 8a ee 3d bf 2e da ba bf 99 ca 97 bf 1e 79 88 bf
       -0.74192107 -1.4597833 -1.1858703 -1.0661962
000030 74 78 01 c0 b2 75 92 bf de d8 ba bf 1b 6e f8 bf
       -2.0229769 -1.1442168 -1.4597433 -1.9408602
000040 2e bf 1b bf b4 82 1c bf f9 ef aa bf 06 63 ac be
       -0.6083859 -0.6113694 -1.3354484 -0.336693
000050 af 2b 56 bf e2 ae ab be d2 e5 00 c0 f1 36 9c bf
       -0.83660406 -0.33531862 -2.014027 -1.2204267
000060 05 07 88 bf 5f e3 87 bf 82 c1 b2 bf 01 37 9a bf
       -1.0627142 -1.0616263 -1.3965304 -1.2048036
000070 22 36 b5 be 30 d2 d4 bf ea 29 e3 bf 3e 35 13 bf
       -0.35392863 -1.6626644 -1.7747166 -0.57503116

fc4.weight f4 [20, 32]
000000 52 a6 14 3f d5 32 b6 bf 03 26 a3 3f 00 10 ba 3f
       0.58066285 -1.4234263 1.2745975 1.4536133
000010 b0 2b ba be 9b e8 b6 3f a1 d7 1c 3f 22 4e 97 bd
       -0.36361456 1.4289736 0.61266524 -0.073879495
000020 0f 91 32 3f c6 10 93 3f 28 6d 08 bf 40 14 a5 bf
       0.6975259 1.1489494 -0.5329156 -1.2896805
000030 3b a2 6d bf 0a 25 9a 3f 11 26 d5 3f 0f e6 59 3f
       -0.9282567 1.2042553 1.6652242 0.85116667
000040 90 1c de bf 41 54 f2 3f b9 f5 e1 3f 7f 45 f6 bf
       -1.7352467 1.8931962 1.7653114 -1.9239959
000050 71 68 9b 3f 66 d1 f2 bf bf 9f 5d 3f 7e 4e 8a bf
       1.2141248 -1.8970153 0.8657188 -1.0805204
000060 2e 24 b6 bf c6 f2 8a bf 18 c1 9a bf 15 c0 3a bf
       -1.4229791 -1.0855339 -1.2090178 -0.72949344
000070 9a c5 b8 bf 3b eb 8f bf 11 5f 13 bf 38 21 e7 bf
       -1.4435303 -1.1243662 -0.57566935 -1.8057013
000080 5a 4d bf 3e c9 fa d1 bd bb a2 1f 3f b2 58 ed 3e
       0.37363702 -0.102529116 0.6235768 0.46356732
000090 fd fc af bf 2b c3 e4 3f 4f f9 32 3f 55 51 4c 3e
       -1.3749081 1.787206 0.69911665 0.199529
0000a0 3e 21 88 bf 44 10 88 bf 1f f2 8b 3f 62 dc aa bf
       -1.0635145 -1.0629964 1.0933264 -1.3348505
0000b0 eb 08 c5 be b6 41 98 3f 12 59 46 3f dd 01 2d bf
       -0.38483366 1.1895053 0.7747966 -0.6758097
0000c0 56 e6 a7 be f3 93 59 be ed 29 e0 bd 28 eb f1 bb
       -0.3279292 -0.21247844 -0.10945497 -0.007382769
0000d0 71 50 d1 3f 06 d1 a1 bf 6e f5 89 3f 85 f7 bf bf
       1.6352674 -1.2641914 1.0778024 -1.4997412
0000e0 5f fd 1c 3f 2e 47 c6 bf 30 c1 af 3e a4 eb 85 3f
       0.61324114 -1.5490472 0.34327078 1.0462537
0000f0 63 b4 f2 bf dc 1b d5 3d cc 57 a8 bf 38 03 46 3f
       -1.89613 0.104057044 -1.3151793 0.7734866
000100 bf a8 f1 be 21 26 39 3f 2b 8f b1 bd c4 7b 4a bf
       -0.47199056 0.72323805 -0.08669885 -0.790951
000110 f3 1e 28 bf 42 ea 36 3f 14 5c 50 3f c7 cc 3a bf
       -0.65672225 0.714512 0.813905 -0.72968715
000120 6c cd d3 bf be 30 bd bf a7 ed f7 3f 46 27 2b bf
       -1.6547065 -1.47805 1.9369401 -0.668568
000130 b0 ad 64 bf fd cc 79 3e 55 62 ca bd 18 86 83 bf
       -0.89327526 0.24394603 -0.098820366 -1.0275297
000140 09 55 91 3f 8a 2e b7 bf 73 b7 63 bf b7 50 7a 3f
       1.1354076 -1.4311078 -0.88951796 0.9777941
000150 b8 35 0c 3f 87 4b 12 be cf 30 96 be 10 e7 11 bf
       0.5476947 -0.14286624 -0.29334113 -0.569932
000160 de 66 78 3f 02 36 4d bf 2b 54 f0 3e e0 aa 5e 3f
       0.9703196 -0.80160534 0.46939215 0.86979485
000170 7c c2 35 bf 95 4f d1 bd 41 62 af bf 1f 3b b3 3f
       -0.70999885 -0.10220257 -1.370186 1.4002417
000180 06 52 f2 be 21 2e e9 3e ee 22 30 bf 34 85 25 bf
       -0.47328204 0.45543006 -0.688033 -0.64656377
000190 cb 43 61 bf 53 04 d6 be a9 59 fb be ab 65 78 bf
       -0.8799407 -0.41800174 -0.49091843 -0.97030133
0001a0 b2 12 94 bf 62 b2 21 bf 92 2f 40 3f 86 72 d6 3e
       -1.1568205 -0.63162816 0.75072587 0.4188425
0001b0 55 e5 27 bf 4c e3 1d bf df 3e 3d bf 7f b3 87 be
       -0.6558431 -0.6167495 -0.7392406 -0.26504132
0001c0 94 42 bd 3f c9 db a6 bf d4 da de be 89 61 ab 3e
       1.4785943 -1.3035823 -0.43526328 0.3347285
0001d0 73 02 3c bf ee 07 ff 3e ad 47 18 bf 55 da 2d bd
       -0.7344124 0.49810737 -0.5948437 -0.042444546
0001e0 82 37 0f 3f d1 e2 49 3e d4 a9 b5 3e 10 2b 04 be
       0.55944073 0.1971543 0.3548113 -0.12907052
0001f0 90 76 f0 3e fa 11 0d bf e2 aa a1 3e c6 fd 81 3f
       0.46965456 -0.55105555 0.31575686 1.015557
000200 6d b9 bf be 00 80 ae be a0 d4 27 bb 1d 5c d9 bd
       -0.37446156 -0.3408203 -0.0025608912 -0.10613272
000210 e4 e7 c2 be 9d f6 33 bf 29 0b dd be cc 85 26 3d
       -0.38067544 -0.70298177 -0.43172577 0.040654942
000220 f1 ce 7c be f9 8b fc 3e 73 13 ea be 24 14 3f 3f
       -0.24688317 0.4932554 -0.45717964 0.7464011
000230 6c 0a 29 3e be df 58 bf 34 c4 a7 be f5 61 38 3f
       0.16507882 -0.84716403 -0.3276688 0.7202447
000240 4b da 72 3f c2 bb be be 73 e5 15 be 88 a2 0b be
       0.9486434 -0.37252623 -0.14638309 -0.1363622
000250 9a 58 93 bf 17 b5 23 3e d2 20 b4 bd cc 69 ab 3d
       -1.1511414 0.15987049 -0.087953225 0.083697885
000260 5e 02 05 bf f0 b3 48 3f 08 2f 83 bf 2c b4 b3 bf
       -0.5195674 0.7839956 -1.0248728 -1.4039359
000270 38 de 63 3f ee 0f e7 bf d2 2b 9d 3e ed cc eb be
       0.89010954 -1.8051736 0.30697495 -0.46054783
000280 1a d4 3e be fb fa bc be 0d cc aa be d2 30 01 3f
       -0.18635598 -0.36910233 -0.33358803 0.5046512
000290 bd 8c 84 be b5 0e 9f be c6 48 05 bf 7a 7c 96 3d
       -0.25888625 -0.31065908 -0.5206417 0.07347961
0002a0 96 77 e8 3d 6a b4 74 3f 3c 94 47 bf 29 83 ee 3e
       0.11350934 0.9558779 -0.7796056 0.46584442
0002b0 00 40 82 3d 22 f4 bd be 17 e0 91 3e 8c 79 57 3f
       0.06359863 -0.3710032 0.2849128 0.8416984
0002c0 06 65 f0 bc b3 91 c4 3e 2a 45 b9 3d cf aa 85 bf
       -0.029345047 0.3839241 0.09046395 -1.0442752
0002d0 50 1f 49 bf 72 a7 b1 bd 10 fc ae be 82 92 43 3e
       -0.78563404 -0.08674516 -0.34176683 0.19098857
0002e0 f1 b5 80 bf df c1 a5 3e 7d 0e 11 be b1 5a b6 bf
       -1.0055524 0.32374474 -0.14165683 -1.4246427
0002f0 8b 98 f0 3e b2 e9 2d bf f6 3c b1 3e 16 6f 05 bf
       0.4699138 -0.67934716 0.34616822 -0.5212263
000300 c1 e0 ff 3e 53 2c 3a be 53 57 86 3e 3f 0c 13 3f
       0.4997616 -0.18180971 0.26238498 0.5744056
000310 3b b3 58 be 58 f4 9e 3e 26 be 07 3f 83 4f ed 3c
       -0.21162121 0.31045794 0.5302452 0.028968578
000320 fe 0d 5f bd 8e 9e 13 3f 28 02 c0 be 49 97 97 be
       -0.054456703 0.5766381 -0.37501645 -0.2960761
000330 22 93 ae 3e 67 24 fc be 24 fa e1 3e e6 5f 61 3f
       0.34096628 -0.49246523 0.44136155 0.88036954
000340 13 1f 75 be 1b d0 ff 3e 9b ea 9b 3e f4 de 77 bf
       -0.23937635 0.4996346 0.30452427 -0.96824574
000350 6b 10 b6 bd 5d 37 bd be 0d 79 b3 3e dc 1d ef be
       -0.0888985 -0.369563 0.35053292 -0.46702468
000360 3e 70 2b bf fe 9c 70 bc 67 6d 9f be b6 e2 26 bf
       -0.66968143 -0.014685867 -0.31138155 -0.65189683
000370 ad e4 d1 bd 0e ec b5 be fc d3 2d 3e c4 42 00 bf
       -0.102486946 -0.35531658 0.16975397 -0.50101876
000380 3f cc 2f bf fb fb 0b be 66 6d 68 3d 9d 83 ee 3d
       -0.6867103 -0.13670342 0.056744955 0.11646197
000390 cb ec ee be b1 f2 bb 3e 6c f2 1e be 0f 44 4c be
       -0.46665034 0.36708596 -0.15522164 -0.19947837
0003a0 c6 4e 4f be 3b 8b 1f be 4e 1b 08 be d5 4e 4a be
       -0.20244893 -0.15580456 -0.13291666 -0.19756635
0003b0 c6 48 c0 be 8c dd 1d 3e c8 8d e4 3e 82 f6 80 3e
       -0.37555522 0.15416545 0.4463942 0.2518807
0003c0 58 a9 90 bd e8 39 f2 3c 84 33 6e 3e 08 da c4 be
       -0.0706355 0.029568627 0.23261839 -0.38447595
0003d0 55 d6 9d 3e 51 0c f6 be 21 8e 62 be 97 07 f5 be
       0.30827585 -0.48056272 -0.2212453 -0.47857353
0003e0 ff a9 49 be d6 99 6b be d0 f8 3e 3e 0b de 01 bf
       -0.19693755 -0.23007903 0.18649602 -0.50729436
0003f0 a5 15 e7 be 7e 72 39 bf f1 c5 b0 3d 51 f4 df 3c
       -0.451337 -0.72440326 0.08631504 0.027338179

fc4.bias f4 [20]
000000 7b 94 b8 be 08 62 06 bf 02 30 2f bf c8 4c 20 bf
       -0.36050782 -0.52493334 -0.6843263 -0.6261716
000010 2f 82 1d bf 96 19 0c bf d3 e7 0d bf 5a aa 25 bf
       -0.6152677 -0.5472654 -0.5543186 -0.6471306
000020 25 3d 14 bf a7 04 30 bf 6f fb 2d bf 49 56 42 bf
       -0.579058 -0.687571 -0.6796178 -0.7591291
000030 28 e6 0d bf 70 d0 20 bf 18 19 25 bf de 8b 2f bf
       -0.55429316 -0.6281805 -0.64491415 -0.68572795
000040 d4 29 15 bf bd 16 18 bf d7 02 3e bf 71 36 25 bf
       -0.5826695 -0.59409696 -0.74223083 -0.64536196
