transfer/dampedSpring/data/transfer_retraining/u(1.0)_model_weights.pth (torch, 13651 bytes, 8 tensors)

fc1.weight f4 [32, 2]
0	0xbd621d35	-0.055203635
1	0x3ea58e78	0.32335258
2	0x3ea0a88f	0.313786
3	0x3e042561	0.12904884
4	0xbd3f9c21	-0.046779756
5	0x3eb5c338	0.35500503
6	0x3ce072c3	0.027398473
7	0xbf3e5aa1	-0.7435704
8	0x3e843a46	0.2582571
9	0xbd1e4d41	-0.038647894
10	0xbe879bb2	-0.26485974
11	0xbda51dd6	-0.080623314
12	0xbf82777a	-1.0192711
13	0x3fba2708	1.4543161
14	0xbd4b3f3f	-0.049620863
15	0x3ec8f1a7	0.39246866
16	0x3e98fc8d	0.2988018
17	0x3d074ca2	0.033032067
18	0xbdb23b06	-0.08702664
19	0xbea102a3	-0.31447324
20	0xbddd671c	-0.10810682
21	0xbe9e5762	-0.30926043
22	0xbf9ce7c9	-1.2258235
23	0xbf85d82d	-1.0456597
24	0xbdcc9948	-0.099901736
25	0xbea0b63a	-0.31389028
26	0xbef014b3	-0.46890792
27	0x3ea3a239	0.31959704
28	0xbe8c1377	-0.273586
29	0xbdd3d2e5	-0.10342959
30	0x3dab62d8	0.08368462
31	0xbec93a13	-0.3930212
32	0x3eab8aa4	0.33504212
33	0xbd6c8afc	-0.057749733
34	0x3e284b41	0.16434957
35	0x3ea0eff8	0.31433082
36	0x3ee388c3	0.44440278
37	0xbc27ea59	-0.010248744
38	0xbc33a4d5	-0.010964592
39	0xbeadc40b	-0.3393863
40	0xbd8f5aff	-0.06999778
41	0x3eca0c5a	0.39462548
42	0xbeb972d2	-0.36220413
43	0xbd082e96	-0.033247553
44	0xbeab8369	-0.33498695
45	0x3cf45b6d	0.029828751
46	0xbbedca00	-0.0072567463
47	0xbeb12973	-0.34601936
48	0xbe96f5f2	-0.29484516
49	0x3d88cbbe	0.06679486
50	0xbe9142e8	-0.28371358
51	0xbd33419f	-0.043763753
52	0x3ebd3ffb	0.36962876
53	0xbe1946a7	-0.14968358
54	0xbd39560b	-0.045248073
55	0xbe952555	-0.29130045
56	0x3e8268ea	0.25470668
57	0x3e8e3ad2	0.2777925
58	0x3db8c1c1	0.090213306
59	0x3e8f1eda	0.27953225
60	0xbd5d61fe	-0.05404853
61	0x3eb39da3	0.35081205
62	0x3eaf23bf	0.3420696
63	0xbc0dd535	-0.00865679

fc1.bias f4 [32]
0	0xbe8da325	-0.27663532
1	0xbdff07e7	-0.12452679
2	0x3e66f32e	0.22553703
3	0xbe0d2b71	-0.13786103
4	0xbead3c8d	-0.3383526
5	0x3e817cf0	0.25290632
6	0x3dc42a1f	0.095783465
7	0x3e8c81f1	0.27442887
8	0xbe6e73a0	-0.23286295
9	0x3f216675	0.6304696
10	0x3f06374d	0.5242813
11	0x3da24771	0.079237826
12	0x3e899834	0.26873934
13	0xbd58efa4	-0.052962914
14	0x3e1055b2	0.1409519
15	0x3f849b91	1.0359975
16	0xbe1539b8	-0.14572799
17	0x3e7939c6	0.24338445
18	0x3fb6057f	1.4220427
19	0x3e9fa5fc	0.31181324
20	0x3f503d2e	0.8134335
21	0xbb62827c	-0.0034562638
22	0x3f59bee4	0.850569
23	0xbf34565a	-0.7044426
24	0x3e8c7e8f	0.27440307
25	0x3e1be28a	0.15223137
26	0x3ea09527	0.31363794
27	0xbd52b073	-0.051437806
28	0x3ed98aa7	0.42488596
29	0xbe2045a7	-0.1565157
30	0x3efba787	0.4915125
31	0x3f0843e4	0.5322859

fc2.weight f4 [32, 32]
0	0xbf20cd4e	-0.6281327
1	0xbee14b04	-0.44002545
2	0xbec61e16	-0.3869483
3	0xbee3947a	-0.44449216
4	0xbec7c565	-0.39017788
5	0x3e1311b9	0.1436223
6	0x3ddf796c	0.10911831
7	0xbe5169bd	-0.20450492
8	0xbe3a29b4	-0.18179971
9	0x3ee92c78	0.4554174
10	0x3f376f16	0.7165388
11	0xbe1b1fd5	-0.15148862
12	0x3ec01e00	0.37522888
13	0x3e4db084	0.20086867
14	0xbea5f1c6	-0.3241102
15	0x3d89ccbe	0.067285046
16	0xbdf4f8ef	-0.11961543
17	0xbf03476a	-0.51280844
18	0xbeb94af7	-0.36190006
19	0x3f2fa799	0.6861511
20	0xbf034fea	-0.51293814
21	0xbee50d07	-0.44736502
22	0xbe5516c1	-0.20809461
23	0x3edae3ae	0.4275183
24	0xbe24b463	-0.16084437
25	0xbe810f76	-0.25207108
26	0x3dd7f5ae	0.105449066
27	0x3ef0913a	0.469858
28	0xbf358790	-0.70909977
29	0xbf21f33c	-0.6326177
30	0xbf0deb9a	-0.55437624
31	0xbe64e381	-0.22352411
32	0xbe3ba3eb	-0.18324248
33	0x3ee2eda8	0.44321942
34	0xbec5603d	-0.38549986
35	0xbf3db23e	-0.741001
36	0x3f16c671	0.5889655
37	0xbea4b6f4	-0.32170832
38	0x3d9e5424	0.07730892
39	0x3e8ebaca	0.27876884
40	0x3ead6f2a	0.33873874
41	0x3dfbebe4	0.12300852
42	0xbe3de300	-0.18543625
43	0xbe79fc70	-0.24412704
44	0x3a64677e	0.00087129313
45	0xbef25c68	-0.47336125
46	0xbf027945	-0.5096629
47	0x3de09111	0.10965169
48	0x3ecf239d	0.40456858
49	0xbeab4dcc	-0.33457792
50	0x3e9a28c2	0.3010922
51	0xbe218e19	-0.15776862
52	0xbe5ff2fc	-0.21870035
53	0x3f06dc9b	0.5268037
54	0xbe845ee7	-0.25853655
55	0x3e326961	0.17423011
56	0xbf6634e5	-0.8992446
57	0xbed6dec2	-0.41966826
58	0x3e8cd895	0.2750899
59	0x3e2c10cd	0.16803284
60	0x3f02fed9	0.51170117
61	0xbc32a1fc	-0.010902878
62	0xbef7952e	-0.48356003
63	0xbc857c3e	-0.016294595
64	0xbedcd2bd	-0.4312953
65	0xbdf112bd	-0.11771152
66	0x3ec6de8f	0.38841674
67	0xbcd0172b	-0.025401672
68	0xbebe78b7	-0.37201473
69	0x3f57a7b1	0.8424025
70	0xbccc3770	-0.024928778
71	0x3ec87033	0.391481
72	0xbe93a900	-0.28839874
73	0x3f467a64	0.77530503
74	0x3ed9243e	0.42410463
75	0xbd9933f4	-0.074806124
76	0x3f217f86	0.6308521
77	0xbcee78e5	-0.029110381
78	0x3f2e457c	0.68074775
79	0x3f674032	0.9033233
80	0x3ea3ba38	0.3197801
81	0xbd5bf074	-0.05369611
82	0xbea12276	-0.31471604
83	0x3e3075df	0.17232464
84	0xbe216890	-0.15762544
85	0xbdddec4b	-0.10836085
86	0xbe93210a	-0.28736144
87	0x3e69dd5a	0.22838345
88	0xbd16c47c	-0.036808476
89	0x3f03e38e	0.51519096
90	0x3e61bcb1	0.22044636
91	0x3f144453	0.57916754
92	0xbecb8727	-0.3975155
93	0xbe98ffd2	-0.29882675
94	0xbe29fa69	-0.1659943
95	0x3ed77895	0.42084184
96	0x3ef097b7	0.4699075
97	0xbea3f1f9	-0.32020548
98	0x3f06ea88	0.52701616
99	0x3ecbe816	0.39825505
100	0xbe74b67a	-0.23897734
101	0xbe934125	-0.2876064
102	0xbd1f079c	-0.038825616
103	0x3dab25c5	0.08356813
104	0xbec86647	-0.3914053
105	0xbf230fa8	-0.63695765
106	0xbf319169	-0.69362503
107	0x3e8487dc	0.25884902
108	0xbef5b8f9	-0.47992685
109	0x3e6550c0	0.22394085
110	0xbee8f61d	-0.4550027
111	0xbf8dd420	-1.108036
112	0xbee029b9	-0.43781832
113	0x3eaa1745	0.33220878
114	0xbf570b48	-0.8400159
115	0xbf139faa	-0.57665503
116	0x3ebeb715	0.37249056
117	0xbf20d41b	-0.6282365
118	0xbe79439b	-0.24342196
119	0xbe956696	-0.2917983
120	0x3e6e2d08	0.23259366
121	0xbeb4a454	-0.35281622
122	0xbeb99081	-0.3624306
123	0xbe0a7a4f	-0.1352322
124	0x3e85b10f	0.26111647
125	0x3f054c25	0.5206931
126	0x3eeeb840	0.46624947
127	0xbebf5d27	-0.37375757
128	0x3e49af42	0.19695762
129	0xbf17ae2a	-0.5925013
130	0x3e87d441	0.26529124
131	0x3e74b5d0	0.23897481
132	0xbf38bfd0	-0.7216768
133	0x3f4ff190	0.8122797
134	0xbda1dadd	-0.07903073
135	0x3ec01ad6	0.37520474
136	0xbea33fc7	-0.31884596
137	0x3e829e07	0.2551119
138	0x3e9318fc	0.2873
139	0xbe571cb1	-0.21007039
140	0x3d870107	0.06591993
141	0x3cd2f97b	0.025753727
142	0x3f08bdd8	0.5341468
143	0x3e6f2a91	0.23356082
144	0x3d7c2cb5	0.061566073
145	0x3e134c4d	0.14384575
146	0xbe0e8e96	-0.1392158
147	0xbeee638d	-0.46560326
148	0x3e800df1	0.25010636
149	0xbf0a6017	-0.5405287
150	0x3f1e827e	0.61917865
151	0xbe17e921	-0.14835025
152	0x3f0c8088	0.54883623
153	0x3f1db3fa	0.6160275
154	0xbf473068	-0.7780824
155	0x3d5c1310	0.053729117
156	0xbdbf8c8c	-0.09352979
157	0xbc63545c	-0.013875093
158	0x3f48a6c0	0.7837944
159	0x3e7876c5	0.24264057
160	0xbe50a64e	-0.2037594
161	0x3f67ca5c	0.9054315
162	0x3db8f8a2	0.09031798
163	0x3e0ae310	0.1356318
164	0x3f8b6646	1.0890586
165	0xbeb85182	-0.35999686
166	0xbddcee42	-0.107876316
167	0x3d97ca65	0.074116506
168	0x3f791da5	0.9731086
169	0x3e445296	0.19172129
170	0xbc5058f0	-0.012716517
171	0x3e0125e1	0.12612106
172	0xbeb365a8	-0.35038495
173	0xbee6d10e	-0.4508137
174	0xbeec700a	-0.4617923
175	0x3f6e08d7	0.9298224
176	0x3f5bd46f	0.8587102
177	0x3f07d657	0.5306143
178	0x3fca6c78	1.5814352
179	0x3dd628e8	0.10457021
180	0x3ecac1e9	0.39601067
181	0xbeb31ba6	-0.34982032
182	0xbecef4c1	-0.40421107
183	0xbdb303a8	-0.08740932
184	0xbe2f55bd	-0.1712255
185	0xbf55f932	-0.83583367
186	0x3fa45326	1.2837875
187	0xbf17677c	-0.5914228
188	0x3f91d20b	1.1392225
189	0x3f43462a	0.76278937
190	0x3dfcacb3	0.12337627
191	0x3f8da1dc	1.106502
192	0x3eddd92b	0.4332975
193	0xbe395d8f	-0.18102096
194	0x3e9f3e76	0.3110234
195	0xbe04e623	-0.12978415
196	0xbf159d75	-0.58443385
197	0x3e9e2422	0.30886942
198	0x3e676355	0.22596486
199	0x3e411bf1	0.18858315
200	0xbef518d4	-0.47870505
201	0xbf7267c6	-0.94689596
202	0xbf239924	-0.6390555
203	0xbd38f34f	-0.045153912
204	0x3c1ef50b	0.0097019775
205	0xbe3a2ce8	-0.18181193
206	0x3e14799a	0.14499512
207	0xbf38be1a	-0.7216507
208	0xbeb56332	-0.35427243
209	0xbe1cec34	-0.1532448
210	0xbf79fc6e	-0.976508
211	0xbf0ef963	-0.55849284
212	0x3d8d51a0	0.06900334
213	0x3c85bebc	0.0163263
214	0xbe7d9515	-0.24763902
215	0xbe777b6e	-0.24168178
216	0x3eb4f13a	0.3534029
217	0x3cf760e4	0.030197568
218	0xbea98a69	-0.3311341
219	0xbeeae473	-0.45877418
220	0x3ddc2d4d	0.10750828
221	0x3e8bdf6a	0.2731889
222	0x3debef0d	0.11520205
223	0x3cead20d	0.028664613
224	0xbe21fd16	-0.15819201
225	0xbf790a12	-0.9728099
226	0xbde6aa79	-0.11262984
227	0xbe1e73a2	-0.15473798
228	0xbe4ca092	-0.19983128
229	0x3ecdbee6	0.40184706
230	0x3d155083	0.036453735
231	0xbf0a9f58	-0.5414939
232	0xbef53485	-0.47891632
233	0x3eee4b99	0.4654205
234	0x3e2efb26	0.17087993
235	0x3d009b7a	0.031398274
236	0xbe78d90e	-0.2430155
237	0xbcdd665f	-0.027026353
238	0x3e9bbdc1	0.30418208
239	0xbe1039d4	-0.1408456
240	0xbf0a0f5c	-0.53929687
241	0xbf2b695a	-0.6695763
242	0xbeaae1d1	-0.3337541
243	0xbe898b42	-0.26864058
244	0x3ed7a8f7	0.42121097
245	0x3d717497	0.05894908
246	0x3ee0db3a	0.43917257
247	0x3dd38e0f	0.1032983
248	0x3ecbda8e	0.39815181
249	0x3eb11270	0.3458438
250	0xbecafe01	-0.39646915
251	0x3d8b71ae	0.06808792
252	0xbec9b731	-0.39397576
253	0xbe98fdc0	-0.29881096
254	0x3e40e161	0.18835975
255	0xbeda1e21	-0.42601112

fc2.bias f4 [32]
0	0xbe61db67	-0.22056352
1	0xbe00fb93	-0.12595968
2	0x3e17a075	0.14807303
3	0xbe155c79	-0.14586057
4	0x3e2b1a0a	0.16709152
5	0x3ea8543f	0.32876775
6	0xbeb17d2c	-0.3466581
7	0xbdb66806	-0.0890656
8	0xbe84268f	-0.25810668
9	0xbe5905e5	-0.21193655
10	0xbdef25d1	-0.11677135
11	0xbe8116bc	-0.25212657
12	0x3d306fa3	0.043075215
13	0xbe5e1882	-0.21689036
14	0x3d8be927	0.0683158
15	0xbb4378af	-0.0029826572
16	0xbeaeb17d	-0.34119788
17	0xbe32491a	-0.17410699
18	0xbe1b47a6	-0.1516405
19	0xbd11c8f2	-0.035592027
20	0xbccd8fb5	-0.025092939
21	0xbe714056	-0.23559698
22	0xbe37223b	-0.17884152
23	0xbe43afa0	-0.19109964
24	0xbe6b5560	-0.22981787
25	0x3e9a4fb9	0.3013895
26	0xbe8a33c6	-0.26992625
27	0xbe6f9183	-0.23395352
28	0xbcaf124d	-0.021371031
29	0xbe39ccc3	-0.18144517
30	0xbe7db0ea	-0.24774519
31	0xbdfa5744	-0.12223676

fc3.weight f4 [32, 32]
0	0xbe2022aa	-0.15638223
1	0xbf64ecdd	-0.89423925
2	0x3e316dcd	0.17327042
3	0xbd9091c0	-0.070590496
4	0x3f21acbd	0.631542
5	0xbf7ea324	-0.9946768
6	0x3eabe9a4	0.3357669
7	0x3e6542ba	0.22388735
8	0xbf070e27	-0.5275597
9	0x3e972ba9	0.29525498
10	0xbe94e19f	-0.29078385
11	0x3f02d698	0.51108694
12	0x3e918ea4	0.2842914
13	0xbf84d87b	-1.0378565
14	0xbd23002b	-0.039795082
15	0xbee87882	-0.4540444
16	0x3e9a1fe1	0.30102447
17	0x3f15b3c3	0.5847742
18	0xbd678cb6	-0.056530677
19	0x3e66db44	0.2254458
20	0x3e25b435	0.16182025
21	0xbedb79eb	-0.42866454
22	0xbeeed8bb	-0.46649727
23	0xbf2714af	-0.65265936
24	0xbeaa3714	-0.33245146
25	0xbe1f90b8	-0.1558255
26	0xbcd7651e	-0.026293334
27	0x3ea161ad	0.31519833
28	0xbf2c21aa	-0.6723887
29	0x3d7822fe	0.060580246
30	0xbec5810d	-0.3857502
31	0xbe059d32	-0.13048247
32	0x3edeedf2	0.43540913
33	0xbf563fe4	-0.8369124
34	0xbe68cb34	-0.22733766
35	0x3e5d2b0f	0.21598457
36	0x3f1fe0f6	0.6245264
37	0xbf75f50c	-0.96077037
38	0x3f35d4a4	0.7102759
39	0x3f55d1fa	0.83523524
40	0xbf148c3c	-0.5802648
41	0x3eec3239	0.46132067
42	0xbea1fbf7	-0.31637546
43	0x3f6aba25	0.91690284
44	0xbf0837f1	-0.5321036
45	0xbf0b486e	-0.54407394
46	0x3ddce480	0.107857704
47	0xbe62ff5e	-0.22167727
48	0x3e8b6cad	0.2723135
49	0x3dcf571d	0.101240374
50	0xbeab0e22	-0.3340922
51	0xbdaa7fd3	-0.08325162
52	0x3d021f57	0.03176817
53	0xbf39d966	-0.7259735
54	0xbd7e9bed	-0.06216042
55	0xbe142552	-0.14467362
56	0xbe2045ee	-0.15651676
57	0xbefd9bc8	-0.49532914
58	0xbf1ca8c7	-0.61195034
59	0x3e07cfa4	0.13262802
60	0xbe2349e8	-0.15946162
61	0x3f03d157	0.514913
62	0x3e5d6c6b	0.2162339
63	0xbe0081d2	-0.12549523
64	0xbf2943d2	-0.6611911
65	0xbecaa2bf	-0.3957729
66	0xbf2acfa2	-0.6672307
67	0x3dc1393b	0.09434744
68	0x3c91b632	0.017787073
69	0x3e5f3ae1	0.21799804
70	0x3ec339ca	0.38130027
71	0x3e08ecc7	0.13371573
72	0x3d72e547	0.059300687
73	0x3cf10f72	0.02942631
74	0x3e876f71	0.2645221
75	0xbe192399	-0.14954986
76	0xbd64164d	-0.05568533
77	0x3ef1566f	0.47136256
78	0xbed700f9	-0.4199293
79	0x3e9a9677	0.3019292
80	0xbf0d7548	-0.5525708
81	0xbd374ab3	-0.044748973
82	0xbf735d27	-0.95064014
83	0xbe7e2625	-0.24819238
84	0xbe516b03	-0.20450978
85	0xbef2daf1	-0.47432664
86	0x3e588f17	0.21148334
87	0x3f310781	0.69152075
88	0x3f0fd543	0.56184787
89	0x3f55c563	0.83504313
90	0x3e0668b6	0.13125882
91	0xbb0e5b32	-0.0021721837
92	0xbe31fc28	-0.17381346
93	0x3c3bbcbf	0.011458575
94	0x3eac7f4b	0.33690867
95	0xbef1baf8	-0.47212958
96	0x3e39a98f	0.18131088
97	0xbf05fddb	-0.5234048
98	0x3f34c5fb	0.70614594
99	0x3e127b33	0.1430481
100	0x3ead540e	0.3385319
101	0xbed6b0f3	-0.41931877
102	0xbe0da0a8	-0.13830817
103	0x3f1ab31e	0.6042956
104	0xbeebf630	-0.46086264
105	0x3ecccdb5	0.40000692
106	0xbf202180	-0.62551117
107	0x3e940c0f	0.2891545
108	0xbeb8c9c4	-0.36091435
109	0xbf7b1801	-0.980835
110	0xbc34e0bd	-0.01103991
111	0xbdc038fe	-0.093858704
112	0x3f0daa6f	0.55338186
113	0x3ecad439	0.39615038
114	0x3d2d44d5	0.04230197
115	0x3d6f3d7a	0.058408238
116	0x3f1ea16d	0.61965066
117	0xbf062719	-0.5240341
118	0xbe9eb750	-0.3099923
119	0xbe1bc2c4	-0.15211016
120	0xbec44d08	-0.3834002
121	0xbe33895d	-0.17532869
122	0xbdbf2d26	-0.09334783
123	0x3ebeedc6	0.37290782
124	0xbe808f21	-0.251092
125	0x3e1901c0	0.14942074
126	0xbe4e3d76	-0.20140633
127	0xbc81811a	-0.01580863
128	0xbe8d61e3	-0.27613744
129	0xbe659161	-0.22418739
130	0xbf2b6177	-0.66945595
131	0x3e1d7fcf	0.15380786
132	0xbdf637a9	-0.12022335
133	0x3c158dc4	0.009128038
134	0x3e1719cc	0.14755934
135	0xbe9a7379	-0.30166224
136	0x3cf692ce	0.030099299
137	0xbdc22458	-0.09479588
138	0xbe2267d5	-0.15859921
139	0x3e824672	0.2544437
140	0xbe8aa5ca	-0.27079612
141	0x3ebcecce	0.36899418
142	0xbe9bd3aa	-0.30434924
143	0x3ed27a09	0.4110873
144	0xbf122f89	-0.5710378
145	0x3e6f52fc	0.233715
146	0xbe64efd6	-0.22357115
147	0xbf1d57fd	-0.61462384
148	0x3dd53f16	0.10412423
149	0xbe54c953	-0.20779924
150	0x3ea20e11	0.31651357
151	0x3f25a59c	0.64705825
152	0xbe371277	-0.17878138
153	0x3f3450dd	0.7043589
154	0x3e216bf2	0.15763834
155	0x3f1aae61	0.6042233
156	0x3e445271	0.19172074
157	0xbe0661e7	-0.13123284
158	0x3f3ee2e1	0.7456494
159	0xbf078dff	-0.52951044
160	0x3d8671b4	0.06564656
161	0x3e8f381b	0.27972493
162	0xbecb964e	-0.3976311
163	0xbea78528	-0.32718778
164	0xbf3914a2	-0.7229711
165	0x3f3edc96	0.7455534
166	0xbe385277	-0.18000208
167	0xbf91e61c	-1.1398349
168	0x3f18bb5f	0.59660906
169	0xbea29569	-0.31754616
170	0x3f02e2c2	0.51127255
171	0xbe8c6b56	-0.2742564
172	0xbcd09b2c	-0.025464617
173	0x3ed18684	0.4092294
174	0xbf158918	-0.58412313
175	0xbdebe919	-0.11519069
176	0xbee606d5	-0.44927087
177	0xbe8a60e2	-0.2702704
178	0x3d8bd49d	0.06827662
179	0xbe85e41b	-0.26150593
180	0xbf4e0d15	-0.8048871
181	0x3ea341dc	0.31886184
182	0x3e15a31d	0.14613004
183	0x3f1720a6	0.5903419
184	0x3f4ccb49	0.7999769
185	0x3da76ef6	0.08175461
186	0xbe801ba1	-0.2502108
187	0xbe070331	-0.13184811
188	0xbe1150ee	-0.14191028
189	0xbdfc8103	-0.123292945
190	0x3ec598e2	0.38593203
191	0x3e2a54e3	0.16633944
192	0x3e01b141	0.12665273
193	0x3ea608b7	0.32428524
194	0xbe79db51	-0.24400069
195	0xbf07c427	-0.5303368
196	0xbefbd558	-0.49186206
197	0x3f3828c0	0.7193718
198	0xbf3792ff	-0.71708673
199	0xbf19a137	-0.6001162
200	0x3e6868f9	0.22696294
201	0xbf01ae84	-0.50656915
202	0x3f19f1db	0.6013467
203	0xbdfabd2d	-0.12243114
204	0xbd96b150	-0.073580384
205	0x3f6ff643	0.9373514
206	0xbe201b34	-0.15635377
207	0xbe206002	-0.15661624
208	0xbebe3de1	-0.37156585
209	0xbec10d88	-0.37705636
210	0x3e1b3bcb	0.15159528
211	0xbec56abf	-0.38558003
212	0xbed16319	-0.40895918
213	0xbd98faef	-0.07469737
214	0x3eb9f527	0.3631985
215	0x3f2dfa26	0.6795982
216	0x3ec29fa7	0.3801243
217	0x3ea1a2b3	0.31569442
218	0x3ede0e08	0.4337008
219	0xbea66fde	-0.32507223
220	0xbe84ff45	-0.25976005
221	0xbf532b59	-0.8248802
222	0xbd8c51b5	-0.06851522
223	0xbf023810	-0.50866795
224	0x3ef1c32d	0.4721922
225	0xbd8268f0	-0.063676715
226	0x3d32d133	0.04365654
227	0xbe048c18	-0.12944067
228	0xbe98f0f5	-0.29871336
229	0xbefe2de7	-0.49644396
230	0xbea96478	-0.33084464
231	0x3eb20f3d	0.3477725
232	0x3bd43a54	0.00647668
233	0xbeb1a125	-0.34693256
234	0xbea3ef37	-0.32018444
235	0xbda3c250	-0.079960465
236	0xbe982bff	-0.29721066
237	0xbeaefbbe	-0.3417644
238	0x3f2190aa	0.63111365
239	0xbf21d3ba	-0.63213694
240	0x3e9846e3	0.29741582
241	0x3ec46db6	0.38364953
242	0x3e18a0b5	0.14905055
243	0x3ef143b2	0.4712196
244	0xbeaa6f6d	-0.33288136
245	0x3e4e065e	0.20119616
246	0xbef3ad6b	-0.47593245
247	0xbf2e7447	-0.68146175
248	0x3e0d7e5e	0.13817737
249	0xbf47ca74	-0.78043294
250	0xbc26de1f	-0.010184794
251	0xbdd4c8b9	-0.10389847
252	0xbf011d2c	-0.5043514
253	0xbc624aee	-0.01381181
254	0xbe85cb88	-0.26131845
255	0x3c25e202	0.010124685

fc3.bias f4 [32]
0	0xbce5fa91	-0.028073581
1	0xbe80ab35	-0.2513062
2	0xbe235502	-0.15950397
3	0xbdc6d71f	-0.09709
4	0xbe5d0843	-0.21585183
5	0xbe19ad7c	-0.15007585
6	0x3c2f7c80	0.010710835
7	0xbe48462a	-0.19558015
8	0xbd8fae43	-0.0701566
9	0xbdec2b82	-0.11531736
10	0xbd91d077	-0.0711984
11	0xbe791d09	-0.24327482
12	0xbe34943e	-0.17634675
13	0xbe554147	-0.20825683
14	0xbe89f64c	-0.26945722
15	0xbde6f1f6	-0.11276619
16	0xbc982f0f	-0.018577127
17	0xbeb08a9c	-0.3448075
18	0xbe433d44	-0.1906634
19	0xbe76e2fc	-0.24110025
20	0xbe7463b4	-0.23866159
21	0xbe8c4157	-0.273936
22	0xbe3e9405	-0.18611152
23	0xbe28dcba	-0.1649045
24	0xbe6ebd8a	-0.23314491
25	0xbe5f97ab	-0.218352
26	0xbe8e29c2	-0.27766234
27	0xbd08ef3e	-0.033431284
28	0x3e23e0e7	0.16003762
29	0xbe87d5d8	-0.26530337
30	0xbe295a3e	-0.16538331
31	0xbe8193e2	-0.25308138

fc4.weight f4 [20, 32]
0	0xbfa6147a	-1.2974999
1	0xbf8493fd	-1.0357662
2	0x3f666691	0.90000254
3	0xbf4cd1e8	-0.8000779
4	0x3f25fbe2	0.6483747
5	0x3f9b4ebc	1.2133403
6	0x3fd89b0a	1.6922314
7	0xbf786e07	-0.9704289
8	0xbf6acbd5	-0.91717273
9	0xbf44d03a	-0.7688023
10	0xbf89bb9e	-1.0760381
11	0x3f0f252b	0.5591609
12	0xbf4df15a	-0.804464
13	0x3da76f36	0.08175509
14	0xbd083f0d	-0.033263255
15	0x3fa61724	1.2975812
16	0x3f728b5d	0.947439
17	0x3f6fad1f	0.93623537
18	0x3f187b1f	0.5956287
19	0xbf63d0b5	-0.88990337
20	0x3d9a63ef	0.07538592
21	0x3f37fa92	0.71866715
22	0xbf29f21e	-0.66385067
23	0xbe106578	-0.14101207
24	0x3f4b907f	0.7951736
25	0xbebc1e3a	-0.3674181
26	0x3ef9074b	0.48638377
27	0x3f95b6d0	1.1696415
28	0xbf9dab57	-1.2317914
29	0x3e2c68e5	0.16836889
30	0x3e9803d7	0.2969043
31	0x3e2a0d66	0.16606674
32	0xbe05bc9f	-0.13060234
33	0x3f35d89b	0.7103364
34	0x3f4431cf	0.766385
35	0x3e716b4d	0.23576088
36	0x3f1e6242	0.6186868
37	0xbe80467a	-0.2505377
38	0xbed0d242	-0.40785414
39	0xbf2244f3	-0.6338646
40	0xbf859476	-1.0435932
41	0xbed618cf	-0.41815802
42	0xbfa4c359	-1.2872115
43	0xbec5dc45	-0.38644615
44	0x3c981106	0.018562805
45	0xbebf4580	-0.37357712
46	0x3effc73f	0.499567
47	0x3f98b9f2	1.1931746
48	0x3fa9de9d	1.3271061
49	0x3f28ff96	0.66014993
50	0x3f8ded05	1.1087958
51	0x3ea4bd01	0.3217545
52	0x3f311d0c	0.69184947
53	0x3f45fded	0.77340585
54	0xbf193c1b	-0.5985734
55	0xbf63ae83	-0.8893816
56	0xbb242772	-0.0025047925
57	0xbee1b14d	-0.44080582
58	0xbdc6d1d0	-0.09707987
59	0xbeb8ec84	-0.36117947
60	0xbee232a5	-0.44179264
61	0xbe550d40	-0.20805836
62	0x3e2c8a14	0.16849548
63	0x3ec34d20	0.3814478
64	0x3fc11e5b	1.5087389
65	0x3f776f92	0.9665462
66	0xbd316b50	-0.04331523
67	0x3f4148bb	0.755016
68	0x3e33fc8d	0.17576809
69	0xbf88803b	-1.0664133
70	0xbf3ab594	-0.72933316
71	0xbe4be1f4	-0.19910413
72	0xbe9d7f18	-0.30761027
73	0x3e142384	0.14466673
74	0xbed3406d	-0.4126009
75	0xbf02f68a	-0.5115744
76	0xbdb7ccd8	-0.08974618
77	0xbec46d11	-0.3836446
78	0x3e46c13f	0.19409655
79	0x3cab0500	0.020876408
80	0x3f11c9db	0.5694863
81	0x3ea0f83e	0.31439394
82	0x3f35d1ce	0.7102326
83	0x3f2bb8c6	0.67078817
84	0x3f7d35b3	0.98910064
85	0x3e6d95d7	0.2320169
86	0xbdaff57e	-0.08591746
87	0xbf10a778	-0.5650554
88	0xbec38ea8	-0.38194776
89	0xbda6f5fe	-0.08152388
90	0xbecee244	-0.40407002
91	0xbf6e9bfd	-0.9320677
92	0x3f3120ad	0.69190484
93	0xbec5cddb	-0.38633618
94	0xbdfaf0e0	-0.122529745
95	0x3f42b522	0.76057637
96	0x3f00fd02	0.5038606
97	0x3f289405	0.6585086
98	0xbe9afc50	-0.30270624
99	0x3f350bb1	0.70720965
100	0xbde7722b	-0.11301073
101	0xbf51f477	-0.8201365
102	0xbf6a4dcd	-0.91524965
103	0x3e3bd921	0.18344547
104	0x3f01e48b	0.50739354
105	0x3f0f0125	0.5586112
106	0x3eb2775b	0.34856686
107	0xbe36969f	-0.17830895
108	0x3ef8d077	0.48596546
109	0x3e693c81	0.22776987
110	0xbb1a5d43	-0.0023554123
111	0xbecef55d	-0.40421572
112	0xbe4955ef	-0.19661687
113	0xbe901b9f	-0.28146073
114	0x3e273c25	0.16331537
115	0x3f5d9474	0.86554646
116	0x3e51f9ed	0.20505495
117	0xbea065da	-0.31327707
118	0x3ea424c2	0.32059294
119	0xbe95663c	-0.2917956
120	0xbe3bb143	-0.18329339
121	0x3f1b5999	0.6068359
122	0xbeafa7a6	-0.34307593
123	0xbe75ece6	-0.24016151
124	0x3f4f6449	0.810124
125	0xbdadc52b	-0.084848724
126	0x3ec9d5ba	0.39420873
127	0xbdb763d2	-0.08954586
128	0x3e084070	0.13305831
129	0xbebbaa76	-0.3665349
130	0x3d80cfa2	0.06289603
131	0x3ec4f9ad	0.38471738
132	0xbe301eee	-0.17199299
133	0x3db15bde	0.086601004
134	0x3d3e7678	0.0464997
135	0x3eda0336	0.42580575
136	0x3f084457	0.5322928
137	0x3f0bd698	0.5462432
138	0x3f085796	0.53258646
139	0x3ee2acee	0.4427256
140	0x3e789837	0.24276815
141	0x3ef39f3a	0.47582418
142	0xbd056b7b	-0.032573204
143	0xbf0f9ab5	-0.5609544
144	0xbf013d25	-0.50483924
145	0xbf1a2f60	-0.6022854
146	0xbea06a1a	-0.3133095
147	0x3e650709	0.22365965
148	0xbd605646	-0.054769777
149	0xbe987148	-0.29773927
150	0x3f199346	0.59990346
151	0x3e782dd9	0.2423624
152	0xbe984ecf	-0.29747626
153	0x3ea49226	0.32142752
154	0xbe7283f8	-0.23683155
155	0x3f2332e9	0.6374956
156	0x3ed8e9f6	0.42365998
157	0x3d8fc3a1	0.07019735
158	0xbdfb56c1	-0.12272406
159	0x3b315ea1	0.002706446
160	0xbf1d0805	-0.6134036
161	0xbf1fbd22	-0.6239797
162	0xbdf961ee	-0.12176882
163	0xbeb484f7	-0.35257694
164	0x3e2bcc37	0.1677712
165	0x3eec6e6b	0.46177992
166	0x3e29e06d	0.16589518
167	0x3d90e403	0.0707474
168	0x3f0f5a01	0.5599671
169	0x3f0d4cca	0.55195296
170	0x3eacc273	0.33742103
171	0x3e194a59	0.14969768
172	0x3efd1e02	0.49436957
173	0x3eea977b	0.45818695
174	0xbf090eb3	-0.53538054
175	0xbdb2549e	-0.08707546
176	0x3f0a953c	0.54133964
177	0xbeaca8a9	-0.33722427
178	0xbe86a11f	-0.262948
179	0xbe6c7c11	-0.23094203
180	0xbeec9be1	-0.46212676
181	0xbdf92f5e	-0.12167238
182	0x3ef0529f	0.46938035
183	0x3f070162	0.52736485
184	0x3ddff8b8	0.10936111
185	0xbd22d6c3	-0.039755594
186	0x3f07cd05	0.5304721
187	0x3eadb529	0.33927277
188	0xbe1838b4	-0.1486538
189	0x3e9ae032	0.30249172
190	0x3eacb339	0.33730486
191	0xbe08ef4e	-0.13372537
192	0xbe33390e	-0.17502233
193	0xbf0be8b7	-0.5465197
194	0x3e8dcb23	0.27694044
195	0xbcd00914	-0.025394954
196	0x3e6a4012	0.22876003
197	0x3f109481	0.564766
198	0x3f1d08e6	0.613417
199	0xbec69be1	-0.387908
200	0x3e7595d7	0.2398294
201	0xbe03c5a3	-0.12868361
202	0xbdfa36e1	-0.122174986
203	0xbc45bf11	-0.01206948
204	0xbe38bdab	-0.18041103
205	0x3d395fce	0.045257382
206	0xbde0b2a4	-0.10971573
207	0x3ea18813	0.3154913
208	0xbc211a31	-0.009832905
209	0x3d9790ab	0.0740064
210	0x3d03f069	0.032211695
211	0xbe195118	-0.14972341
212	0xbe98547c	-0.29751956
213	0x3e92d7d0	0.28680277
214	0xbcdc6bce	-0.026906874
215	0x3e77b433	0.24189834
216	0xbe6845bc	-0.22682852
217	0x3ca2f3ff	0.019891737
218	0x3e309e87	0.17247973
219	0x3f078bed	0.52947885
220	0xbbbb3a52	-0.0057137394
221	0x3e3e354f	0.18575023
222	0x3e7aced8	0.24492967
223	0x3c6a2dac	0.014293116
224	0x3e2f9433	0.17146377
225	0xbe8fc1b0	-0.2807746
226	0x3dc178a3	0.09446838
227	0x3c8819cd	0.016613865
228	0x3e4457ee	0.19174168
229	0x3e7bf8e1	0.24606659
230	0x3da4e74f	0.08051931
231	0xbdeebfe0	-0.11657691
232	0xbecefe49	-0.4042838
233	0xbdf2e701	-0.11860467
234	0xbec58dad	-0.38584653
235	0x3e8e13ab	0.2774938
236	0xbdc2c07d	-0.095093705
237	0xbd9e7b4e	-0.07738362
238	0x3e365746	0.1780673
239	0x3e8ed6df	0.2789831
240	0x3e23db1e	0.16001555
241	0x3e8bdcfa	0.2731703
242	0x3e901031	0.28137353
243	0x3d9b93df	0.075965635
244	0x3de8805b	0.11352607
245	0x3e864089	0.2622111
246	0x3ddef62d	0.10886798
247	0xbd7a3db3	-0.061093997
248	0x3e1bfe5b	0.15233748
249	0xbe2f26ae	-0.17104599
250	0x3ddc5477	0.10758298
251	0x3e6c666c	0.23085946
252	0x3e0aeb23	0.1356626
253	0x3e071e8c	0.13195246
254	0x3ed4f9b3	0.41596755
255	0x3e53c6c6	0.20681295

fc4.bias f4 [20]
0	0x3e1ecfdc	0.1550898
1	0x3e08e48a	0.1336843
2	0x3df3d040	0.11904955
3	0x3dd548ff	0.104143135
4	0x3de94342	0.113897815
5	0x3e196dce	0.14983293
6	0x3de7146e	0.112831935
7	0x3df9408a	0.12170513
8	0x3e03e604	0.12880713
9	0x3e296a89	0.16544546
10	0x3e09b709	0.13448729
11	0x3e057355	0.13032277
12	0x3e276b04	0.16349417
13	0x3e0a2683	0.13491254
14	0x3dfa4578	0.12220281
15	0x3df65d42	0.12029506
16	0x3df44ba8	0.11928493
17	0x3e4409e8	0.19144404
18	0x3e0dc7ae	0.13845703
19	0x3e0e1d1d	0.13878293
