scripts/TCLab/TCLab_NNv0_tl.pt (torch, 119482 bytes, 18 tensors)

weight f4 [64, 1]
000000 f1 9a 15 bf dd 65 ba bf f7 58 a7 bf d4 32 f9 3d
       -0.58439547 -1.4562336 -1.3074025 0.12167898
000010 13 72 ab bf 5e 0b 03 3f d0 d7 33 bf f5 c1 6c bf
       -1.3394188 0.5118922 -0.7025118 -0.92483455
000020 a2 0e 8f 3f cd e3 ea be 0f 0c 96 3f fe fb 19 3f
       1.117634 -0.45876923 1.172243 0.60150135
000030 aa d4 77 bb d6 00 ba 3e b1 ca f2 3f ab 7a c7 bf
       -0.0037815967 0.36328763 1.8968107 -1.558431
000040 1f 1b c3 3e ba 61 c3 bf 25 d8 3f c0 55 df 3d 40
       0.3810663 -1.5264199 -2.9975674 2.966756
000050 91 4d f5 3e 7e e1 01 bc 3f d4 8b bf 2f 27 89 3d
       0.4791074 -0.007927297 -1.0924147 0.06696927
000060 c9 42 e4 3e d4 67 08 40 5b 83 81 c0 51 32 d6 3e
       0.44582203 2.1313372 -4.0472846 0.41835263
000070 25 dd b9 3e ee 1b a7 bf 72 66 49 3f e4 d5 b0 3f
       0.36301532 -1.3055398 0.78671944 1.3815274
000080 e5 f2 66 bf 5a 09 ff bf 54 b0 04 bb 2a 12 e0 be
       -0.9021438 -1.9924729 -0.0020246701 -0.43763858
000090 99 73 4a 3f 08 15 af bf 49 fa f6 bf 33 60 ac 3e
       0.7908264 -1.3678293 -1.9295131 0.33667144
0000a0 8f eb c1 bf b4 f6 ce 3f eb 0c f8 bf 10 8c c3 bf
       -1.5150012 1.6169038 -1.9378942 -1.5277119
0000b0 69 07 33 3c 0d 30 b3 3f f8 0f 45 c0 db 09 aa 3e
       0.01092706 1.3999039 -3.0790997 0.33210644
0000c0 e2 9a f1 3e 31 c0 dc 3f ac d8 17 bf b6 45 88 be
       0.4718848 1.7246152 -0.5931499 -0.26615685
0000d0 b2 08 2b 3f c6 e2 7a 3f 55 ef 78 3f 9d 9c dd 3f
       0.66810143 0.9800228 0.9724019 1.731342
0000e0 92 02 87 3c 31 07 47 bf 42 74 27 3f 20 ef e5 bf
       0.016480718 -0.7774535 0.6541177 -1.79636
0000f0 3c 54 41 bf e1 aa 84 bd dc 0a 78 40 95 70 0e c0
       -0.75519156 -0.06477905 3.8756628 -2.2256215

bias f4 [64]
000000 c5 c8 ac bd 60 96 56 3e 8a e9 55 3f 50 b6 02 be
       -0.08436731 0.20955801 0.8355948 -0.12764859
000010 d7 e9 75 bd 22 ff 96 bd 50 38 fa be 63 a4 f0 bc
       -0.06003746 -0.073728815 -0.48871088 -0.02937526
000020 cf 28 93 bd 00 00 00 00 54 52 88 3f bf fb b3 bd
       -0.07185518 0.0 1.0650125 -0.08788251
000030 d0 3a 49 b9 96 30 29 bf a5 1c 8d 3f 77 8e 87 bd
       -0.00019190763 -0.6608976 1.1024367 -0.0661897
000040 9a 2a 7d bd 84 93 73 bd f6 e0 7d bd 42 36 fa bc
       -0.061808206 -0.059466854 -0.061982118 -0.03054345
000050 d4 94 91 bd e9 6b b3 ba 4e 77 0a bd 4f af 7a bd
       -0.07108465 -0.0013688776 -0.033805184 -0.061202344
000060 76 01 86 bd c0 9d d1 bd dc 3d 70 bd 4b a4 a3 bd
       -0.065432474 -0.102351665 -0.058652744 -0.07990321
000070 0f 36 9e 3c 48 d3 53 bd 50 cb 94 bd a5 03 1a be
       0.019312887 -0.051715165 -0.07265341 -0.15040453
000080 1e e9 7a bd 00 00 00 00 0b 7c f0 3e 3c 9b 3e 3f
       -0.061257474 0.0 0.46969637 0.7445562
000090 7e 2a 83 be 28 37 5b bd 6b d4 99 be 52 fb 50 be
       -0.25618356 -0.053519398 -0.30044875 -0.20408371
0000a0 b2 53 91 bd 37 3b 8d be 39 7d 7b bd 91 60 5e bd
       -0.07096042 -0.2758424 -0.06139872 -0.05429131
0000b0 d6 da 01 3d e5 a4 82 be 4b c9 11 bc ad ea ac 3d
       0.03170284 -0.2551643 -0.00889809 0.08443198
0000c0 00 00 00 00 35 24 8c bd 56 b1 f8 3c 88 17 0f be
       0.0 -0.068428434 0.030357998 -0.1397382
0000d0 27 bd ac 3e 47 3e 0c 3e e3 22 12 3f 07 8c 07 be
       0.33738062 0.13695632 0.5708448 -0.1323701
0000e0 99 88 be 3d 4c ba 00 be 14 bd 72 bd d7 d9 ab bd
       0.09303398 -0.12571067 -0.05926235 -0.08391159
0000f0 43 ce 42 3f 00 00 00 00 1d 2a cb be 8e 17 05 be
       0.7609598 0.0 -0.39680567 -0.12997267

weight f4 [64, 1]
000000 cb 6b 3e 3f 70 c1 06 c0 f3 f1 8c bf bf 9d a1 3c
       0.7438323 -2.1055565 -1.1011337 0.01972854
000010 f4 d3 da 3e e2 22 d5 3e 8d 13 e9 3e 21 58 45 3c
       0.42739832 0.41628176 0.4552273 0.012044937
000020 a1 31 db bf a5 4f 7b bf cc af a1 3e 8d 9b 8f be
       -1.712452 -0.981684 0.31579435 -0.28048363
000030 84 7f 19 3c d4 42 9a bf 37 84 2d be a6 fa a5 bf
       0.009368781 -1.2051644 -0.16944967 -1.2967117
000040 bb 55 2b c0 78 e5 c0 be bf 03 07 c0 52 f4 7a 3e
       -2.6771076 -0.3767507 -2.1096036 0.24507263
000050 81 1f 42 c0 b1 d5 70 bc a2 41 1e bf 21 ba 8c bf
       -3.0331728 -0.0146993855 -0.618189 -1.0994302
000060 65 b0 93 bc 89 03 07 40 16 ff b6 3d af 50 3a 3d
       -0.018028447 2.1095908 0.089353725 0.045487102
000070 b8 68 87 40 54 9d 5f 3d b8 e2 f9 bf b8 d3 26 3f
       4.231533 0.0545934 -1.9522314 0.6516681
000080 1d 27 22 3f a6 0d 2a 3d f9 2f c3 bc b0 06 b6 3f
       0.6334093 0.041516922 -0.023826586 1.4220791
000090 b0 21 22 c0 60 f6 1a c0 e5 71 a0 bf 1b ca c0 3f
       -2.5333061 -2.4212875 -1.2534758 1.5061678
0000a0 bf af c3 3e a8 1c 14 40 79 68 95 3e 81 80 e3 3e
       0.3822002 2.314249 0.2918127 0.44433978
0000b0 90 aa 6e bf 2c db a1 3f 4b 0e df bf 0f 3a dd be
       -0.9322901 1.2645011 -1.7426237 -0.43208358
0000c0 51 1e cf bd 9f 6a e5 bf e6 c5 8a 3e 94 ce ba 3f
       -0.10113204 -1.7923163 0.2710411 1.4594293
0000d0 bd e5 39 bf 9b 7b dc 3f 95 a7 1d bf a8 23 84 bf
       -0.7261618 1.7225221 -0.61583835 -1.0323381
0000e0 1c bc 84 3f 83 14 b0 bf f5 ea 8e bf a7 a2 92 3f
       1.0369906 -1.375626 -1.1165453 1.1455888
0000f0 61 d4 80 40 af 7f 9c bf ba cc 94 3f 53 8f ff 3f
       4.025925 -1.2226466 1.1624978 1.9965614

bias f4 [64]
000000 c5 c8 ac bd 60 96 56 3e 8a e9 55 3f 50 b6 02 be
       -0.08436731 0.20955801 0.8355948 -0.12764859
000010 d7 e9 75 bd 22 ff 96 bd 50 38 fa be 63 a4 f0 bc
       -0.06003746 -0.073728815 -0.48871088 -0.02937526
000020 cf 28 93 bd 00 00 00 00 54 52 88 3f bf fb b3 bd
       -0.07185518 0.0 1.0650125 -0.08788251
000030 d0 3a 49 b9 96 30 29 bf a5 1c 8d 3f 77 8e 87 bd
       -0.00019190763 -0.6608976 1.1024367 -0.0661897
000040 9a 2a 7d bd 84 93 73 bd f6 e0 7d bd 42 36 fa bc
       -0.061808206 -0.059466854 -0.061982118 -0.03054345
000050 d4 94 91 bd e9 6b b3 ba 4e 77 0a bd 4f af 7a bd
       -0.07108465 -0.0013688776 -0.033805184 -0.061202344
000060 76 01 86 bd c0 9d d1 bd dc 3d 70 bd 4b a4 a3 bd
       -0.065432474 -0.102351665 -0.058652744 -0.07990321
000070 0f 36 9e 3c 48 d3 53 bd 50 cb 94 bd a5 03 1a be
       0.019312887 -0.051715165 -0.07265341 -0.15040453
000080 1e e9 7a bd 00 00 00 00 0b 7c f0 3e 3c 9b 3e 3f
       -0.061257474 0.0 0.46969637 0.7445562
000090 7e 2a 83 be 28 37 5b bd 6b d4 99 be 52 fb 50 be
       -0.25618356 -0.053519398 -0.30044875 -0.20408371
0000a0 b2 53 91 bd 37 3b 8d be 39 7d 7b bd 91 60 5e bd
       -0.07096042 -0.2758424 -0.06139872 -0.05429131
0000b0 d6 da 01 3d e5 a4 82 be 4b c9 11 bc ad ea ac 3d
       0.03170284 -0.2551643 -0.00889809 0.08443198
0000c0 00 00 00 00 35 24 8c bd 56 b1 f8 3c 88 17 0f be
       0.0 -0.068428434 0.030357998 -0.1397382
0000d0 27 bd ac 3e 47 3e 0c 3e e3 22 12 3f 07 8c 07 be
       0.33738062 0.13695632 0.5708448 -0.1323701
0000e0 99 88 be 3d 4c ba 00 be 14 bd 72 bd d7 d9 ab bd
       0.09303398 -0.12571067 -0.05926235 -0.08391159
0000f0 43 ce 42 3f 00 00 00 00 1d 2a cb be 8e 17 05 be
       0.7609598 0.0 -0.39680567 -0.12997267

weight f4 [64, 61]
000000 3e 78 86 be 77 e9 08 be 3f 6b 4f 3d ce 46 90 3c
       -0.26263613 -0.1337031 0.050639387 0.017611887
000010 9f bd 77 bd f7 3f a5 3b cb 1b 10 be 8b b4 e6 3d
       -0.06048357 0.0050430256 -0.14073102 0.112649046
000020 07 6b 44 be 47 9b 8b bd 03 4d e1 bd b7 17 41 3e
       -0.19181453 -0.06816726 -0.11001017 0.18856703
000030 b5 c8 de bd 83 d8 c4 3d 03 a9 64 be 5f 43 bb 3d
       -0.108781256 0.09611609 -0.22330098 0.091437094
000040 cd 61 42 be 48 73 dc be 20 c4 22 3e 2b ff 68 3e
       -0.1898262 -0.43056703 0.15895128 0.22753589
000050 2e 2c 8b 3b 9e a0 08 be af 32 08 be a7 4b af 3d
       0.00424721 -0.1334252 -0.13300584 0.085593514
000060 f0 1d a5 3e 52 26 89 3e 08 44 03 be 15 2b 00 3d
       0.32249403 0.2678705 -0.1281892 0.031291086
000070 30 23 a9 38 83 70 8c be c5 94 c0 bd 45 2b ae 3e
       8.065102e-05 -0.2742959 -0.094033755 0.34017387
000080 ca 21 57 bd 9f 68 9b bd 41 67 7b be 32 c1 c2 be
       -0.052522458 -0.07588314 -0.24551107 -0.3803802
000090 94 bf 64 bc 1f 3c e6 bd c1 c5 0d be 1f b3 63 be
       -0.013961691 -0.11241936 -0.13844968 -0.22236298
0000a0 e1 b5 20 bd be b9 32 be 53 d7 c9 bd 24 84 b2 be
       -0.039235953 -0.17453668 -0.09855523 -0.3486644
0000b0 58 4e 6d 3b 1f 3a 32 be 19 6d 7c be 2e fa 57 3e
       0.0036210027 -0.17404984 -0.24650992 0.2109153
0000c0 36 d0 da be cf ca 0d 3e 92 2f ec 3c 33 27 cc bd
       -0.42736977 0.13846897 0.028831277 -0.09968414
0000d0 6e 58 dd 3b 1f d4 ca bb c1 92 92 bd e6 73 3c 3e
       0.0067549264 -0.0061898376 -0.07156897 0.18403587
0000e0 c7 6b d7 bc 6c 20 cc bd 20 bc 58 bd 36 f5 be bc
       -0.02629651 -0.099671215 -0.052913785 -0.023310285
0000f0 34 32 7a be c1 26 a8 3d 47 c4 98 3e b4 36 47 3e
       -0.24433213 0.08210517 0.29837248 0.19454461
000100 10 0f 51 3e 29 75 ce 3e 5b 7d e4 3e c2 b3 4b 3e
       0.20415902 0.4032376 0.4462689 0.19892791
000110 c9 7c 8f 3e 44 29 7c 3e 88 52 1f be 43 0d b5 3e
       0.2802489 0.24625117 -0.15558827 0.3536168
000120 d2 cb 11 3e 35 4d 86 3e a2 f2 0f 3f 6d 6e c6 3d
       0.14237908 0.2623078 0.56229603 0.09689031
000130 30 37 16 3e 40 57 6d 3e 83 cf 50 bb f5 fd 9a 3e
       0.1466949 0.23177814 -0.0031861968 0.3027188
000140 29 93 95 3e d4 f6 0d bd 15 1d dd 3d a2 5b 58 3d
       0.29213837 -0.03465922 0.107965626 0.052821763
000150 db 2b 49 bd 23 71 77 bc b5 f2 d7 bd d4 1d bd bb
       -0.04911409 -0.0151026575 -0.105443396 -0.005771378
000160 11 30 d9 3c 80 de 63 3e 5d c6 bd bd 38 db 07 be
       0.026512178 0.22252846 -0.092663504 -0.13267219
000170 c2 8e d2 be 5f be fc 3c 69 4e d5 3d b8 5d af bb
       -0.4112454 0.030852495 0.10415346 -0.0053517483
000180 30 e2 17 3e 31 5e d3 3d 90 c8 75 3e 76 76 ab 3b
       0.14832377 0.103207 0.2400229 0.0052326275
000190 e0 7b d1 be 5e 82 15 be 01 45 c5 be ab 48 b7 3d
       -0.40914822 -0.14600512 -0.38529208 0.08949407
0001a0 da 01 43 bd 15 bb c5 bd cb 96 ac 3e 15 e9 a0 be
       -0.047609188 -0.09654824 0.33708796 -0.31427827
0001b0 a1 9c 90 3c a1 7e 93 bd f9 d1 ad 3d 8f 30 0a 3e
       0.017652811 -0.07201887 0.08487315 0.13495086
0001c0 e3 b9 b4 3e 81 71 c4 39 fe 96 88 3d 33 2c c6 3c
       0.3529807 0.000374686 0.066694245 0.024190998
0001d0 ea 9a 0a bb 1e d4 1d bd 58 33 4f 3e ad 78 ee 3d
       -0.0021149465 -0.03853237 0.2023443 0.11644111
0001e0 1c e9 4d bd 94 30 8a 3e ed 1f 91 ba 29 57 f3 3d
       -0.05027114 0.26990187 -0.0011072137 0.11881859
0001f0 9f 34 52 3e 32 7a 5f bd 69 20 9e bd 5e 6f c7 3e
       0.20527886 -0.054559894 -0.077210255 0.38952154
000200 7b e0 d1 3d 6e 6f e5 3e b6 f0 97 be 43 18 88 3e
       0.102478944 0.44811577 -0.29675835 0.2658101
000210 ae 08 8f be 92 e4 08 3c 90 b3 90 3d b0 ec cd 3d
       -0.2793631 0.008355277 0.07065499 0.1005491
000220 c8 2c 60 be 5a 2e bf be ea 5d 9e 3e bf 25 c7 bc
       -0.21892083 -0.3734005 0.30931026 -0.02430999
000230 f6 a8 11 bc 77 d9 54 be a1 bc 25 3e c8 64 e1 be
       -0.008890381 -0.20786081 0.16185237 -0.44022202
000240 8f d1 93 bd a9 65 9b bd 2d 78 17 bd ff 48 c4 3d
       -0.072177045 -0.075877495 -0.036979843 0.095842354
000250 da ec 84 3b ea e9 99 be 21 c3 07 bd 52 61 9e 3e
       0.004056555 -0.30061275 -0.033145074 0.30933625
000260 87 9b d1 bd 0b 9b e8 bd e6 10 93 3e c9 ae ad 3d
       -0.102347426 -0.11357697 0.2872383 0.08480603
000270 bb fe cb bd 47 6e b0 3d 69 b2 68 3e 91 d7 5d 3e
       -0.09960695 0.08614784 0.22724308 0.21664263
000280 27 6d f3 3d d3 6c 68 3d d8 38 be 3e 38 80 8b 3d
       0.118860535 0.056744408 0.37152743 0.06811565
000290 d7 a5 94 bd bf 18 63 be 8f 88 ce 3d 62 ae 83 3c
       -0.07258194 -0.22177409 0.1008464 0.016074363
0002a0 51 72 16 be 4d 61 05 be 99 56 9a 3b 95 12 9e bd
       -0.14692046 -0.13025399 0.0047100303 -0.07718388
0002b0 09 2d 86 3d f9 fb 26 3c 98 c5 01 3e 62 98 74 bd
       0.065515585 0.010191911 0.12673032 -0.059715636
0002c0 9a b0 e0 bc 57 59 0c be af 6d 23 be 55 11 ea 3d
       -0.02742796 -0.13705955 -0.1595981 0.11429087
0002d0 72 1a 84 3d 23 1d f5 3d f4 de c1 3e 90 c3 3d bd
       0.064503565 0.11968448 0.37865412 -0.04632908
0002e0 f6 a9 2a 3e 41 0c 0d be 76 9b e7 bd 38 23 05 be
       0.16666397 -0.13774206 -0.11308949 -0.13001716
0002f0 4d 7b e7 bc e4 14 ed bd 7a 8d 9a 3d 8e 34 6f bc
       -0.028257037 -0.1157625 0.07546516 -0.014599932
000300 53 47 71 3e 90 76 2d 3e a4 64 b9 3b a0 21 b2 bd
       0.23562364 0.16939759 0.0056577493 -0.0869782
000310 d3 88 06 3d 65 e2 95 ba 6f e5 80 bd df de 64 3e
       0.03284533 -0.0011435269 -0.06293761 0.22350644
000320 75 b3 c9 3e e0 7f 5f 3d 5a 6f 56 be e3 40 a4 3c
       0.39394727 0.05456531 -0.20940915 0.020050472
000330 02 60 28 be ec 9b 81 bc b6 49 75 be eb 0b ab 3e
       -0.16442874 -0.01582142 -0.239539 0.3340753
000340 bf 36 ce bd 7e 66 08 bc 04 d5 14 3e c2 20 35 3e
       -0.10069036 -0.008325217 0.14534384 0.17688277
000350 66 0e 9b bc 85 52 7e 3d 24 f9 6b bd 32 6b 91 bc
       -0.018927764 0.062090416 -0.057610646 -0.01775131
000360 e7 51 f6 bd 0a 0d 5c be f9 a6 11 be c4 18 29 bd
       -0.120273404 -0.21489349 -0.14223851 -0.041283384
000370 8e af 01 3d 2d 06 a7 be 4e 0a 36 3c 25 4e 1a 3d
       0.031661563 -0.326219 0.011110855 0.03767218
000380 24 32 d9 bc bd 59 48 3d 65 80 28 be d1 eb 0b be
       -0.026513167 0.048913706 -0.16455229 -0.13664176
000390 cf 53 8c be 10 12 fc 3d 76 dc a0 bc 9e cf 8c be
       -0.2740769 0.12308133 -0.019636374 -0.2750215
0003a0 74 15 39 be 3a 4c 2e 3e 4a e4 87 bd 2e 9d a2 3c
       -0.1807459 0.17021266 -0.066353396 0.01985034
0003b0 80 08 c6 bb ff 8f 94 3d 15 38 a3 be 18 9b 18 be
       -0.0060434937 0.072540276 -0.31878725 -0.14902914
0003c0 27 69 54 3e 1a 80 97 3c 48 e2 b8 bd ac d6 36 3e
       0.20743237 0.0184937 -0.09027535 0.17855328
0003d0 b4 4a 85 3e fd f2 36 be d3 8b 41 3e 93 4b 47 be
       0.26033556 -0.1786613 0.18900995 -0.19462423
0003e0 86 e4 d7 3c 6d ed 64 be 0b 25 40 be e5 b0 80 bd
       0.026354086 -0.22356196 -0.18764131 -0.0628374
0003f0 61 75 ff 3c cd 07 c0 3e e3 4b 84 3d 7c 49 05 be
       0.0311839 0.37505952 0.06459787 -0.13016313

bias f4 [64]
000000 c5 c8 ac bd 60 96 56 3e 8a e9 55 3f 50 b6 02 be
       -0.08436731 0.20955801 0.8355948 -0.12764859
000010 d7 e9 75 bd 22 ff 96 bd 50 38 fa be 63 a4 f0 bc
       -0.06003746 -0.073728815 -0.48871088 -0.02937526
000020 cf 28 93 bd 00 00 00 00 54 52 88 3f bf fb b3 bd
       -0.07185518 0.0 1.0650125 -0.08788251
000030 d0 3a 49 b9 96 30 29 bf a5 1c 8d 3f 77 8e 87 bd
       -0.00019190763 -0.6608976 1.1024367 -0.0661897
000040 9a 2a 7d bd 84 93 73 bd f6 e0 7d bd 42 36 fa bc
       -0.061808206 -0.059466854 -0.061982118 -0.03054345
000050 d4 94 91 bd e9 6b b3 ba 4e 77 0a bd 4f af 7a bd
       -0.07108465 -0.0013688776 -0.033805184 -0.061202344
000060 76 01 86 bd c0 9d d1 bd dc 3d 70 bd 4b a4 a3 bd
       -0.065432474 -0.102351665 -0.058652744 -0.07990321
000070 0f 36 9e 3c 48 d3 53 bd 50 cb 94 bd a5 03 1a be
       0.019312887 -0.051715165 -0.07265341 -0.15040453
000080 1e e9 7a bd 00 00 00 00 0b 7c f0 3e 3c 9b 3e 3f
       -0.061257474 0.0 0.46969637 0.7445562
000090 7e 2a 83 be 28 37 5b bd 6b d4 99 be 52 fb 50 be
       -0.25618356 -0.053519398 -0.30044875 -0.20408371
0000a0 b2 53 91 bd 37 3b 8d be 39 7d 7b bd 91 60 5e bd
       -0.07096042 -0.2758424 -0.06139872 -0.05429131
0000b0 d6 da 01 3d e5 a4 82 be 4b c9 11 bc ad ea ac 3d
       0.03170284 -0.2551643 -0.00889809 0.08443198
0000c0 00 00 00 00 35 24 8c bd 56 b1 f8 3c 88 17 0f be
       0.0 -0.068428434 0.030357998 -0.1397382
0000d0 27 bd ac 3e 47 3e 0c 3e e3 22 12 3f 07 8c 07 be
       0.33738062 0.13695632 0.5708448 -0.1323701
0000e0 99 88 be 3d 4c ba 00 be 14 bd 72 bd d7 d9 ab bd
       0.09303398 -0.12571067 -0.05926235 -0.08391159
0000f0 43 ce 42 3f 00 00 00 00 1d 2a cb be 8e 17 05 be
       0.7609598 0.0 -0.39680567 -0.12997267

weight f4 [64, 61]
000000 a7 73 a3 3d b4 42 fc 3d b3 f5 1a be 73 d8 4c be
       0.07981043 0.1231741 -0.1513279 -0.20004444
000010 00 a6 b1 3c 8f 70 68 be ad 5d 1e 3d e7 71 cc be
       0.0216856 -0.22699188 0.038663555 -0.3993065
000020 34 21 cb 3d 39 b1 63 3e 5d 1e 93 bd 15 f6 43 be
       0.09918442 0.22235574 -0.07183526 -0.19136842
000030 07 77 ff bd 05 b4 4b be eb bf 19 be f3 62 d3 be
       -0.124738745 -0.19892891 -0.15014617 -0.4128643
000040 80 30 24 bd 07 5c 9f 3d b5 f9 61 3d f5 b7 55 be
       -0.040085316 0.07781225 0.05516978 -0.20870955
000050 16 e9 2c 3e d6 2c 23 bc 47 07 95 3e 39 f3 ce 3b
       0.1688579 -0.00995942 0.29107115 0.0063156155
000060 85 e6 a9 bd 14 8c 8b be 37 74 89 be dd 4d 5f 3d
       -0.08295921 -0.2725531 -0.26846477 0.054517616
000070 7b 35 65 3c 20 95 3a be 5a b5 2b 3e 6a 5e 8a bc
       0.0139898015 -0.18220949 0.16768399 -0.016890723
000080 8d fa 83 be 5f f8 48 bc 26 ef 26 3e 52 78 a3 be
       -0.25777093 -0.0122662475 0.16302165 -0.31927735
000090 6c 05 36 3a f4 d0 4c bd 3c 31 2c be 70 f9 2f 3e
       0.0006943557 -0.05000396 -0.16815656 0.17184997
0000a0 dd 7c 3d be 7a 97 15 be 69 dc 8a bd a0 0b c7 be
       -0.18504663 -0.14608565 -0.06780321 -0.38876057
0000b0 9e ed 9e 3d b2 46 81 be 8b 51 72 3c b1 b8 36 be
       0.07760166 -0.2524925 0.014789949 -0.17843892
0000c0 e1 7c 04 be 9b 8b c8 bd a8 00 d8 3c 13 57 bf 3e
       -0.12938263 -0.09792253 0.0263675 0.3737112
0000d0 0b a6 8c 3c 8d 42 95 be 2c df 99 3d 8e cf 66 be
       0.01716902 -0.29152337 0.0751327 -0.22540113
0000e0 a7 be 77 be fa b1 7e bd 1e 8c 99 3d a7 2f 53 be
       -0.24193822 -0.06218145 0.07497428 -0.20623647
0000f0 36 4d b1 bb 64 91 d1 3e fc 90 8e 3e ca 6e af 3e
       -0.0054108156 0.40931237 0.2784499 0.34264213
000100 a3 4d a2 3c 46 4a 1c 3f 78 82 ee 3e 9e d2 1f 3e
       0.01981241 0.6105083 0.46583915 0.15607688
000110 fa f4 3f 3e ac 89 8f 3c 96 16 ce 3e d8 06 16 3f
       0.18745795 0.017521702 0.40251607 0.5860419
000120 06 e0 8f 3e 8a 5b 05 3f 16 bf 34 3e bc d5 2d 3e
       0.28100604 0.520928 0.17651019 0.16976064
000130 26 4d 12 3e 5c c7 8d 3e 64 8a 0b 3e 88 13 27 3f
       0.14287242 0.27691162 0.1362701 0.6526418
000140 0e c0 64 3e 4f e2 b1 be 78 17 fb be bd 89 99 be
       0.22338888 -0.34742972 -0.49041343 -0.29987898
000150 aa 51 49 3d bc 49 6c be 8b 8a c1 be 37 20 a5 be
       0.049150147 -0.23075002 -0.37801012 -0.3225114
000160 3c f8 ee be fb c8 9e be 53 d9 af be 01 93 9f be
       -0.46673763 -0.3101271 -0.34345493 -0.31166843
000170 88 29 08 bf 5b 25 a3 be be 0a ed bd 6d 97 37 be
       -0.5318837 -0.31864437 -0.115743145 -0.17928858
000180 90 45 35 bf 49 21 be bd 8c 6e 07 bf 0f fd df be
       -0.7080927 -0.092836924 -0.52903056 -0.43747756
000190 41 86 be be a9 14 95 3e e8 74 05 3e cf f9 ee 3e
       -0.37211803 0.29117325 0.13032877 0.46674964
0001a0 de 2e 72 bb 06 98 1a be e3 b0 f2 bc 1b 1f b3 3c
       -0.0036954205 -0.15097055 -0.029625362 0.021865418
0001b0 95 a1 60 bc 6a de 24 be 5c a1 39 be d6 f4 bd bd
       -0.013710399 -0.16100469 -0.1812796 -0.092752144
0001c0 15 dc 3d bd 5c 2a af bb 10 3b 4d be 81 29 9c 3e
       -0.046352465 -0.005345626 -0.20042062 0.30500415
0001d0 fb c1 97 3e 12 61 05 3e 59 24 24 3d 9a 9c f9 3c
       0.29640183 0.1302531 0.040073726 0.030470181
0001e0 bb 8a 87 3e c1 d5 af 3e f1 be 45 3e 76 a6 7c bd
       0.2647303 0.3434277 0.1931112 -0.061682187
0001f0 43 b8 63 3d 5b b1 02 3b b8 ac 89 bd 22 2a c2 3e
       0.055595648 0.0019942138 -0.067223966 0.3792277
000200 be 81 85 3b 24 51 90 bd 70 0c ee bd 47 7a 45 3e
       0.0040743044 -0.07046726 -0.11623466 0.19284926
000210 9f dc 85 3e 10 f1 8a be d3 f0 0e 3d 5a c7 e5 3d
       0.26144883 -0.2713704 0.034897637 0.11219664
000220 fb 2b 9b 3c 7f 59 43 be bf 2c 98 3e 43 95 a4 3d
       0.01894187 -0.19077109 0.2972164 0.08036282
000230 6b 49 75 3e 49 b3 24 bd 1d 66 72 3e 2c 21 9c 3d
       0.23953788 -0.040210042 0.23671766 0.076235145
000240 c7 53 1e 3e c1 88 c7 be 2b 9f 6a 3d d1 71 17 3d
       0.15461646 -0.38971522 0.0572807 0.03697378
000250 5c b3 4e bd 63 e8 05 3e f1 63 99 be 53 e6 99 3e
       -0.05046402 0.1307693 -0.29959062 0.30058536
000260 54 7a 85 3e e9 c3 0b be 59 fd d1 bd da b8 9c 3d
       0.2606989 -0.13648953 -0.102534 0.07652445
000270 c0 8a 64 3d 2b a7 53 3e 39 c0 bb bd 3d 19 3a 3e
       0.055796385 0.20669238 -0.09167523 0.1817369
000280 b8 30 b4 3c bb 15 33 be 3b f6 93 3d 3b cd f8 bd
       0.021995887 -0.17488758 0.07224699 -0.121485196
000290 3c af 2e 3d 37 58 b7 be cd b2 b1 3e 10 52 93 bc
       0.042647585 -0.3580949 0.34706727 -0.017983466
0002a0 c4 df 46 be 56 6c ad bd fc aa 4b 3e de 3d 87 bd
       -0.19421297 -0.08467929 0.19889444 -0.06603597
0002b0 b6 af 10 3e 36 bb ef 3b c9 9a 8a 3e b6 61 1e 3e
       0.14129528 0.0073160185 0.27071217 0.15466961
0002c0 1c 86 53 be 90 82 64 3d 6f 4b fb bd 3b 99 f7 3d
       -0.20656627 0.055788577 -0.12270247 0.12089773
0002d0 f5 66 b0 bc 2a bb f2 3b eb 29 4c bd 69 4c c8 bd
       -0.021533469 0.0074075656 -0.049844664 -0.09780199
0002e0 f0 6a 3f 3c d5 0a 48 be 95 3c 01 bd 79 61 1a 3c
       0.011683211 -0.19535382 -0.031551916 0.009422653
0002f0 b5 3c f0 bc a1 d1 6d 3d 0f 81 e9 3c 8a ac c7 bd
       -0.029325822 0.058061246 0.028503923 -0.09749706
000300 32 12 3d be 72 7b 4a 3d d5 dd 43 be 66 0f cc bc
       -0.18463972 0.049434133 -0.19127591 -0.024909686
000310 b5 c8 16 bd 33 27 63 be 93 e7 7f be 8f 4b 5e 3e
       -0.036812503 -0.22182922 -0.24990682 0.21708511
000320 79 51 a4 bc 89 6b 74 be b7 95 07 bd db 2a 84 be
       -0.02005838 -0.23869146 -0.033101764 -0.25813946
000330 5e 46 35 bc 56 07 04 be 3a 4e 7a bd ee 1c 34 3e
       -0.01106414 -0.12893423 -0.06110976 0.17589161
000340 bb 01 f4 3e 3a 94 7b 3e f6 d6 7a 3e f2 29 d7 bd
       0.4765757 0.24568263 0.24496064 -0.10506047
000350 08 28 f6 bd c7 13 08 bf a0 7b 33 be bc f8 73 be
       -0.12019354 -0.5315518 -0.17527628 -0.23825353
000360 86 3a b1 be cc 1a 05 3e 73 81 c3 bd bc df 8d 3b
       -0.34614962 0.12998503 -0.09546175 0.0043296497
000370 58 8c d7 3e 76 8b fe bd 08 a6 5c be 9f 05 bc bd
       0.4209926 -0.12428944 -0.21547711 -0.0918076
000380 3d cd b6 be 1f d4 45 bd dd 44 29 3e 79 97 eb bd
       -0.3570346 -0.048297998 0.16530176 -0.115035005
000390 b8 09 0c bd 33 40 e8 bd 96 1b e7 3d c5 2d 52 bd
       -0.034188956 -0.1134037 0.112845585 -0.05131318
0003a0 fb 13 e4 bd 3f d3 4c 3d c9 a0 a8 bd a3 dc 5b be
       -0.111366235 0.050006147 -0.08233792 -0.21470885
0003b0 0f da 98 3d 4a ee be 3b 73 5a 16 3d 55 06 43 be
       0.074634664 0.005826746 0.036707353 -0.19045384
0003c0 b3 b1 84 bc 4b 21 b0 3e 15 b7 1c 3e 5b bd 65 bd
       -0.016198015 0.344004 0.15304215 -0.056088787
0003d0 53 7f 06 be c6 d8 17 be 56 af 5c bc eb ce 7a bb
       -0.13134508 -0.14828786 -0.013469538 -0.0038270305
0003e0 ee 7c 9c 3d 59 59 ed bd 86 57 43 3e 41 01 5f be
       0.07641016 -0.11589307 0.19076356 -0.21777822
0003f0 72 32 24 3e 5a d3 68 be db c6 f3 bd 3e e2 17 be
       0.16034868 -0.22736874 -0.11903163 -0.14832398

bias f4 [64]
000000 c5 c8 ac bd 60 96 56 3e 8a e9 55 3f 50 b6 02 be
       -0.08436731 0.20955801 0.8355948 -0.12764859
000010 d7 e9 75 bd 22 ff 96 bd 50 38 fa be 63 a4 f0 bc
       -0.06003746 -0.073728815 -0.48871088 -0.02937526
000020 cf 28 93 bd 00 00 00 00 54 52 88 3f bf fb b3 bd
       -0.07185518 0.0 1.0650125 -0.08788251
000030 d0 3a 49 b9 96 30 29 bf a5 1c 8d 3f 77 8e 87 bd
       -0.00019190763 -0.6608976 1.1024367 -0.0661897
000040 9a 2a 7d bd 84 93 73 bd f6 e0 7d bd 42 36 fa bc
       -0.061808206 -0.059466854 -0.061982118 -0.03054345
000050 d4 94 91 bd e9 6b b3 ba 4e 77 0a bd 4f af 7a bd
       -0.07108465 -0.0013688776 -0.033805184 -0.061202344
000060 76 01 86 bd c0 9d d1 bd dc 3d 70 bd 4b a4 a3 bd
       -0.065432474 -0.102351665 -0.058652744 -0.07990321
000070 0f 36 9e 3c 48 d3 53 bd 50 cb 94 bd a5 03 1a be
       0.019312887 -0.051715165 -0.07265341 -0.15040453
000080 1e e9 7a bd 00 00 00 00 0b 7c f0 3e 3c 9b 3e 3f
       -0.061257474 0.0 0.46969637 0.7445562
000090 7e 2a 83 be 28 37 5b bd 6b d4 99 be 52 fb 50 be
       -0.25618356 -0.053519398 -0.30044875 -0.20408371
0000a0 b2 53 91 bd 37 3b 8d be 39 7d 7b bd 91 60 5e bd
       -0.07096042 -0.2758424 -0.06139872 -0.05429131
0000b0 d6 da 01 3d e5 a4 82 be 4b c9 11 bc ad ea ac 3d
       0.03170284 -0.2551643 -0.00889809 0.08443198
0000c0 00 00 00 00 35 24 8c bd 56 b1 f8 3c 88 17 0f be
       0.0 -0.068428434 0.030357998 -0.1397382
0000d0 27 bd ac 3e 47 3e 0c 3e e3 22 12 3f 07 8c 07 be
       0.33738062 0.13695632 0.5708448 -0.1323701
0000e0 99 88 be 3d 4c ba 00 be 14 bd 72 bd d7 d9 ab bd
       0.09303398 -0.12571067 -0.05926235 -0.08391159
0000f0 43 ce 42 3f 00 00 00 00 1d 2a cb be 8e 17 05 be
       0.7609598 0.0 -0.39680567 -0.12997267

weight f4 [64, 64]
000000 47 32 8e 3c 57 ae e6 3e 49 b0 3b be 58 86 ad 3d
       0.017357958 0.45054886 -0.18328966 0.0847289
000010 e4 9d 7f 3d 33 f6 f8 bd 35 31 65 be 7e 09 ae 3e
       0.062406436 -0.12156334 -0.22382052 0.33991617
000020 ff fb 29 3e b6 b4 2a 3e 02 e4 b4 3d 8f 03 a4 bd
       0.16600035 0.16670498 0.088325515 -0.08008491
000030 74 89 61 3d 37 14 9c 3e 1b 67 37 be 87 c4 4a 3e
       0.055062726 0.30484173 -0.17910425 0.19801532
000040 ea 1d 00 be 69 45 24 3e d9 1b 11 bf a2 ba c2 bc
       -0.12511411 0.16042103 -0.5668312 -0.023770634
000050 24 67 96 3d a6 07 1c 3e 4b 0d 3f bd 67 ef e6 3c
       0.07343891 0.15237293 -0.046643537 0.028190328
000060 98 41 ce bd 41 41 26 3e 5f af 5c 3e 48 3f 18 3c
       -0.10071105 0.1623583 0.21551274 0.009292431
000070 2b 60 06 bc bb 4c 3a bd d9 98 c6 3e bf 6d b1 3d
       -0.008201639 -0.045483332 0.38788489 0.086635105
000080 0d f2 c1 3a b1 39 af bc 8b 18 9f 3e 00 2a a8 be
       0.0014796868 -0.021389814 0.31073412 -0.32844543
000090 57 fd 46 bd 63 3a c5 3e ec fb ea bc 77 87 10 bd
       -0.048581447 0.38521108 -0.028684579 -0.03528544
0000a0 9c c0 a8 bd 96 12 fa be 71 aa 73 bd ca c0 c2 bc
       -0.08239862 -0.48842305 -0.059488717 -0.02377357
0000b0 46 78 40 bb 97 ac 15 3e 44 7b f3 3d b7 5e 4e be
       -0.0029368564 0.14616619 0.118887454 -0.20153318
0000c0 ef bb d6 3c 4c 90 95 bd fa 5e 04 3d b2 2c 8e be
       0.02621266 -0.07302913 0.03231714 -0.27768475
0000d0 d1 46 a2 3c cd b7 72 3e 2a 0d 16 3e bc a3 a3 be
       0.019809159 0.23702927 0.14653459 -0.31960857
0000e0 f5 dd d3 3e 12 d4 8f be eb c6 63 be 70 68 82 3e
       0.41380277 -0.28091484 -0.2224385 0.25470304
0000f0 ec 19 02 3e 5b fa cc 3e 42 92 84 3d 3a 49 7c 3b
       0.12705201 0.40034756 0.06473209 0.0038495795
000100 0a f8 9c 3d 9c 97 4d 3e 47 44 ba 3e f4 4e aa bd
       0.07664497 0.20077366 0.36380216 -0.0831584
000110 5d 3f 1d 3e 57 49 95 3d a9 03 c6 bd 77 58 2a 3e
       0.15356202 0.07289379 -0.09668667 0.16635309
000120 20 0f 94 bd 14 35 83 bd 3c cc bc 3e ac a4 8b 3d
       -0.07229447 -0.06406608 0.36874568 0.06818518
000130 bc a6 7f be 0d 3a 14 be 38 a3 87 3e ca 83 ae 3e
       -0.24965948 -0.1447527 0.26491714 0.34084922
000140 09 43 47 be 2e e7 86 ba 37 41 d7 bc 98 cd f2 3d
       -0.19459166 -0.0010292286 -0.026276214 0.1185562
000150 19 ce a4 3e 3a 53 04 be 6c 0a e8 3d 55 6a f1 be
       0.3218849 -0.12922373 0.11330113 -0.47151437
000160 79 c8 f4 bd a5 6c b9 bd 6f 86 cd 3d 95 80 06 be
       -0.119522996 -0.090539254 0.10035407 -0.13134988
000170 7e c7 f4 bd 18 f9 a1 3d 35 f6 9e 3e b0 9a bb 3c
       -0.119521126 0.07908839 0.31047216 0.02290091
000180 a5 fc 03 3d 6f 60 e2 bd 18 80 50 bd 1b 5d 6b 3e
       0.032223362 -0.110535495 -0.05090341 0.22984736
000190 3c 65 0b be 22 c0 1b 3d 85 52 c5 bd 2a 5b 0f be
       -0.13612837 0.03802503 -0.0963488 -0.1399962
0001a0 1a f9 ad 3e 07 b4 b9 bd 9b bd 7c be f5 59 c2 bc
       0.33979112 -0.090675406 -0.24681704 -0.023724535
0001b0 12 93 2b 3e 54 fb 1d 3d e3 00 76 be ce 5f 4a bc
       0.16755322 0.038569763 -0.24023776 -0.012351943
0001c0 4a 9a 76 3d 88 88 d9 bc dc 30 e6 3d 9d b0 43 3e
       0.060205735 -0.026554361 0.11239788 0.19110341
0001d0 31 a4 29 3e f3 c8 23 3e 37 8d 22 3e 2b c0 90 3c
       0.1656654 0.15994625 0.15874182 0.017669758
0001e0 71 c9 29 3d 40 0b 98 3d 84 ed c8 3c 7c 68 f1 3d
       0.041451875 0.07424021 0.024527319 0.11787507
0001f0 a2 85 1c 3f 06 a1 32 be e5 65 b5 3a b8 0f db bd
       0.6114141 -0.17444238 0.0013839571 -0.106963575
000200 5b 78 49 3c 08 83 24 3e 8a 4c de 3d fc d7 04 3e
       0.012296761 0.1606561 0.108544424 0.12973017
000210 e7 4e b7 bd ec 56 21 3e f6 a7 19 3f 44 47 b5 3d
       -0.08950596 0.15755814 0.60021913 0.088514835
000220 35 2c ba 3e 96 cb 0f bd 22 a4 41 3e ef 37 00 3e
       0.36361852 -0.035106264 0.18910268 0.12521337
000230 4d 1b 57 bc e3 fe 82 3e 12 47 8b 3d 1d e8 b8 bd
       -0.013129068 0.25585088 0.06800665 -0.09028647
000240 42 12 c2 bd 93 a6 7b 3d c1 0a 4c 3d 1f 82 35 3d
       -0.09476139 0.061438154 0.049814943 0.044313546
000250 d9 14 e3 bd 77 db 82 bd d6 d9 3b 3d a2 62 aa 3d
       -0.11087961 -0.06389516 0.04586204 0.08319594
000260 8c 9a af be 6f 9d 98 3c 3f 0a ef 3d 35 7d c4 bd
       -0.34297597 0.018629758 0.11671876 -0.09594194
000270 ac d0 28 3e 89 66 3e 3e 99 ac 62 be d4 2b 18 be
       0.16485852 0.18593802 -0.22136153 -0.14860469
000280 ec 44 0b bc a0 9d cb 3c d2 80 9e 3c 03 a8 18 be
       -0.008500319 0.024855435 0.019348536 -0.14907841
000290 ac 0e 21 3d 7a 55 23 be 4a f0 02 3e 9e e7 5f be
       0.039320633 -0.15950575 0.12786976 -0.21865699
0002a0 70 77 92 3d 09 9c 07 be ef fa 1c 3e 50 b6 3d be
       0.07151687 -0.13243116 0.15330099 -0.18526578
0002b0 e4 a9 9a 3d c2 8e 53 3e c5 62 d0 bc 86 70 7d 3e
       0.07551935 0.20659927 -0.025437722 0.24749956
0002c0 63 d8 aa be 74 4f 13 3d b0 bf f9 bd 33 51 98 be
       -0.33368215 0.035964444 -0.121947646 -0.2974945
0002d0 9f ff 8d 3e d8 5e 46 3e 32 12 01 bf eb 82 a0 3e
       0.27734086 0.19372118 -0.5041839 0.31349882
0002e0 f8 12 97 3c 13 c0 31 3d 91 b1 80 be 4e 38 74 3c
       0.018441662 0.043396067 -0.25135472 0.014906002
0002f0 15 3b 0e 3d 31 d5 05 be 0f eb a1 3c 74 ce 9a 3e
       0.034724314 -0.13069607 0.019765405 0.30235636
000300 88 03 e4 3d 08 af 45 3e 29 1e 31 3c e2 eb 92 bd
       0.11133486 0.1930505 0.010810413 -0.07173897
000310 31 29 95 3d b6 04 2c 3e 38 39 5d bd 2b 0e 16 be
       0.07283247 0.16798672 -0.054009646 -0.14653842
000320 37 79 9a bc 8c c2 1d 3d 1d de 9f 3d 33 3e 99 3d
       -0.018856628 0.038515612 0.078060366 0.07482567
000330 87 87 f8 3b 39 79 0d bd 95 1d a7 bd da d1 03 be
       0.0075845155 -0.034539435 -0.08159939 -0.12873021
000340 6a 5d 14 bd e1 63 b3 bd 0c e7 08 bf ae 44 d9 ba
       -0.0362219 -0.08759285 -0.5347755 -0.0016576254
000350 de 5d 0c 3d 6c 07 74 be 9c 3b 8e 3e e6 c2 e1 bd
       0.034269206 -0.23830956 0.27779853 -0.11023502
000360 86 df 02 be 96 48 28 3d cf 22 92 be e4 bd 30 be
       -0.1278058 0.04108485 -0.28542182 -0.17259938
000370 4d a7 a5 bc 0b d2 9b bd ee 31 0a be 35 a4 1e 3f
       -0.020221377 -0.07608422 -0.13495609 0.6196931
000380 02 60 63 3e a7 c7 24 be 21 23 56 3e cd 51 b5 3d
       0.22204593 -0.16091786 0.20911838 0.08853493
000390 d2 e5 3a 3d 44 c6 9f be f8 b3 d2 bd 0c 16 de be
       0.04562933 -0.31205952 -0.102882326 -0.43376195
0003a0 f7 77 d0 3d 5e ac e8 bd 95 ca 15 3e 54 89 8c be
       0.101791315 -0.113610014 0.1462806 -0.27448523
0003b0 48 91 e6 3d e5 22 04 3e f1 87 03 3e 25 53 01 bd
       0.11258179 0.12903936 0.12844826 -0.031573433
0003c0 13 4f 9f 3d f8 03 10 be 5b 83 13 3d 47 5a ca be
       0.07778754 -0.14064014 0.036013942 -0.39522
0003d0 0e b4 c4 be 00 00 00 3f a1 6f 54 3d 25 f8 14 3d
       -0.3841862 0.5 0.05186427 0.03636946
0003e0 0a 9d 57 3c 53 d9 f6 be 9c fe d1 3d 29 d1 94 3e
       0.01316 -0.4821268 0.10253641 0.29065827
0003f0 ef 98 2f be bb f2 02 3e 02 ec 3d 3d a8 23 73 be
       -0.17148183 0.12787907 0.046367653 -0.2374407

bias f4 [64]
000000 d9 31 2a bd bd 91 2e 3f 33 ff a5 bd 3c 76 07 3e
       -0.041551445 0.6819113 -0.08105316 0.13228697
000010 42 dc 87 bd 3e e3 9c be 66 a7 9c bd 1f 05 b8 3e
       -0.06633808 -0.30642122 -0.07649116 0.35941407
000020 64 dd 95 bd 3f d9 81 be 8b d3 d4 bc 69 38 1e bf
       -0.073176175 -0.25361058 -0.025979778 -0.61804825
000030 9d 24 6c bd 46 ed b6 3e e4 cc e7 3d 7d 99 ac be
       -0.057652105 0.357279 0.11318377 -0.33710852
000040 de 22 34 3f d1 84 0a be a9 7b 3c 3f 06 ef b0 3c
       0.70365703 -0.13527228 0.7362619 0.02159835
000050 f0 b3 63 bd 35 c3 af be 21 d9 7e bd a1 e7 9b 3d
       -0.055591524 -0.3432862 -0.06221879 0.07612539
000060 6b 26 33 3f c1 54 b4 bf 00 5f 48 bf 82 ce 71 be
       0.69980496 -1.4088365 -0.7826996 -0.23613933
000070 3e 13 95 3d e2 af 80 bd ea c5 37 3e bc 5a 86 3f
       0.07279061 -0.06283547 0.17946592 1.049644
000080 f6 42 ca bd f9 bf 28 3e 14 63 8b 3d fd 0e bb be
       -0.09876053 0.16479482 0.06806007 -0.36534873
000090 21 70 f2 3c 53 ff 92 3e c3 25 81 bd 58 da 05 3e
       0.029594483 0.28710422 -0.063060306 0.13071573
0000a0 8c cc 8e bd 16 4b 5a 3f 1b 83 53 be a6 f6 fe 3d
       -0.06972608 0.8527082 -0.20655482 0.12449388
0000b0 47 88 f9 3e de 4e b1 be 26 e9 aa be fe c8 9c 3f
       0.48736784 -0.34630483 -0.33381003 1.2248838
0000c0 11 1c cb bb 58 e6 63 bd 35 a1 4a 3e 9f 3d be be
       -0.006198414 -0.055639595 0.19788058 -0.37156388
0000d0 da 17 86 3e 6b 52 35 3f 67 1e a2 be a4 67 a2 bd
       0.26190072 0.70828885 -0.3166382 -0.07929924
0000e0 7d 75 aa bd 37 e5 9d be 51 1d 91 be 05 12 b4 3e
       -0.0832319 -0.3083894 -0.2834268 0.35169998
0000f0 65 75 92 be 27 83 0d bf d5 41 19 bf 99 91 09 3e
       -0.2860519 -0.5527825 -0.59866077 0.13434447

weight f4 [64, 64]
000000 c5 e1 89 bd d1 ca 11 3f bc 76 98 3d 28 51 8a ba
       -0.06732515 0.569501 0.07444522 -0.0010552751
000010 74 9d 13 3e 63 7f b4 3d 65 85 9c be c2 16 1a 3d
       0.14415532 0.088133596 -0.30570522 0.03761936
000020 6a 86 2b 3d f8 bd f9 bb a1 97 45 3f 3d df bd 3c
       0.041876234 -0.007621523 0.7718449 0.023177737
000030 eb c6 71 3c a3 22 c5 bc 41 65 19 be 90 a0 59 3e
       0.014756898 -0.024064368 -0.14980032 0.21252656
000040 cb 8b 1a bf 00 98 8c 3f ed ee af be 08 f8 9d bb
       -0.6036956 1.0983887 -0.34361973 -0.0048208274
000050 27 e8 82 3c a3 84 03 3e 36 a1 84 3e b2 cc f5 3e
       0.01597984 0.12843566 0.25904244 0.48007733
000060 63 6a 59 bf 08 91 a4 3a 53 a7 85 3c b8 82 27 ba
       -0.8492796 0.001255543 0.016315138 -0.0006390023
000070 9d d3 5f bc 7a 40 06 be 8e 1d c5 ba ac 9b 8e 3f
       -0.013661292 -0.13110533 -0.0015038715 1.1141257
000080 6e 61 51 be c5 bc c8 3c 9c 5b 73 3e e2 15 9d be
       -0.20447323 0.024504075 0.23765415 -0.30680758
000090 17 99 ad bd e0 a7 5a bd 70 f9 a1 3d cd da e7 be
       -0.08476465 -0.053382754 0.079089046 -0.4528412
0000a0 df b1 62 be 4b a8 7e bf 56 fd f1 bd d1 4d 43 3d
       -0.22138165 -0.99475545 -0.11815898 0.047681633
0000b0 f9 d2 f1 3b 54 81 08 3e ba df 91 bd c6 64 0d bf
       0.007379886 0.13330585 -0.071227506 -0.55231893
0000c0 e1 db 28 bc e0 fc 67 bd ff 25 82 bc 53 43 81 be
       -0.0103063295 -0.056637645 -0.015887259 -0.25246677
0000d0 ea db 18 be c7 a8 9b 3d aa f4 9d bd e1 1f b4 3a
       -0.1492764 0.07600551 -0.077126816 0.0013742411
0000e0 69 d8 f1 bd c5 34 16 be fd e9 a4 be c6 f3 4e bd
       -0.11808855 -0.14668567 -0.3220977 -0.05052545
0000f0 ec d3 6d be 1a 4d 92 bc 12 c8 17 bc 8a c5 41 bc
       -0.23225373 -0.01785903 -0.009264009 -0.011826882
000100 29 2d 25 be 33 35 0f bf 49 94 98 be 91 c1 3e be
       -0.16130508 -0.5594055 -0.29800633 -0.18628527
000110 26 ab 27 be b8 38 8c 3c cc 8a c1 3c 7a 94 67 be
       -0.16373882 0.01711689 0.023625754 -0.22615233
000120 0d 20 32 3d a0 bb 98 be 46 34 81 bd 72 7a 6b be
       0.043487597 -0.29830647 -0.063087985 -0.22995928
000130 c1 3c 16 3e 2a 82 09 bf 0e 6f 46 be 0f 5a f9 3d
       0.14671613 -0.5371424 -0.19378302 0.121753804
000140 0a 40 3a be a4 34 65 be e3 1c 1d be 2c 09 f2 3c
       -0.18188491 -0.22383362 -0.1534305 0.02954539
000150 60 55 59 be 98 ca af 3d 0e 52 8b 3c 62 fe ba be
       -0.21223974 0.085835636 0.0170069 -0.36522204
000160 63 5c c0 be 72 9f 05 bf 18 86 14 be c8 04 aa 3d
       -0.37570485 -0.5219642 -0.14504278 0.08301693
000170 83 d3 f3 3d 48 db be be c5 ec 2d 3c 3d b9 05 be
       0.11905577 -0.37276673 0.010615532 -0.13058944
000180 c7 32 55 3e 37 d7 b1 be a6 24 85 be 78 6a e2 be
       0.20820151 -0.34734508 -0.26004523 -0.44221854
000190 d8 42 d7 bd db 8e 91 be c5 1b 69 bd a4 01 a7 be
       -0.10510796 -0.28429303 -0.05691125 -0.3261844
0001a0 7f f2 25 bd 30 f6 4c 3e e0 cb 6b be 0c 52 3e 3e
       -0.040514465 0.20015788 -0.23026991 0.18585986
0001b0 1f ba a8 bd 42 50 54 be 05 a5 45 3e c9 a0 d5 be
       -0.08238625 -0.20733741 0.19301231 -0.41724232
0001c0 d3 03 2e bd 2c ef 27 3d 54 b6 b5 3b d6 bf 7c bd
       -0.042484116 0.040999576 0.005545417 -0.061706387
0001d0 9f c7 3e be 21 83 08 bd 45 2a 5f 3e 07 25 a5 be
       -0.18630837 -0.03332818 0.21793468 -0.32254812
0001e0 88 c3 a3 3d 61 68 a8 be 62 75 15 be 8e 12 aa bd
       0.07996279 -0.32892135 -0.14595559 -0.0830432
0001f0 9a 0c f7 bc e4 98 0d 3e 5b 36 db be af 9b 3f be
       -0.030157376 0.13827854 -0.42814907 -0.18711732
000200 c0 51 fe 3c e3 2b 8d 3e f4 dc b4 bd 0e a9 77 bb
       0.03104484 0.27572545 -0.08831206 -0.0037789973
000210 2d 36 ae 3d 44 42 13 3e 40 68 08 be ba 73 57 3d
       0.08506427 0.14380747 -0.13321018 0.0526006
000220 53 2f 5e 3e 2b 5c 37 ba c6 3a 37 3f 7e 7c a4 3c
       0.2169774 -0.000699463 0.71574056 0.020078894
000230 ec 23 98 bd 9c e5 56 3b 3d 38 03 bc 05 3b 58 3d
       -0.074287266 0.0032790666 -0.008009014 0.05279066
000240 aa 2e 16 bf e9 fc 9b 3f 1d 1e cd be 18 55 d3 bb
       -0.58664954 1.2186557 -0.40062037 -0.006449353
000250 04 ca 44 be 23 f6 48 3e ce 2e e9 3e b4 48 9f 3e
       -0.19217688 0.19625144 0.45543522 0.31110156
000260 c9 4c 9f bf 07 70 c8 39 a3 a3 f6 3c a5 de cd 39
       -1.2445308 0.0003823044 0.030107325 0.0003926653
000270 29 88 9b b9 f0 0c bf 3d 41 54 35 39 7a fd 54 3f
       -0.0002966535 0.093286395 0.00017292892 0.83199275
000280 53 28 44 be 06 78 af bb 90 15 9e 3e cf 6f a8 be
       -0.19156007 -0.005354884 0.30875826 -0.32897803
000290 52 67 a2 bd e9 86 e2 bc c5 6c 76 3e 1e 61 ee be
       -0.07929863 -0.02765222 0.2406493 -0.4655847
0002a0 ba 2c 4f 3e fd ea 83 bf d0 81 21 be 98 13 a6 be
       0.20231906 -1.0306088 -0.15772176 -0.32436824
0002b0 4c 68 5b 3c c6 ed d9 bd 54 29 de bc fb 79 24 bf
       0.0133915655 -0.10641055 -0.027119316 -0.6424863
0002c0 b1 81 1a bd 34 72 fa be ce 9d 94 bc b8 5c ea 3e
       -0.03772134 -0.48915255 -0.018141653 0.45773864
0002d0 6d c4 d6 bd bc 84 40 3c 12 b5 88 be d9 b9 16 ba
       -0.10486684 0.011750396 -0.26700646 -0.00057497394
0002e0 92 67 09 be 59 61 75 be 58 37 e5 3d 26 ba 83 3e
       -0.13418415 -0.23962916 0.111921966 0.25727957
0002f0 35 3c ac be 7d a4 a5 3a e6 7e ea b9 d5 69 b2 bc
       -0.33639684 0.0012637522 -0.00044726505 -0.02177898
000300 8f c3 70 3d 5f aa 57 bd 67 b3 07 be 9a 7e d4 bc
       0.05878025 -0.052652713 -0.1325203 -0.025939275
000310 93 ab b6 bd 90 fe 63 3b ee 70 7d 3d de 7c be 3c
       -0.08919444 0.0034789182 0.061875276 0.0232529
000320 0a c9 6f be d5 90 6b 3c 6e 49 9d 3b b4 60 33 bb
       -0.23416534 0.014377792 0.0048000133 -0.0027370872
000330 c0 bd 8b bd 40 eb c3 3c d7 e0 89 be fd cc 84 be
       -0.06823301 0.023915887 -0.26929352 -0.25937644
000340 97 8f c7 bf 48 29 94 be 13 24 d5 3d 74 75 04 bd
       -1.5590695 -0.28937745 0.10407271 -0.032338575
000350 35 25 8c bd 7e a7 96 be 7c 10 3e 3d 48 dd 21 bf
       -0.06843034 -0.2942466 0.04640244 -0.63228273
000360 3c b9 cd be 33 b8 6e bc d1 0a 93 3c d0 79 83 bd
       -0.40180385 -0.014570284 0.017949494 -0.06419718
000370 b8 6c 95 bd 05 d1 c0 3d 1e 90 ac 3d 7a 69 e9 bd
       -0.07296127 0.09414867 0.08425926 -0.11397071
000380 0f aa d5 be 04 ed d1 bb 65 3a e5 3e 3f 14 70 bd
       -0.41731307 -0.0064064283 0.44771114 -0.05861306
000390 e7 3e 9a bc fe 67 46 be 4c 51 e9 3e e0 64 64 be
       -0.018828822 -0.19375607 0.45569837 -0.22304106
0003a0 c6 65 08 3e 4f c5 74 be 4e 66 d4 3b 93 2d af bd
       0.13320073 -0.23903392 0.006481922 -0.085536145
0003b0 8a 4b d0 bf 3c 1e 1c be 56 0c 15 be 3f bb 8c 3e
       -1.6273053 -0.15245908 -0.14555487 0.27486607
0003c0 3a d7 37 3f 86 14 e4 be 1c ee 8a 3d c7 d2 56 be
       0.71812785 -0.44546908 0.06783697 -0.20978843
0003d0 ae 48 dd bc b0 d4 ae 3c bf b4 61 bd 31 ed d1 3b
       -0.027012195 0.021341652 -0.055104014 0.0064064492
0003e0 e0 1c ee bd da c1 6d 3f 05 a7 07 3e 24 54 78 bc
       -0.11626601 0.9287392 0.13247307 -0.015156779
0003f0 08 e9 40 bd 28 78 72 3c fe a7 4e 3e 5e f4 0a bc
       -0.047097236 0.014799155 0.20181271 -0.008481113

bias f4 [64]
000000 2a b8 58 be 42 f4 54 be f1 86 86 bf 7e 08 e6 be
       -0.21164003 -0.20796302 -1.0509931 -0.44928354
000010 bf cc d4 bd eb f5 06 3f cf f2 0b be 87 4c 99 bd
       -0.10390615 0.5271899 -0.13666843 -0.074852996
000020 29 39 9f be 51 08 d4 bd cc 2c 75 3f aa 49 8e bd
       -0.31098297 -0.10353149 0.9577148 -0.06947644
000030 5b 7d a2 bd bb 84 de 3e 12 ca 04 3f ea bb 93 bd
       -0.07934066 0.4346064 0.51870835 -0.07213576
000040 45 75 7c bd f4 71 fb bd 51 c8 48 3f 39 dc b6 bd
       -0.061635274 -0.12277594 0.7843066 -0.08928723
000050 a9 21 01 3f 49 2a 3f be 44 7e 45 be 16 a1 0e be
       0.50441986 -0.18668474 -0.19286448 -0.13928637
000060 f3 ed 98 3e 78 b0 12 3f 21 17 bb bd 52 9a be bd
       0.2986904 0.5730052 -0.09135271 -0.09306778
000070 3d 0b bf bd 15 a3 2a 3f 2f 2f 37 3e 8d cf b5 bd
       -0.093283154 0.66655093 0.17889093 -0.08877478
000080 a9 02 a7 3e 79 e4 c8 bd dc c0 49 3f 78 06 79 bd
       0.32619217 -0.09809203 0.78809905 -0.060797185
000090 d7 8e 14 3f 2d c5 66 bd 60 59 b3 be 0e 06 63 3e
       0.58030456 -0.056340385 -0.35029125 0.22170278
0000a0 2a d6 3f be 6f 0b 81 be 3c db 30 3f 9d 7a cb bd
       -0.18734041 -0.25204036 0.69084525 -0.09935496
0000b0 e1 55 08 3f 18 1c 2a 3f 7f 84 ff 3d a9 72 31 3f
       0.5325604 0.6644912 0.124764435 0.6931558
0000c0 74 31 2f 3e 5e a6 14 bc 84 fd 0e be b2 a7 bf 3e
       0.17108709 -0.009072868 -0.13963896 0.3743263
0000d0 51 fd 1e 3f 04 0a 1d bf d8 94 22 be ad 33 bf bc
       0.6210528 -0.6134341 -0.15877092 -0.02334007
0000e0 8a 7b 5a 3f aa d5 5b 3d 07 ed f0 3b d8 f2 71 be
       0.85344756 0.053670563 0.0073524746 -0.23627794
0000f0 d3 10 00 3d 25 33 b5 be 5e f9 28 3f 5e a3 d6 bf
       0.031266045 -0.35390583 0.66005504 -1.6768606

weight f4 [64, 64]
000000 63 1d c9 3e 00 0f 55 3f fe 65 b7 be cb f7 3d 3e
       0.39280233 0.83226013 -0.3582 0.18551557
000010 58 07 17 be 9b 98 38 3b 8e 86 ab bd 2d 2e 13 bd
       -0.14748895 0.0028167132 -0.08375274 -0.03593271
000020 3f 02 8f 3d 82 c2 2e 3c 14 75 2f 3d ca 34 c8 bb
       0.0698285 0.010666491 0.042836264 -0.0061098086
000030 f0 4a cc be 25 5b bc bd 64 67 54 3e 8b 38 34 3d
       -0.39900923 -0.09197072 0.20742565 0.043999236
000040 c0 d2 3d 3d 5b b4 f6 3d 3c ee cb 3d ed e8 60 3e
       0.046343565 0.12046119 0.09957549 0.21963854
000050 47 97 0c 3e 07 50 71 3d d7 46 b8 bd a2 60 06 3e
       0.13729583 0.05891421 -0.08997887 0.131228
000060 43 56 f6 3e 4f 3e c3 3e e4 55 83 bd 2c 3e 83 bf
       0.48112687 0.38133475 -0.06412867 -1.0253348
000070 4d f0 d3 be 91 b8 8f 3a 62 f1 90 bf 78 a8 1b 3f
       -0.41394272 0.0010965039 -1.1323664 0.6080394
000080 28 fb dd 3d 11 ea 48 3d 84 ff 04 be f2 47 77 be
       0.1083892 0.049051348 -0.12988096 -0.24148539
000090 87 bb f7 3b b1 c3 dd 3b 4b 4a 1e be 80 5d 98 3e
       0.007560197 0.006767713 -0.15458028 0.29758835
0000a0 e3 4c 7c be ca 4d 5f 3f 1f 72 35 3d c0 32 8f bc
       -0.24638705 0.8722807 0.044298287 -0.017480254
0000b0 11 cb 56 3d 91 95 3a 3d 15 11 2a bc 44 90 e6 3e
       0.052439753 0.045552794 -0.010380049 0.4503194
0000c0 03 9d b4 3e 5c 74 9f bd 95 67 7b 3c 25 a0 6a 3e
       0.3527604 -0.07785866 0.01534452 0.22912653
0000d0 46 2f 81 3d 9e ee 09 bd 56 ac d9 3e ee 28 cb bc
       0.06307845 -0.03367483 0.42514294 -0.02479979
0000e0 d5 8f ac be f7 b7 ab bd 65 98 32 be 13 6f df 3b
       -0.33703485 -0.08384698 -0.17440946 0.006818661
0000f0 e3 93 dd bc 7e 74 ac bf 25 95 6a be c1 c3 0d bc
       -0.027048057 -1.347305 -0.22908457 -0.008652628
000100 d3 ed a2 3e a0 5b a8 be 4e 54 ac 3d 54 18 86 3c
       0.3182207 -0.32882404 0.08414517 0.016369022
000110 c0 ab 34 3e 4c 2b e5 3e 75 6b 52 3e 7c 0c 67 be
       0.17643642 0.44759595 0.20548804 -0.22563356
000120 5e cb e7 bd 82 90 b4 3d 75 b3 31 be ef cc 1e bf
       -0.11318086 0.08816625 -0.17353614 -0.62031454
000130 cf 85 ce be 65 0e 4b be ad 11 52 3e fd 71 22 3d
       -0.40336463 -0.1982971 0.20514555 0.03965949
000140 5e 7a b9 3d 60 8c 63 3c e8 fe f5 be a2 23 ec bc
       0.09056543 0.0138884485 -0.4804604 -0.028825585
000150 d9 f4 b4 bc 94 e0 52 be 23 a1 62 3e ef f9 b5 3d
       -0.022089409 -0.20593482 0.22131781 0.08885562
000160 d4 6e 88 be d6 ef 02 bd 2e 5d 09 3d ad 1c 52 bb
       -0.26647055 -0.031967007 0.03353613 -0.003206055
000170 79 f3 83 3b 17 3a 90 bc ad fc 34 bd a1 47 dd 3d
       0.004026827 -0.017605824 -0.044186283 0.10804678
000180 7e 03 11 bd f1 8d ea bc ca b3 e8 bd a3 e2 b3 3c
       -0.03540372 -0.028632136 -0.11362417 0.021958655
000190 08 33 83 40 b4 5b ab 3e 3e 87 de 3d 84 fb 83 be
       4.0999794 0.334684 0.10865639 -0.2577783
0001a0 04 d2 d0 bd 71 6c 17 3e 3f b3 e7 3e 6b 6b 09 bd
       -0.10196307 0.14787461 0.4525394 -0.033549707
0001b0 f6 04 64 bc 6e 10 72 be 6c 15 b6 3e 00 00 00 3f
       -0.013917198 -0.2363908 0.3556322 0.5
0001c0 ae f1 e8 3d 68 86 fb be 05 33 f1 3b 75 ec 3b 3e
       0.11374222 -0.4912598 0.0073608183 0.1835192
0001d0 55 13 35 c0 78 2f 29 bd 9a 9c 3b 3e ab 93 31 bd
       -2.829305 -0.041305035 0.18321458 -0.043353718
0001e0 ee 34 b4 bd 54 90 90 be 9e 6a 98 3d c9 fa a9 bc
       -0.08799158 -0.28235114 0.074422106 -0.020749466
0001f0 dc 72 ae 3e bd 33 2f 3c bb 18 b0 3c cd 8a c4 3d
       0.34072006 0.010693488 0.021496167 0.09596787
000200 61 77 25 be 74 c9 88 3e 42 40 45 be d8 78 0f 3d
       -0.1615882 0.26716197 -0.19262794 0.035027355
000210 8e 2f 53 bd f7 21 7e be 70 a3 ab be ee 89 53 be
       -0.051559024 -0.24817644 -0.3352313 -0.20658085
000220 e9 5e 19 3e a3 d6 16 3d 21 94 03 be 58 d1 81 be
       0.14977612 0.036825787 -0.12849475 -0.2535503
000230 0e e5 60 bd eb 47 76 bd 4d 99 0b bf 42 b6 9f be
       -0.054905944 -0.06012718 -0.54530793 -0.3119374
000240 3c 8b b7 bd e1 68 b1 3b 86 26 8c 3d f5 6f 85 be
       -0.08962104 0.005414114 0.06843285 -0.2606198
000250 05 13 bc 3e c8 e5 22 3d fb 7a 6b be 86 e6 f2 3b
       0.3673326 0.039769918 -0.22996132 0.0074127344
000260 ea 47 06 be 04 28 0c bd 40 b3 1e be a0 3b 6d be
       -0.1311337 -0.03421785 -0.15498066 -0.23167276
000270 5a a6 87 3d 81 e7 9c 3e 74 38 83 bd da f2 3d 3e
       0.06623526 0.30645373 -0.06407252 0.18549672
000280 db 7b 9f 3d 88 f3 42 be 00 2f a2 3d 53 2d 95 bd
       0.077872954 -0.19038212 0.07919121 -0.072840355
000290 78 40 66 be b9 22 e6 3d 74 32 d7 bd 7d 88 c7 be
       -0.2248553 0.112370916 -0.1050767 -0.3897132
0002a0 32 1a 21 3d a0 a4 b2 be 65 01 d1 be 0d aa b4 3e
       0.039331622 -0.34891224 -0.40821376 0.35285988
0002b0 79 dc e0 bd 9f ae 30 be 33 30 61 3d 18 c5 69 be
       -0.10979552 -0.17254113 0.054977607 -0.22829092
0002c0 28 f3 48 ba b6 88 86 bd ba 55 de bd 0f f9 f2 3d
       -0.00076656276 -0.06569044 -0.10856195 0.118639104
0002d0 b2 a6 ac be d3 ca 8c 3e 8e 9d 82 be f9 f4 87 3d
       -0.33720928 0.27498493 -0.2551083 0.06638522
0002e0 2b 11 80 bc f9 4e cc be 33 40 4c 3e 10 f1 96 be
       -0.015633186 -0.39904 0.19946365 -0.2948079
0002f0 7b ce 33 3b 3e 36 ce bd 71 1b 02 be 6e 19 89 bd
       0.0027436304 -0.100689396 -0.1270578 -0.066943035
000300 79 26 fa 3e 25 27 6e 3e a6 ea b4 3e 30 88 95 3e
       0.48857477 0.2325712 0.35335273 0.29205465
000310 bd d4 e0 3b 04 72 c8 be 14 4d 17 bd ee 0f aa bd
       0.006861298 -0.39149487 -0.03693874 -0.083038196
000320 99 74 2e be f9 6f 05 bf d7 52 4e bd 4c 6a 93 3e
       -0.17036666 -0.5212398 -0.05037197 0.28792036
000330 59 49 0f 3e b8 03 ff 3c f3 3a 0d 3e 0e e2 d8 3d
       0.13992824 0.031129703 0.13792019 0.105899915
000340 1b 77 11 3d 10 79 4c 3e 36 de 12 3e 97 b4 30 bc
       0.03551398 0.19968057 0.14342579 -0.0107852435
000350 17 bd aa 3e 79 0d 8a be 59 34 fe bd 23 ca 82 bd
       0.3334739 -0.26963404 -0.12412328 -0.06386211
000360 4b 62 e0 3d e3 ca a7 3f 6a fa e2 be 79 92 7e be
       0.10956248 1.3108791 -0.44331676 -0.24860562
000370 79 6b b1 3e f2 44 ba bd 73 27 7c be 8e 44 d0 3d
       0.34652308 -0.090951815 -0.24624424 0.10169326
000380 f8 35 62 3d bc 33 61 bf 57 c6 e1 3d d7 84 03 3e
       0.05522725 -0.87969565 0.110241584 0.12843643
000390 f1 f5 82 3d b7 e6 75 be ac 11 dd 3d 7b 0b 82 3e
       0.06394566 -0.24013792 0.10794386 0.25399384
0003a0 eb 06 1b be 0f 45 aa 3e 67 45 84 be 30 70 50 bc
       -0.15139358 0.33255813 -0.258342 -0.01272206
0003b0 b3 47 c8 bd 2c 79 4e 3e ff 1a ee bc 15 49 f2 3e
       -0.097793005 0.20163411 -0.029065607 0.47321382
0003c0 b4 2a 8e 3d c0 9c 2e 3d 7d d5 0a 3c ce 4b c2 be
       0.06941739 0.042629957 0.008473751 -0.3794846
0003d0 74 3d be bd 74 06 b5 3c 90 f5 9f be 74 06 20 bf
       -0.09289065 0.022097804 -0.31242037 -0.62509847
0003e0 0f 7c 28 be b2 eb 91 ba e7 a9 ab be bc a1 0b 3e
       -0.16453575 -0.0011132865 -0.33528063 0.13635916
0003f0 2f 51 ad be 14 14 22 bf 36 c2 f2 bd ad d3 bd 3d
       -0.33851 -0.63311887 -0.11853449 0.092688896
