transfer/dampedSpring/modelv0_weights.pth (torch, 15101 bytes, 8 tensors)

fc1.weight f4 [32, 2]
000000 31 2a 38 bb fa cc bb be 59 08 0c bf 2f ae 23 3f
       -0.002810132 -0.36679822 -0.5470024 0.6393766
000010 16 d4 b5 be f1 9f 77 bd 13 9f d7 be 72 e1 ab bd
       -0.3551337 -0.060455266 -0.42113551 -0.0839261
000020 f0 0b 71 be 73 6b 54 3e bd 45 cb be 62 a7 d2 3d
       -0.2353971 0.20744114 -0.39701644 0.10285832
000030 2c 26 9a be b5 b3 0d be 9c df 3d 3e 84 66 af 3e
       -0.30107248 -0.13838084 0.18542331 0.342579
000040 23 f2 de bd 0c 7b c9 be 80 46 c9 be 62 9e 8c 3d
       -0.10886028 -0.3935169 -0.393116 0.068661466
000050 24 03 a8 be 6a 07 5a 3e 01 31 99 3c fb aa f0 be
       -0.32814896 0.2129189 0.018700125 -0.47005448
000060 c3 71 d7 be a8 5c 86 bd 6e 55 73 be dc 63 60 3e
       -0.4207898 -0.065606415 -0.23763058 0.21913093
000070 59 d9 33 bc 72 86 c1 be 52 ae 52 3e 7a 49 e5 be
       -0.010977113 -0.37797886 0.2057431 -0.4478262
000080 ce 9c 0d be 24 94 b0 be 23 08 b1 3d 0e 96 b8 3e
       -0.13829347 -0.34488022 0.0864413 0.36051983
000090 6c fd 06 3f 66 77 89 bb 90 3c f0 be 4b 5a 52 bd
       0.5273044 -0.0041951416 -0.46921206 -0.05135564
0000a0 40 ef b8 3d f9 8e ba 3e a5 31 dc bd 6a fc bc be
       0.09030008 0.36437204 -0.107516564 -0.36911327
0000b0 c8 9f 61 3e e2 6a 88 3e 67 2a c8 bd c1 f3 8e be
       0.22033608 0.26644045 -0.097737126 -0.27920344
0000c0 4e 35 cd 3d 81 11 ec be b6 bd d9 be c9 14 a3 be
       0.10019933 -0.46107104 -0.4252755 -0.31851795
0000d0 f0 99 94 3e c6 cd 5c 3e d2 92 a5 3e 3c e6 83 bd
       0.29023695 0.21562871 0.32338578 -0.06440398
0000e0 0b 83 a5 be 52 46 08 3f a5 10 94 3e 46 2f dc be
       -0.3232654 0.532323 0.2891895 -0.43004817
0000f0 b0 04 c5 bd ac 22 ca be 4f 19 92 be eb 0c 2f be
       -0.09620035 -0.39479578 -0.28534934 -0.17094772

fc1.bias f4 [32]
000000 fd a7 6d 3e 81 25 cb be 40 74 b5 bd bf 0b 20 be
       0.23208614 -0.3967705 -0.088600636 -0.15629481
000010 d5 d8 c9 3f 6a 29 f4 be 93 8b 1c 3f 52 a4 d6 3f
       1.5769297 -0.47687846 0.61150473 1.6768897
000020 de 90 dd 3e 54 09 95 3f 33 a4 8d be c2 b3 de 3f
       0.43274587 1.1643472 -0.27664337 1.7398608
000030 a1 e5 ed 3f df 75 52 3f 72 8e 36 3f 43 7f 94 3e
       1.8585702 0.82211107 0.71311104 0.29003343
000040 a7 df 6a 3b c5 17 7d 3f f1 e7 f3 3f 4c 42 38 c0
       0.0035838874 0.98864394 1.9055158 -2.8790464
000050 61 62 1e 3f a5 7c 32 3e 4d 04 07 3f c2 a9 a0 be
       0.61868864 0.1743036 0.5274094 -0.31379515
000060 b4 1f 06 c0 b4 c6 cc be cb 11 83 3f 6b 1a a2 bf
       -2.095685 -0.39995348 1.0239805 -1.2664312
000070 d2 0c e2 3e af 06 a8 bf 23 3e fa 3e c5 41 53 bf
       0.44150406 -1.312704 0.48875532 -0.8252223

fc2.weight f4 [32, 32]
000000 27 ef ac 3d 7a 18 d5 be 73 4b 64 bf a5 45 45 bf
       0.08444052 -0.41620237 -0.89177626 -0.77059394
000010 a5 ba 45 bf a2 fd 0d bf c7 2d 36 bf e1 41 72 3d
       -0.7723792 -0.5546514 -0.711636 0.05914486
000020 de 5b 41 bf 14 a2 57 bf 74 bb 1d bf 93 c1 ce bc
       -0.75530803 -0.84231687 -0.61614156 -0.025238788
000030 b4 54 8f bf 78 89 2e bf cf c8 40 be bc 86 95 be
       -1.1197724 -0.6817851 -0.18826602 -0.29204357
000040 de 66 29 bf aa 9c 28 3f ed f8 1f 3e 86 aa 92 be
       -0.6617259 0.6586405 0.15622301 -0.28645724
000050 c6 76 bf 3d cd a4 1d bf 28 81 88 3e 46 ed a3 bc
       0.09348826 -0.6157959 0.26661038 -0.020010602
000060 ac 8f 86 bd b1 b3 00 bf 61 62 2c be 28 b4 55 bd
       -0.06570372 -0.5027419 -0.16834404 -0.052173764
000070 72 54 7f 3e 3a b5 a0 3e 63 87 0b bf 35 18 b2 bc
       0.24934557 0.31388265 -0.5450346 -0.021740058
000080 f4 b1 28 be d1 26 30 be 6a f1 cc 3e 6c cf 93 3e
       -0.16474134 -0.17202307 0.40027934 0.28869188
000090 53 d2 51 3e 7c c4 0e be 6d 8e b5 3e 8e 57 11 3f
       0.20490389 -0.1394214 0.35460225 0.5677422
0000a0 9c 9f e9 38 6d ab 88 3e 85 d1 5b 3e 09 f0 f4 3d
       0.00011140035 0.26693287 0.21466644 0.119598456
0000b0 b8 ba 5c 3f 15 1d 29 3e 4d 95 91 be f3 bb 8a be
       0.8622241 0.16515 -0.2843422 -0.2709652
0000c0 16 45 27 bf 6a 1c 98 3f 74 4b fb 3e 85 51 0f bf
       -0.6533979 1.1883671 0.49081004 -0.55983764
0000d0 0a 77 83 3f 99 a7 61 be fd 01 7a 3f 40 45 a4 be
       1.0270703 -0.2203659 0.97659284 -0.32084084
0000e0 d0 2d 8a bf 5b e1 4e bd ed e1 ab 3f 27 8a 85 be
       -1.0795231 -0.050507884 1.3428322 -0.26081964
0000f0 2b a8 3f 3f d9 a6 5e bf e0 61 ac bd c4 a5 57 be
       0.7486598 -0.8697334 -0.08417106 -0.21059328
000100 86 3f ed 3e 86 64 02 bf 08 3f 87 be a0 5e 11 bf
       0.46337527 -0.50934637 -0.26415277 -0.5678501
000110 89 77 da bd ed ad 91 be d7 0f 5d be 79 b9 5e 3e
       -0.10667331 -0.28453007 -0.21588074 0.2175044
000120 db 90 d3 3e 10 07 07 bf 8f dd 8f be df 26 b1 3e
       0.41321453 -0.5274515 -0.28098723 0.3459997
000130 03 ef 96 be a0 b2 1e bd 9a d7 9e 3e 7e e1 41 3f
       -0.29479226 -0.03874457 0.31023866 0.757347
000140 cf 16 31 be 31 21 29 3f a3 14 87 3f e4 5a c3 bf
       -0.17293857 0.6606627 1.0553173 -1.5262113
000150 ee 9d 27 3f fb 3a 22 3e 87 59 32 3f fc d0 1a 3e
       0.65475357 0.15842812 0.6966786 0.15118784
000160 58 5a 1b bd 07 de 3a 3f 63 6e 47 3f f2 1c be bd
       -0.037927955 0.72995037 0.7790281 -0.09282865
000170 b9 af 45 3f c2 67 08 3d 21 d5 80 3e 96 4f 3d bf
       0.77221256 0.033302076 0.25162604 -0.73949564
000180 3f f8 93 be 80 da 38 be c8 bd e1 bd 10 8e ac 3d
       -0.28900334 -0.18052101 -0.11022526 0.08425534
000190 8c c6 e1 3e df fb e0 bd d7 51 71 3e a0 f0 c8 3e
       0.44096792 -0.109855406 0.23566376 0.39246082
0001a0 15 65 c9 bd b0 3c 85 3e 84 b4 8d be fe 67 84 3a
       -0.09833733 0.26022863 -0.27676785 0.0010101793
0001b0 18 6f f3 3e 31 6c d5 3d 0b b8 d3 3d 51 88 9c be
       0.47545695 0.104210265 0.10337838 -0.3057275
0001c0 fa b4 1d be 25 4d a5 3f 58 cf 41 3f 61 99 52 bf
       -0.15401068 1.2914168 0.75707006 -0.8226529
0001d0 d0 ad 70 3f 68 fb 0c 3e ad d9 bd 3f 1c 3b e3 be
       0.94015217 0.13767779 1.4832054 -0.44381034
0001e0 ef 7f 85 be ab 37 04 bf f6 1c 60 3f 32 6b 6f 3e
       -0.26074168 -0.5164744 0.8754419 0.23380736
0001f0 d7 60 03 3f 59 20 c7 be 67 0d fb bd 83 bf a6 be
       0.5131964 -0.38891867 -0.12258416 -0.32567987
000200 29 13 f3 be 9b af bd 3e 06 25 56 3e fa 61 3f bd
       -0.47475556 0.3704804 0.20912561 -0.046724297
000210 07 93 e1 3d 93 bc ee 3e bb 01 c4 3d d6 5d 10 bf
       0.11014371 0.46628246 0.095706426 -0.5639318
000220 fc 5f e2 be 29 34 08 be 97 54 2a 3f 38 22 45 bf
       -0.44213855 -0.13301148 0.66535324 -0.7700534
000230 34 ba 80 3e c3 25 3f be 79 75 bd be bc 87 2d bf
       0.25142062 -0.18666749 -0.37003687 -0.6778524
000240 29 ff 25 bf 7a 75 86 3e 51 20 15 bf 12 08 25 3f
       -0.6484247 0.26261503 -0.58252436 0.6446544
000250 f1 4e 2f 3d 6b aa a0 be bc 37 7f 3e 72 f1 c6 be
       0.042799894 -0.3138002 0.24923605 -0.38856083
000260 59 02 49 bf 3b e5 1e 3d 06 56 07 bf fa fa 92 bd
       -0.7851921 0.03879283 -0.52865636 -0.07176776
000270 e4 00 c3 3d c7 42 12 bf 10 95 d9 be 4e ba 2b 3f
       0.09521654 -0.57133144 -0.42496538 0.67081153
000280 0d ea 37 be c2 29 12 3e 4c ab 30 be ed 15 71 be
       -0.17960377 0.14273742 -0.17252845 -0.2354352
000290 ef bf bd 3e d0 f8 61 be 70 91 93 3c 99 49 91 3e
       0.37060496 -0.2206757 0.018013686 0.28376463
0002a0 2f 34 10 bf 58 b4 96 3e c6 e5 28 3e 63 19 87 3d
       -0.56329626 0.29434466 0.16493902 0.06596639
0002b0 41 da 90 3e 1b d9 a2 bd c8 ff 0c bf 05 9a ab be
       0.28291515 -0.07951566 -0.5507779 -0.33515945
0002c0 4d 05 47 bf 90 5a 8c 3e e7 7f d7 be 8b ad 5f 3e
       -0.77742463 0.27412844 -0.4208977 0.21843545
0002d0 28 45 2f 3f bf bc 53 bd 3b d9 07 3f 12 72 58 be
       0.684649 -0.051693674 0.5306584 -0.21137264
0002e0 76 b8 3e bf a0 59 62 be 51 bf 29 bd 5b 9c 5d bc
       -0.74500215 -0.22104502 -0.04144222 -0.013526048
0002f0 2d 6f 43 3d 67 b7 14 bf 8f f9 ba bd 33 65 f0 bd
       0.047713447 -0.5809235 -0.09129631 -0.11738052
000300 d1 ce 14 3e 8f df 68 bd 11 4b 28 3e a6 7c e6 3e
       0.14532019 -0.056853827 0.16434886 0.45016974
000310 e5 91 30 be e9 1d 12 3e 3e 34 7e 3e d8 fb 2b 3d
       -0.17243154 0.14269222 0.24824616 0.041988224
000320 63 6c 2b 3f a4 fe a0 3e b4 9c ab 3e 9c 70 50 3e
       0.6696226 0.31444275 0.33517992 0.20355457
000330 b8 20 9a bc ba ef 88 3e 94 78 9d be f5 82 bf 3e
       -0.01881443 0.26745397 -0.30756056 0.374046
000340 79 a2 88 3e 11 08 ae be 2b 96 04 bf 12 17 97 3e
       0.26686457 -0.3399053 -0.5179164 0.2950979
000350 49 14 c9 be 38 dd 8d be 3e af 39 bf 80 bb d5 3e
       -0.3927329 -0.2770784 -0.72533023 0.41744614
000360 37 1e 57 3c 62 77 5d 3d 17 c3 0a bf c2 5e ec be
       0.013129762 0.05406893 -0.54203933 -0.46166044
000370 f2 0a 8b 3d 87 11 7b be 6e 8e 0d 3e 63 db 77 3e
       0.06789197 -0.24518405 0.13823864 0.24204783
000380 d3 dc 0d 3f 10 9c 38 3e 18 c5 06 bf 56 e5 26 be
       0.55415076 0.18028283 -0.5264449 -0.16298422
000390 62 86 25 be ba 0b aa be d5 8f 75 3e ac 11 7c 3e
       -0.16164544 -0.33212072 0.23980649 0.24616116
0003a0 75 86 6b 3f 98 f0 2c 3d d4 58 ab bd f5 f7 ef bd
       0.9200204 0.042221636 -0.08366552 -0.11717216
0003b0 f4 5d bc bd 5f 46 ed bd 03 03 0e 3f 09 e0 e5 3d
       -0.09197608 -0.11585688 0.55473346 0.11224372
0003c0 b7 fb 51 3f 82 97 80 be 3f e7 23 3f 49 cd 07 bf
       0.8202471 -0.2511559 0.6402473 -0.53047615
0003d0 42 7c 11 be 76 47 bd 3e 3d da b4 be 61 29 4f be
       -0.14207557 0.36968583 -0.35322753 -0.20230629
0003e0 01 ba a9 3e 13 87 c4 3d f0 0f 13 bf 4c 6e 53 be
       0.33149722 0.09596076 -0.57446194 -0.20647544
0003f0 51 c5 3c bf 38 ee 0a 3e 8b d1 2f 3f 55 d3 92 3e
       -0.7373858 0.13567436 0.6867911 0.2867686

fc2.bias f4 [32]
000000 46 b4 5b 3e 88 b4 d0 3e 1b 86 f6 3e 5b 7b 1d 3f
       0.21455488 0.40762734 0.4814919 0.6151635
000010 84 15 e2 bd 11 f0 70 3d fb f9 26 be 5d 92 92 bd
       -0.1103926 0.058822695 -0.16306297 -0.07156823
000020 fb 4a f7 3b 9b 60 4d be 4f ec 8e be a1 68 0a 3e
       0.00754678 -0.20056383 -0.27914664 0.13516475
000030 13 1e dc 3d a2 f6 ba 3e 00 00 a9 be 94 75 32 be
       0.10747924 0.3651629 -0.33007812 -0.17427665
000040 64 59 87 3e ec ca bc be a2 b6 96 3d d9 3e f2 3d
       0.26435387 -0.36873567 0.07359053 0.118283935
000050 b6 14 8e 3d ee a0 4f 3b 60 cb 8f 3d 80 73 ec bc
       0.06937544 0.0031681615 0.070212126 -0.028863668
000060 ec c0 ba be 3a b1 67 bc 8b a2 4f be 2c 54 10 be
       -0.36475313 -0.014141375 -0.20276849 -0.14094609
000070 53 29 21 3f da ef b7 bd 33 bb c6 3d ff c8 22 be
       0.6295368 -0.08981295 0.09703674 -0.15896986

fc3.weight f4 [32, 32]
000000 78 0c 8e 3c ec 2d b7 3d b2 8c b0 be 6e ec c8 bd
       0.01733993 0.08944306 -0.34482342 -0.098107204
000010 9e 49 6d 3f f8 4b 03 3f 8e ee 93 be 2b fd 59 bf
       0.92690456 0.51287794 -0.2889294 -0.8515193
000020 7f 09 59 3d 88 b7 dc be e6 f4 69 bf 74 c6 07 3c
       0.05298757 -0.43108773 -0.9138931 0.008287061
000030 e8 4f 97 3e e2 8a 61 be eb 6d 3c be c3 76 a1 be
       0.2955315 -0.22025636 -0.18401305 -0.3153592
000040 20 03 2c 3f 34 1f 60 3f 58 dc e5 3e f6 02 44 be
       0.6719227 0.8754761 0.4489467 -0.19141755
000050 73 b7 d1 3e 88 7b 23 bf 2b 99 56 3e e8 2a 09 bf
       0.40960273 -0.6386037 0.20956866 -0.53581095
000060 b2 ca c4 be 67 46 a3 be ad 23 28 bf a7 9d 28 bf
       -0.38435894 -0.3188965 -0.65679437 -0.6586556
000070 8d 67 63 3f 83 55 de 3d 24 9d 46 3e 3b 5a 71 3e
       0.8882988 0.10856154 0.19395882 0.23569576
000080 e9 04 33 3e 71 53 2d bf 63 9f 05 bf 58 22 c7 3b
       0.17482342 -0.67705446 -0.5219633 0.006077092
000090 96 6f c1 be cd 21 0c bf b8 c1 db bd 0e cf 40 3f
       -0.37780446 -0.54739076 -0.10730308 0.7531594
0000a0 37 6e a2 3e 28 88 5b 3d dc 89 9d be 5e 27 63 be
       0.31724712 0.053596646 -0.3076924 -0.22182986
0000b0 0d 19 f1 be 56 b3 70 bf 09 43 0e 3f e9 00 15 be
       -0.47089425 -0.94023645 0.5557104 -0.14551128
0000c0 df 31 c9 bf 85 ae eb 3e f2 a2 e8 be 50 a6 0f 3f
       -1.5718344 0.46031585 -0.45436817 0.5611315
0000d0 51 34 16 bf c7 2b 43 3e 96 aa 51 be 20 b7 cc 3e
       -0.5867358 0.19059668 -0.2047523 0.39983463
0000e0 e0 f0 14 3f 92 9c cb 3e 85 a3 84 3e c2 de a0 3e
       0.58180046 0.3976789 0.25906006 0.3141995
0000f0 9a b3 27 bf aa f6 86 be e9 b0 06 be ee b5 b1 be
       -0.65508425 -0.26360065 -0.13153423 -0.34709114
000100 79 a3 f2 be f9 d4 9a be 6f 7d b7 3d 7d f8 da be
       -0.47390345 -0.3024061 0.089594714 -0.42767707
000110 fd ce 65 bf 0d cb 25 bf 42 8f 9b be 35 30 e3 3e
       -0.89768964 -0.64762956 -0.30382735 0.44372717
000120 1b 8b 68 be 5b 09 4c 3e 11 45 e2 3e b8 3a a5 3e
       -0.22709315 0.19925444 0.44193318 0.3227136
000130 65 10 15 bf d7 ad 89 be 4b 35 4b 3f ae 26 63 be
       -0.5822814 -0.26890442 0.79378194 -0.22182724
000140 07 a2 90 bf 56 49 85 bd 46 af a1 be b1 c9 ca 3e
       -1.1299447 -0.06508128 -0.31579036 0.39607003
000150 a4 74 3e 3d 68 a9 43 3e b1 eb c8 3e ef 61 10 3f
       0.046497956 0.19107592 0.39242318 0.56399435
000160 a8 7b 4c 3e 05 88 96 3e ee 94 cb 3d 64 b7 47 3e
       0.19969046 0.2940065 0.099405155 0.19503552
000170 42 19 b9 be 8a d4 4b 3d 68 cc 80 3d 8d de c5 3d
       -0.36152083 0.04976324 0.062889874 0.09661589
000180 e2 27 af bf e3 fb 53 be c2 35 58 bf fd b7 c5 be
       -1.3684046 -0.20701556 -0.8445703 -0.38616934
000190 38 38 eb 3e e9 6a 8e 3d e0 ee 4a 3e 3c a3 04 3e
       0.4594133 0.06953985 0.19817686 0.12952894
0001a0 4b 08 28 bf b2 2d 0d 3f 3c 59 95 be 3a 1b 23 bf
       -0.65637654 0.5514785 -0.29169643 -0.6371342
0001b0 53 78 28 bf 7a 36 ec 39 07 5b ca 3e ab 73 1f 3e
       -0.658086 0.00045054016 0.39522573 0.15571468
0001c0 b5 79 3d 3e bf c7 df 3e f3 19 dc be 65 5b 24 bf
       0.18503459 0.43707082 -0.42988548 -0.64201957
0001d0 cb 16 86 bd 4f f5 2a 3e 07 bb 28 bf a1 5e fc be
       -0.06547316 0.1669514 -0.6591038 -0.49290946
0001e0 47 fa d0 3e 6f c1 4c bf 4a 0d 15 3e 22 33 ba 3e
       0.40815946 -0.79982656 0.1455585 0.36367136
0001f0 9f 70 87 be c9 af 47 3e 8a d7 32 bf 3a cb 23 be
       -0.2645311 0.1950065 -0.69860137 -0.15995494
000200 52 51 84 3e 2d 70 cc 3d 85 74 65 3e 1d 8d 4b 3f
       0.25843292 0.09982333 0.2240773 0.79512197
000210 04 23 d2 3e 84 ba 45 3e 47 f4 e8 be 40 40 3f bd
       0.4104234 0.19309431 -0.4549887 -0.046692133
000220 d4 dc 8f 3d 0f f8 03 bf d8 d0 42 bf 02 d0 4d 3f
       0.070245415 -0.5155038 -0.7609992 0.8039552
000230 ab 06 9c 3e b4 32 a0 3d 2f 87 48 bf ad d2 58 be
       0.30473837 0.07822171 -0.78331274 -0.21174116
000240 1c 7d e3 3e cd 62 28 bd 8e d0 40 3e 3c f5 b9 3e
       0.44431388 -0.04110985 0.18829557 0.3631991
000250 ad b3 d4 3d 52 cb f2 be f0 14 d9 3e fe c3 e7 3e
       0.10385833 -0.47420746 0.42398787 0.45266718
000260 b4 a5 d6 be 64 ea d4 3e 8a 68 67 be f3 01 88 be
       -0.41923296 0.41585076 -0.22598472 -0.26563987
000270 10 ab 81 be e7 b2 9a be 7a 2f 86 3e 0d 7c f5 bd
       -0.25325823 -0.30214617 0.26208097 -0.119865514
000280 85 04 cc 3e 41 ad 51 3d b4 fc ae 3e 4c 4c b4 3e
       0.39847198 0.05119062 0.34177172 0.3521446
000290 2b 85 b7 be 59 e0 23 3e 3f 61 c3 3c cd ff 99 bd
       -0.35843787 0.1600355 0.023850081 -0.07519493
0002a0 04 a5 a1 bd 7a 05 20 be 29 99 bc bd 27 d8 da 3e
       -0.07892802 -0.15627089 -0.092089005 0.42743036
0002b0 bf 41 1d be 22 5b e2 be e2 02 44 be d3 5e f1 be
       -0.15357111 -0.44210154 -0.19141725 -0.47142658
0002c0 4f 0d 2b 3e 2d 4d 14 bf 4e 51 da 3e d6 d2 c0 3e
       0.16704296 -0.5793026 0.42640156 0.37660855
0002d0 ea 53 07 3f b7 ba a5 be 63 c0 18 3f 46 33 a8 3e
       0.5286242 -0.32369015 0.5966856 0.3285162
0002e0 e0 b0 b3 be 54 15 01 3f b4 63 3c 3a b5 1d db be
       -0.35095882 0.5042317 0.0007186488 -0.42796102
0002f0 30 5e d4 3e 44 1a 3f 3e ff 39 9f 3e cf ca 90 3e
       0.4147811 0.18662363 0.31098935 0.2827973
000300 a5 8a 72 bf 02 c0 7f be 31 32 4f be f8 91 ea be
       -0.94742805 -0.24975589 -0.2023399 -0.4581449
000310 79 4e 57 bf a9 ac 44 bf 6e bf df bd e5 c4 59 bd
       -0.84104115 -0.7682596 -0.10925184 -0.05316629
000320 83 6b cb 3e d4 97 aa 3e 2e 21 04 be 1e c4 e6 bd
       0.39730462 0.3331896 -0.12903282 -0.11267875
000330 a0 10 44 bf 62 ee a9 be 5e 30 0c be 86 65 5b 3c
       -0.7658787 -0.33189684 -0.13690326 0.013390904
000340 5b d0 90 bf 5c 0e 1f 3e 58 6c 11 3e 70 53 b8 be
       -1.1313585 0.15532821 0.14201486 -0.36001158
000350 f2 4c 0b bf 4a d2 03 be 5f 58 b0 bd 03 be 00 3f
       -0.54414284 -0.12873188 -0.086106054 0.50289935
000360 c3 7e b4 3e a0 2a bb 3e d7 e0 35 3f bf b1 e9 bd
       0.35252962 0.36555958 0.71046203 -0.114108555
000370 b0 b1 d8 be a3 4b 31 bf f3 61 2a 3f 19 b3 a8 3e
       -0.42323065 -0.6925604 0.6655571 0.3294914
000380 49 a4 18 3d c2 51 37 bf a9 03 26 be df d7 1e bf
       0.03726605 -0.7160913 -0.16212334 -0.62048143
000390 0f 9e 12 bf 01 14 40 be 61 45 01 3e 05 2c 41 3e
       -0.5727243 -0.18757631 0.12624122 0.18864448
0003a0 dc 5f a5 bd 28 a9 02 3f b6 52 a9 3e e2 7b bd 3d
       -0.08074924 0.5103936 0.33070916 0.092521444
0003b0 9c 1a 92 bf 68 c4 67 bf 07 51 05 3c c8 5a 74 3e
       -1.141437 -0.9053407 0.008136994 0.23862755
0003c0 3a 60 87 bf 75 71 d5 bd 53 ea 13 3c 87 51 f5 3e
       -1.0576241 -0.10422031 0.009028035 0.47913763
0003d0 e6 55 15 bf 35 e9 ff 3e e2 ac 98 be 12 a8 cb 3e
       -0.58334196 0.4998261 -0.298194 0.39776665
0003e0 33 36 95 3e b7 41 21 3f 3e 38 d9 3b ac 4d 13 3e
       0.29142913 0.629909 0.006629019 0.14385098
0003f0 da cd 31 bf 80 47 52 bf 6c 61 9b 3e b0 06 a8 be
       -0.6945473 -0.8214035 0.30347764 -0.32817602

fc3.bias f4 [32]
000000 f8 d8 f8 bd 12 92 eb bd ab ce 7d 3c f3 41 3c 3d
       -0.121507585 -0.1150247 0.015491168 0.04596133
000010 65 d3 cb bd f0 dd 7a bd 85 71 80 bd 02 c9 5a 3d
       -0.0995243 -0.061246812 -0.06271652 0.053414352
000020 b8 e5 77 bd 2c 98 a5 bd a1 be 22 3e 88 c7 41 3c
       -0.06052181 -0.08085665 0.15893032 0.011827357
000030 b2 54 e5 bd 6e 7c 93 bd e2 25 cd bd 22 20 d2 bd
       -0.11197795 -0.072014675 -0.10016991 -0.10260035
000040 3c 69 11 bc 5a 51 08 bd 39 9d 8f 3c 67 f5 f9 bd
       -0.0088751875 -0.033280708 0.017531024 -0.1220501
000050 9b bd aa bd 71 d2 5e 3d e7 62 c0 bd 2a 62 09 be
       -0.083369456 0.05439991 -0.09393864 -0.13416353
000060 65 ec b8 bd e0 d3 68 bd a1 ab 53 bd 5f 46 2e 3d
       -0.09029464 -0.056842685 -0.05167735 0.04254758
000070 4f bc fd bd 7c b7 29 bd fb 3c 9b bd 1f 00 55 3e
       -0.12389433 -0.04143475 -0.075799905 0.20800827

fc4.weight f4 [20, 32]
000000 1b f9 73 3f ee 66 b6 be 82 c9 35 bf bc bd 58 bf
       0.9530198 -0.35625404 -0.710106 -0.8466451
000010 44 8a 5b 3f 65 32 40 3e bc 55 14 bf 6b 3a 21 bf
       0.8575785 0.18769224 -0.5794332 -0.62979764
000020 ae fb 88 3f 5c 61 52 bf 2c 8f 4c 3f 04 18 62 3f
       1.0701807 -0.8217981 0.7990596 0.88317895
000030 eb 8b 01 3f 26 ea 68 bf 1f df 7b 3c 24 79 9a 3d
       0.5060412 -0.9098228 0.01537302 0.07542637
000040 f8 63 07 bf f7 85 c7 be b6 1e 3c bf d1 57 88 bf
       -0.52886915 -0.38969395 -0.7348436 -1.06518
000050 9c 10 b7 3f b1 40 9b bf 4d c9 76 3f d0 33 48 3f
       1.4301944 -1.2129117 0.9640091 0.7820406
000060 75 dd c7 be 5a 2c 1b 3f 62 f0 0c bf 77 b2 9c 3f
       -0.39036146 0.6061455 -0.55054295 1.2241963
000070 17 11 08 bf 7f a6 fc be e3 e0 a9 bc 1f ae 8a bf
       -0.5315108 -0.49345776 -0.020737117 -1.0834388
000080 04 fd 7c 3f f6 06 83 bf c0 23 5d bf 0f e1 98 3e
       0.9882357 -1.0236499 -0.86382675 0.29859206
000090 f1 f2 f8 3e 7b 04 37 3b eb de 20 bf b8 66 45 bf
       0.4862285 0.0027926255 -0.62840146 -0.7710986
0000a0 8e b9 f2 be 83 2a 8f 3d 7a 1b b6 3e d3 91 84 3f
       -0.47407192 0.0699053 0.35567838 1.0357002
0000b0 51 38 41 bf 22 1b fe be 46 07 bf 3e af 7d 5e 3e
       -0.75476557 -0.49630076 0.37310237 0.21727632
0000c0 f0 55 23 bf 7d ea 47 3f 6f a4 0c 3c 17 e9 d3 be
       -0.63803005 0.78092176 0.008584126 -0.4138877
0000d0 90 03 a5 be 36 22 8c 3d 4c ad 35 3e ed 09 fa be
       -0.3222928 0.06842463 0.17741889 -0.48835698
0000e0 84 be 2d 3e a5 9b 36 3f c4 46 3c bf 2e e1 02 3f
       0.16967207 0.71331245 -0.7354548 0.51124847
0000f0 57 ba d2 3e 8c 12 50 bf 4b 1d 87 3f 49 55 57 bd
       0.4115779 -0.812783 1.0555815 -0.05257157
000100 16 a2 81 3e 77 af 1a 3e b7 40 e3 be 7e df 19 3f
       0.25318974 0.15105997 -0.4438531 0.60106647
000110 c8 7f 13 bf e4 43 0f bf 6a 02 c6 be d1 7c ab be
       -0.57616854 -0.5596297 -0.38673717 -0.33493665
000120 c7 4d 71 bf 7c ef e0 3e 79 d7 cc be cb 46 2e 3f
       -0.94259304 0.43932712 -0.40008143 0.6807677
000130 6a 16 f7 be 12 a0 e5 bd 66 69 c5 3e 60 47 fa 3e
       -0.48259288 -0.112121716 0.38556975 0.4888258
000140 c4 f9 fb be 20 b2 10 3f 52 ad 63 3f 29 35 cf bd
       -0.49213994 0.565218 0.8893634 -0.10117561
000150 bf af 22 bf c1 f2 03 3f b6 96 88 be 86 37 16 bf
       -0.6354942 0.5154229 -0.26677483 -0.5867847
000160 85 36 37 3f 88 d4 a3 3d 8a 50 1e bf 91 04 d9 3e
       0.71567565 0.079995215 -0.6184164 0.42386296
000170 34 dc d0 3e 6d b5 b4 be 37 fa 12 be 23 92 9a 3f
       0.40793002 -0.35294667 -0.14353262 1.2075847
000180 ef cc ad be 92 77 8d 3e 9c 78 01 3e 7b 66 09 3f
       -0.33945414 0.27630287 0.12643665 0.53672
000190 60 a9 bf be 15 80 eb be d3 11 2c bd f1 a1 8d 3e
       -0.3743391 -0.45996156 -0.042009186 0.27662614
0001a0 b9 61 62 be 45 19 1b 3f b5 de 3a bf b1 c2 d8 3b
       -0.2210759 0.60585433 -0.72996074 0.006615006
0001b0 a0 7d 48 3e 62 71 4d 3e f6 8f 74 3e d3 df 76 3e
       0.19579172 0.20062783 0.23883042 0.2410882
0001c0 f2 91 d6 3e 81 c4 0e bd c2 95 0a 3f a6 12 98 bc
       0.41908222 -0.03485537 0.5413476 -0.01856358
0001d0 e8 91 be be e0 fa 16 3f d0 39 61 bf 67 a8 01 bf
       -0.37220693 0.58976555 -0.8797884 -0.50647587
0001e0 26 89 b4 3e 39 13 dc be 70 5a 66 be 23 c2 65 be
       0.35260886 -0.42983416 -0.22495437 -0.22437339
0001f0 1f f0 8b bd db 74 51 3e ce e4 8e be e8 59 83 3f
       -0.06832909 0.20454733 -0.2790894 1.0261812
000200 ad d7 27 bf 5c 5c 04 3f 23 a4 b2 3e c9 c6 f6 3d
       -0.6556347 0.5170343 0.3489085 0.12049634
000210 7e 4c da bd f7 5b d4 be 57 bb cb 3c c3 59 9a 3e
       -0.10659121 -0.41476414 0.024869604 0.30146608
000220 ae 7c 3e bd c7 a1 95 3d 36 1b 67 be c4 02 03 bf
       -0.046505623 0.07306247 -0.22568974 -0.51176095
000230 06 7e ce bc 4d d0 a3 3e b6 ac 1d 3e 26 1a 54 be
       -0.025206577 0.31994858 0.15397915 -0.207131
000240 24 66 11 3f c2 fc 87 be 08 c1 c9 bc 92 fb 28 3d
       0.5679648 -0.26560026 -0.024628177 0.04125554
000250 48 d2 6d be d9 fe a2 bd 74 a9 b8 bd 8e 35 88 3e
       -0.23224747 -0.079587646 -0.090166956 0.2660336
000260 9e 29 2e be 6c d3 99 be ff 2d e9 3e ff 12 23 be
       -0.17008063 -0.30044115 0.45542905 -0.15925215
000270 13 e9 8d be 35 9e 35 3f a8 05 21 be 7f cc 66 bd
       -0.27716884 0.7094453 -0.15724814 -0.056347366
000280 8b 2b c7 3d d9 03 01 3f bb 97 d7 3e ae db 05 be
       0.09725102 0.50396496 0.4210795 -0.13072082
000290 2d 59 f8 3d 63 9b f1 be 06 07 29 3f 6f f8 00 3d
       0.12126384 -0.47188863 0.6602634 0.031486925
0002a0 27 25 fe 3e a3 67 de bd 7e 1b c6 3d 1e 6e 3f bf
       0.4963772 -0.10859611 0.096732125 -0.747774
0002b0 4e a9 44 3e 69 45 5a 3d 25 44 12 be fd e0 b9 be
       0.1920521 0.05328885 -0.14283808 -0.36304465
0002c0 4e a4 f8 3e 60 c1 10 be eb e5 a7 bd 0e 23 22 3e
       0.48562855 -0.14136267 -0.0819815 0.15833685
0002d0 b2 74 1c 3f 19 d6 31 bf fe f9 1a bd 11 be c7 3e
       0.6111556 -0.6946731 -0.037836067 0.39012197
0002e0 8c 80 17 bf 66 7f 71 3c c9 07 0e 3d 54 5b 3f bd
       -0.5918052 0.014739847 0.034675393 -0.046717957
0002f0 47 7f 77 be 90 6f 23 be 04 bf 2f 3e a4 de b4 be
       -0.24169646 -0.15960526 0.1716271 -0.3532611
000300 87 90 95 bd 44 34 82 be f3 44 dd 3d c4 a6 15 bf
       -0.07302957 -0.254305 0.10804167 -0.5845759
000310 6b 4f be 3e 4e 8c 81 3e 3f 6c 32 3d 6d 69 d7 3d
       0.37169966 0.25302356 0.043560263 0.10518155
000320 a6 51 4e 3e 4a ac c2 bd e1 f8 b8 3e 72 25 2e 3e
       0.20148334 -0.09505518 0.3612738 0.17006472
000330 18 bc cf 3d b8 49 02 bc 52 d4 6e bd 56 d6 ba be
       0.10143298 -0.007952146 -0.058307953 -0.3649165
000340 10 1c 89 be ae 1a 79 be 4b 93 b0 be 15 5b 76 be
       -0.26779222 -0.24326584 -0.34487376 -0.24058183
000350 57 d2 71 3e 2e 99 63 be 74 51 89 3e b5 21 fb 3d
       0.23615395 -0.22226402 0.26819956 0.122622885
000360 62 d5 c3 3d b9 2a 5d 3c b0 74 97 3d db f0 a6 3d
       0.09562184 0.013498955 0.07395303 0.08151408
000370 88 2a f1 3d 24 f7 b8 3d 67 d3 cf 3d 8a 81 dd be
       0.1177569 0.09031513 0.10147744 -0.43262893
000380 00 70 bf 3d 50 c3 82 bd 22 72 fc bd e5 3f 55 be
       0.09347534 -0.06384909 -0.123264566 -0.20825155
000390 e0 62 d2 be 3e 89 db bd 90 51 d7 3b a9 7d af be
       -0.4109106 -0.10719536 0.0065710023 -0.3427556
0003a0 69 c9 d2 3d 87 17 e4 be b2 c5 0b 3f ef a1 fe 3d
       0.10292322 -0.445492 0.54598534 0.1243323
0003b0 ae f6 ad bc bb 3f d5 be 22 09 27 3e 82 c1 d7 be
       -0.02123579 -0.41650185 0.16312078 -0.42139822
0003c0 c1 e7 43 be 3f c0 0b 3f ad 93 95 bd de 24 b9 3b
       -0.19131376 0.5459022 -0.073035575 0.005650147
0003d0 e5 c9 8f 3e 6a cf 9a 3d 95 e7 fc 3e a2 fe 31 3e
       0.2808372 0.07559092 0.49395433 0.17382291
0003e0 09 97 b4 3e 7a bf 21 3e d3 3c 90 be 5c 07 00 be
       0.3527148 0.15795699 -0.28171405 -0.12502807
0003f0 c6 14 50 3c 07 5c c1 bd f4 ac 26 bd 1e d3 65 3a
       0.012700265 -0.09441381 -0.040692285 0.00087671157

fc4.bias f4 [20]
000000 e8 c4 1a 3e c5 32 bf 3c 3d 21 31 bd cc 7f 71 bd
       0.15114176 0.023339638 -0.04324459 -0.058959767
000010 65 49 9f 3d 6a 71 86 bd 2d f7 1a bb 05 cc 21 3d
       0.07777671 -0.06564601 -0.0023645863 0.03950121
000020 d0 c1 71 39 fc 72 21 bd 73 d5 80 bc 1b 2b c3 bd
       0.00023055752 -0.0394163 -0.01572678 -0.09529706
000030 bd b8 1f 3d 6a b0 0d 3c 40 25 b7 bb bb aa 8c 3d
       0.03899454 0.008648017 -0.0055891573 0.06868502
000040 39 a8 11 3d 72 20 db 3c cc a4 3d 3d b5 ab d4 3c
       0.03556082 0.02674887 0.04629974 0.025960783
