transfer/dampedSpring/data/transfer_finetuning_SEKF/SourceSystemPretraining_model_weights.pth (torch, 13651 bytes, 8 tensors)

fc1.weight f4 [32, 2]
0.062185142 2.2638772 0.29493684 -0.087786436 0.11726414 0.43992013 -2.5427992 -0.10843602
-0.024334747 -2.603847 -0.62987334 0.061998487 0.42975238 -0.09978592 0.048395265 2.1130822
-0.54071903 0.13336398 -2.361351 -0.09177831 0.5540368 -0.034181897 -0.064538084 0.52380294
-0.48864868 0.105757594 -0.50292015 0.17376868 2.4717956 0.075900674 2.0644057 0.08524608
-0.07289613 -0.4471052 0.22360978 -0.41949302 -2.5563734 -0.121237434 0.08447525 2.6766806
-0.054217607 -0.65720403 -0.65492475 0.08834499 0.5408306 0.024098387 -0.10156052 0.10958192
-0.13866499 -0.5269637 0.24467783 0.24411798 -0.0074887737 -0.7011755 -2.2629743 -0.09061177
0.46272036 -0.033129863 -0.040349383 -3.0650957 -0.070468694 -3.6616628 0.10470744 1.8561274
00000000: d9b5 7e3d 5de3 1040 f601 973e 60c9 b3bd
00000010: 2e28 f03d 363d e13e 39bd 22c0 b413 debd
00000020: aa59 c7bc 6ea5 26c0 613f 21bf 20f2 7d3d
00000030: 8108 dc3e 8f5c ccbd 1d3a 463d bd3c 0740
00000040: 906c 0abf 9190 083e 6020 17c0 44f6 bbbd
00000050: 5bd5 0d3f 5102 0cbd 8b2c 84bd f317 063f
00000060: 2930 fabe 7097 d83d 60bf 00bf 6bf0 313e
00000070: e631 1e40 d071 9b3d 391f 0440 7f95 ae3d
00000080: 914a 95bd f9ea e4be f6f9 643e cac7 d6be
00000090: 9f9b 23c0 554b f8bd 5c01 ad3d bc4e 2b40
000000a0: 4813 5ebd 863e 28bf 26a9 27bf 38ee b43d
000000b0: e073 0a3f fb69 c53c f6fe cfbd 7c6c e03d
000000c0: 32fe 0dbe 18e7 06bf d38c 7a3e 10fa 793e
000000d0: 6364 f5bb 3d80 33bf 92d4 10c0 aa92 b9bd
000000e0: afe9 ec3e 2eb3 07bd 6545 25bd 872a 44c0
000000f0: e451 90bd af58 6ac0 db70 d63d 9595 ed3f

fc1.bias f4 [32]
5.3041024 -13.494413 -8.124973 -2.5510085 10.269319 -13.8733635 -13.674226 1.1837505
-13.701879 2.9728072 -13.594608 -13.362673 -13.581135 -13.716114 -11.690755 5.8930693
-14.123387 -13.697405 -13.503901 11.160991 -13.989944 -14.370107 -13.078217 -13.544914
-13.864874 -13.766299 -13.801825 6.2819405 -13.851104 6.8616505 3.750004 -10.300924
00000000: 35bb a940 1ee9 57c1 e4ff 01c1 b943 23c0
00000010: 214f 2441 4cf9 5dc1 a1c9 5ac1 2385 973f
00000020: e53a 5bc1 7942 3e40 8483 59c1 82cd 55c1
00000030: 544c 59c1 3475 5bc1 550d 3bc1 0694 bc40
00000040: 65f9 61c1 9228 5bc1 fa0f 58c1 6b93 3241
00000050: d0d6 5fc1 f5eb 65c1 6040 51c1 f8b7 58c1
00000060: 86d6 5dc1 c342 5cc1 46d4 5cc1 a805 c940
00000070: 1f9e 5dc1 a492 db40 1100 7040 96d0 24c1

fc2.weight f4 [32, 32]
-0.029204557 -1.8934205 -0.653399 4.882158 -0.080830544 5.6393886 -2.8790433 -0.010482031
2.1949117 4.01687 -4.283807 -0.37401852 1.9194919 1.8008914 -50.06185 -3.720081
0.39489546 -2.4562197 20.724262 -0.15623842 -0.23653094 8.845584 -5.9610744 0.3969566
1.110667 -2.054037 0.07552173 1.6071783 -2.1853092 -0.0147276055 0.02025397 -0.087038994
0.02867974 -0.4758792 0.007095212 3.997318 -0.028892675 0.67769635 -0.5970999 -0.018833838
0.43514583 0.803785 -2.5285883 -0.014780737 0.42149946 0.39945462 -35.858265 -3.4253564
-0.0068650735 -0.053776454 29.196419 0.018432088 0.06675494 1.7759469 -3.9140625 -0.0020928448
0.18255083 -2.145252 0.1580127 -0.7781982 -0.48239553 -0.015903212 -0.006731066 -0.21135008
-1.1166041 -0.8383744 -1.0644768 -1.6690265 -2.4249446 -0.7531621 -0.63442934 -0.6353076
-0.7083196 -4.0842104 -0.8298503 -1.0059578 -1.0928941 -0.539051 -1.9096097 -2.5742998
-1.0639882 -1.1247725 -0.32169 -1.9212776 -0.73005635 -0.49422836 -1.6516727 -2.5271451
-0.807541 0.6612545 -0.32608685 -5.9351845 -0.33007938 -1.2963898 -1.595949 -0.13153799
-43.63478 -0.31905708 -17.439001 0.36817792 -0.34136912 -0.87146366 -0.14552017 -22.132046
-0.5745523 -0.33512792 -0.055299107 -13.032241 -0.97314954 -0.8786599 -0.2803787 0.19962955
1.4467643 0.05950211 -0.3908961 -15.809892 -0.2002166 -0.74290764 -0.34213063 -4.9019437
-0.31330284 -7.387004 -0.22278588 -0.48550645 -0.27134833 -0.2632285 -0.2492268 -5.586757
-0.033273824 -0.6370531 -0.12950093 45.275948 0.13377963 4.7702827 -0.6732238 0.033460446
-0.12872039 50.274338 -0.71090233 -0.23431867 1.1235129 0.24747239 -6.1820927 -0.049648926
1.8208771 -0.46033618 11.374807 -0.117280446 0.47351092 12.82602 -0.3248027 -2.734347
-0.42642513 -1.9495645 -0.21644787 5.814859 -0.8119772 -0.09021233 -0.00065432535 0.42982966
59.731373 -0.1679269 43.819347 0.11423486 -0.33230808 0.08246347 -0.075987734 27.758808
0.19144085 0.12807839 -0.62528616 21.512526 0.10286912 0.32269382 -0.2952998 0.062189896
-0.19866891 -0.61822706 0.37081933 3.5825806 -0.8726483 0.6522569 -0.3239604 1.4140334
-0.4726628 5.9380784 -0.6422104 -0.18572387 -0.08748654 -0.025164679 -0.4944555 8.151715
5.245665 -0.14706382 12.603733 0.04379569 -1.2224977 -0.0821164 -0.1375694 50.26558
-0.035465237 -0.012131652 -0.10474606 9.330561 -0.06333122 -0.04347414 -0.05776591 0.03761604
-0.97125477 -0.30569085 0.16833618 4.3984356 -0.70491236 -0.03476273 -0.018464578 0.55645496
-0.51092607 0.26593637 -0.54346836 0.012182172 -0.20009817 -1.0587677 -1.3515589 13.839502
-66.70028 -0.58346254 -37.64337 0.2651629 -1.209288 0.07409033 -0.22812979 -6.9832273
-0.16982847 -0.42726892 -0.2910519 -6.464049 -0.104641356 0.04248652 -0.39703283 0.21017985
1.4466149 0.2912566 0.6571755 -48.29403 0.7547522 -0.20688179 -0.57845527 -1.1062473
0.33370462 -0.2233257 0.2900992 -0.17624696 -0.5459201 -0.93851346 -0.6854639 -0.75601983
00000000: 653e efbc 9a5b f2bf 2845 27bf a33a 9c40
00000010: 7c8a a5bd df75 b440 3f42 38c0 d3bc 2bbc
00000020: 6f79 0c40 338a 8040 f214 89c0 5b7f bfbe
00000030: e9b1 f53f 9c83 e63f 563f 48c2 cf15 6ec0
00000040: bd2f ca3e b432 1dc0 4acb a541 f7fc 1fbe
00000050: 2b35 72be 8387 0d41 1fc1 bec0 e53d cb3e
00000060: 562a 8e3f 5875 03c0 23ab 9a3d 05b8 cd3f
00000070: 1bdc 0bc0 0e4c 71bc a7eb a53c 8041 b2bd
00000080: c6f1 ea3c 70a6 f3be f47e e83b 0fd4 7f40
00000090: 55b0 ecbc 827d 2d3f 8adb 18bf 6c49 9abc
000000a0: 6fcb de3e dbc4 4d3f 64d4 21c0 e82a 72bc
000000b0: c7ce d73e 5185 cc3e dd6e 0fc2 0a39 5bc0
000000c0: 69f4 e0bb b344 5cbd 4492 e941 e4fe 963c
000000d0: d0b6 883d 3a52 e33f 0080 7ac0 1c28 09bb
000000e0: 9bee 3a3e cf4b 09c0 15ce 213e ff37 47bf
000000f0: 8cfc f6be 7447 82bc 4690 dcbb 286c 58be
00000100: e2ec 8ebf b49f 56bf c740 88bf a9a2 d5bf
00000110: 4b32 1bc0 3bcf 40bf f669 22bf 85a3 22bf
00000120: 6f54 35bf dab1 82c0 1271 54bf 3ac3 80bf
00000130: f4e3 8bbf 3fff 09bf 176e f4bf 54c1 24c0
00000140: c430 88bf 8cf8 8fbf 8db4 a4be 6dec f5bf
00000150: f9e4 3abf 800b fdbe 036a d3bf bfbc 21c0
00000160: 02bb 4ebf fa47 293f dbf4 a6be 08ed bdc0
00000170: 2a00 a9be 1af0 a5bf 0f48 ccbf e5b1 06be
00000180: 048a 2ec2 735b a3be 1383 8bc1 d181 bc3e
00000190: efc7 aebe 3e18 5fbf 3d03 15be 6e0e b1c1
000001a0: dc15 13bf e395 abbe 5181 62bd 0f84 50c1
000001b0: 5420 79bf dbef 60bf cc8d 8fbe b06b 4c3e
000001c0: 932f b93f 7cb8 733d 8923 c8be 51f5 7cc1
000001d0: 9505 4dbe 322f 3ebf bf2b afbe b9dc 9cc0
000001e0: 3b69 a0be 5662 ecc0 fb21 64be 4d94 f8be
000001f0: 2bee 8abe e3c5 86be 4f35 7fbe b7c6 b2c0
00000200: 224a 08bd e915 23bf e49b 04be 921a 3542
00000210: 87fd 083e 28a6 9840 6558 2cbf d20d 093d
00000220: 47cf 03be ec18 4942 b2fd 35bf 3cf1 6fbe
00000230: 45cf 8f3f 6769 7d3e b4d3 c5c0 ac5c 4bbd
00000240: 8012 e93f 2fb1 ebbe 36ff 3541 bb30 f0bd
00000250: 0670 f23e 6137 4d41 8a4c a6be 8bff 2ec0
00000260: 6554 dabe 548b f9bf 83a4 5dbe 5313 ba40
00000270: bddd 4fbf 3ec1 b8bd 0887 2bba a212 dc3e
00000280: edec 6e42 07f5 2bbe 0347 2f42 f7f3 e93d
00000290: 4924 aabe 9ce2 a83d 759f 9bbd 0a12 de41
000002a0: 1209 443e fb26 033e c112 20bf a719 ac41
000002b0: 0cad d23d 2038 a53e 8931 97be d5ba 7e3d
000002c0: dd6f 4bbe 2144 1ebf 08dc bd3e 0049 6540
000002d0: e165 5fbf 4ffa 263f 23de a5be 0cff b43f
000002e0: dc00 f2be bd04 be40 e767 24bf 662e 3ebe
000002f0: 252c b3bd 2826 cebc 4529 fdbe 6d6d 0241
00000300: 7ddc a740 e697 16be e4a8 4941 1c63 333d
00000310: ce7a 9cbf a52c a8bd fede 0cbe f40f 4942
00000320: ff43 11bd d6c3 46bc 1a85 d6bd fa49 1541
00000330: ccb3 81bd f111 32bd f29b 6cbd 4713 1a3d
00000340: 27a4 78bf 8383 9cbe 5260 2c3e fcbf 8c40
00000350: 2375 34bf 5d63 0ebd 0743 97bc d573 0e3f
00000360: 0dcc 02bf d028 883e be20 0bbf bc97 473c
00000370: 89e6 4cbe b385 87bf e2ff acbf 9a6e 5d41
00000380: 8b66 85c2 cd5d 15bf d092 16c2 6ec3 873e
00000390: f3c9 9abf acbc 973d db9a 69be 9976 dfc0
000003a0: 84e7 2dbe fec2 dabe c104 95be 7dd9 cec0
000003b0: 354e d6bd 5806 2e3d e347 cbbe 6339 573e
000003c0: ad2a b93f 961f 953e a73c 283f 162d 41c2
000003d0: 7137 413f d2d8 53be a515 14bf 8399 8dbf
000003e0: 55db aa3e 7eaf 64be e287 943e 157a 34be
000003f0: 6bc1 0bbf 6b42 70bf 907a 2fbf 848a 41bf

fc2.bias f4 [32]
-2.4529107 -2.5639212 -2.6163602 -1.2757217 1.131819 0.4323719 -0.652781 -0.9149622
-2.155459 -2.0813818 -1.8710093 2.259375 -0.50573564 -1.1595963 -2.15585 -3.7078748
-1.8281827 0.4240264 2.376644 -1.9659963 -2.219893 -2.2642763 -2.8788903 1.170952
0.29901806 -2.88327 -0.45109797 -1.5695063 1.0650584 -1.9764578 -1.5584688 -1.9406123
00000000: 7dfc 1cc0 4917 24c0 7272 27c0 d94a a3bf
00000010: 72df 903f da5f dd3e a81c 27bf f63a 6abf
00000020: 0af3 09c0 5c35 05c0 3c7d efbf 9a99 1040
00000030: e477 01bf a76d 94bf 72f9 09c0 d24d 6dc0
00000040: e401 eabf fd19 d93e ef1a 1840 c4a5 fbbf
00000050: ba12 0ec0 e7e9 10c0 bd3f 38c0 c1e1 953f
00000060: e518 993e 7f87 38c0 50f6 e6be 95e5 c8bf
00000070: d553 883f 92fc fcbf e87b c7bf fc65 f8bf

fc3.weight f4 [32, 32]
-2.6778264 -2.6173625 -0.025096685 -1.0077833 -0.8414219 -1.521126 -1.7606246 -0.64891636
4.0486917 0.97997624 0.1125967 -8.92543 -0.100566454 -0.75543755 -0.7501389 -0.16108365
-0.19715737 -0.8334253 -1.0125911 -0.5857626 -0.12874398 -0.33770594 0.12879732 -2.3330493
-1.8517964 -0.8831101 -0.13984498 1.1936027 -1.0245459 -0.93468 0.41234362 0.23978263
-2.3108406 -2.607093 -0.26574674 -0.7456482 -2.4949858 -2.3205845 -1.8182243 -0.28756687
1.0116017 -0.41006958 0.45616597 -8.754249 0.026579084 -1.5217396 -1.2092298 0.022035008
1.0982836 -1.6181445 -2.475242 -0.3587364 -0.14713073 -0.30793992 -0.04459069 -2.6153398
-2.182671 -0.12822208 -1.543472 0.5278276 -1.636684 -1.8608588 -0.17607045 0.55246663
-1.7030703 -1.1077986 0.26089555 -1.5423483 -1.5970235 -3.1608915 -2.7945616 -0.2381332
-0.6116517 -0.46011746 -0.2620605 -1.8038073 -0.06638928 -1.3017701 1.168675 -0.4758149
-0.098517776 -0.7213252 -4.505936 0.394904 -0.37498543 -0.2743293 -0.22818188 -0.88368726
-1.0817146 0.14074327 -1.5882288 -0.4397263 -2.2652574 -1.7643088 -0.00658005 -0.09787158
-3.2896261 -3.307257 -0.9551248 -0.088636845 -2.7889762 -1.2067846 -1.4162958 -0.4388621
0.69028443 -1.3310251 -0.7279421 -8.535157 -0.7653599 -0.7735765 -1.361831 -0.4118129
-0.25659293 -1.027972 -1.4823828 -0.34561816 -0.9229016 -0.7661079 0.10352823 -2.5545182
-2.1495569 -0.29675335 -0.71438634 -0.25553548 -0.97175145 -1.6503848 -0.41798222 -1.1169728
-1.5584235 -1.5862162 -0.5069759 -1.5539575 -1.1623607 -2.2390633 -1.633215 0.17518313
1.7920955 -0.10591589 1.0673888 -6.782559 0.02683973 2.8399835 -0.847657 -0.5876102
0.9711762 -0.641978 -2.245381 -0.1258099 -0.403966 -0.048265357 -1.1468194 -12.0119705
-5.9417596 -1.2536297 0.033392843 1.4943111 -2.1808732 -2.9041677 1.5270641 2.106368
-2.105026 -2.2639024 -0.44792578 -1.0032824 -2.1090517 -2.3450806 -2.3241706 0.013977792
0.7952554 0.36519292 -0.33984488 -7.091066 -0.5344959 -1.4044433 -0.7141851 -0.34240565
-0.20651467 -2.3074527 -2.3280933 -0.29118708 -0.19340043 -0.5165895 -0.49847063 -1.9778533
-1.8552741 -0.45214888 -0.8593315 0.35632136 -2.1846337 -0.80901724 -0.3243167 -0.27326414
-1.1581845 -7.2185917 2.1764183 0.28553465 -1.7497214 -0.09969886 -0.014208886 -0.5531937
-0.2626166 5.4528093 -0.41176075 0.5361992 0.2533177 -0.04832093 -3.4556415 28.053024
0.102110855 1.4860736 0.10169554 1.9455193 5.6282244 3.5720692 16.470629 0.023222804
0.017077358 4.257182 -0.006126789 0.862269 1.3349155 -1.0137248 0.09387054 -0.6345971
0.81207556 0.28336117 0.007354407 10.111549 -0.9755152 -8.199798 -20.018797 15.955731
-0.6510239 -0.5625019 -0.5221738 -1.4621277 -0.37053478 -9.869485 0.05529996 0.9397055
-1.3204012 -1.3172139 -2.11943 -0.31858614 -0.6145597 -0.62189937 -0.2937902 0.4328982
-1.3279234 0.26763996 -1.8445178 -1.415872 0.05723817 0.51781267 -0.15296145 -0.18273328
00000000: 8261 2bc0 de82 27c0 9097 cdbc 0bff 80bf
00000010: 6d67 57bf 42b4 c2bf 265c e1bf 621f 26bf
00000020: e28e 8140 b9df 7a3f 1999 e63d 90ce 0ec1
00000030: c9f5 cdbd 5b64 41bf 1a09 40bf 1df3 24be
00000040: 9fe3 49be 5c5b 55bf 969c 81bf 8af4 15bf
00000050: 76d5 03be cbe7 acbe 72e3 033e ae50 15c0
00000060: aa07 edbf 8113 62bf 8633 0fbe f9c7 983f
00000070: 5224 83bf 3047 6fbf b41e d33e 9489 753e
00000080: d0e4 13c0 9dda 26c0 f50f 88be cde2 3ebf
00000090: d9ad 1fc0 7584 14c0 93bb e8bf f73b 93be
000000a0: 2a7c 813f a4f4 d1be 968e e93e 6711 0cc1
000000b0: 61bc d93c 5dc8 c2bf 0bc8 9abf c382 b43c
000000c0: 8f94 8c3f 5c1f cfbf 5d6a 1ec0 4cac b7be
000000d0: 70a9 16be 4daa 9dbe baa4 36bd ba61 27c0
000000e0: e2b0 0bc0 a64c 03be 7e90 c5bf b61f 073f
000000f0: dc7e d1bf 9f30 eebf d04b 34be 746e 0d3f
00000100: 35fe d9bf 58cc 8dbf 1a94 853e ab6b c5bf
00000110: 446b ccbf 0c4c 4ac0 19da 32c0 31d9 73be
00000120: 3595 1cbf 8494 ebbe cb2c 86be 28e3 e6bf
00000130: 1af7 87bd 67a0 a6bf 2497 953f 039e f3be
00000140: b0c3 c9bd c5a8 38bf a130 90c0 db30 ca3e
00000150: 17fe bfbe e474 8cbe 83a8 69be 5439 62bf
00000160: a075 8abf 011f 103e 154b cbbf ce23 e1be
00000170: faf9 10c0 dfd4 e1bf 769d d7bb e570 c8bd
00000180: 3c89 52c0 19aa 53c0 0f83 74bf 3c87 b5bd
00000190: 967e 32c0 eb77 9abf 2e49 b5bf 88b2 e0be
000001a0: 7bb6 303f 085f aabf 6a5a 3abf 0190 08c1
000001b0: a0ee 43bf 1c09 46bf 7a50 aebf 24d9 d2be
000001c0: 2660 83be 9694 83bf b8be bdbf ddf4 b0be
000001d0: 4743 6cbf a61f 44bf 9c06 d43d 3a7d 23c0
000001e0: 5792 09c0 0ef0 97be 06e2 36bf 8cd5 82be
000001f0: b4c4 78bf cf3f d3bf c401 d6be f7f8 8ebf
00000200: 6c7a c7bf 2209 cbbf 2cc9 01bf 14e8 c6bf
00000210: 3cc8 94bf d04c 0fc0 300d d1bf 3563 333e
00000220: 6363 e53f 6eea d8bd 32a0 883f b90a d9c0
00000230: fede db3c 4ac2 3540 0d00 59bf 9f6d 16bf
00000240: 019f 783f ac58 24bf 53b4 0fc0 4fd4 00be
00000250: a2d4 cebe e5b1 45bd faca 92bf 0831 40c1
00000260: e522 bec0 f076 a0bf efc6 083d 9645 bf3f
00000270: 6d93 0bc0 e2dd 39c0 d676 c33f bcce 0640
00000280: bfb8 06c0 c7e3 10c0 8756 e5be 8f6b 80bf
00000290: b4fa 06c0 cd15 16c0 36bf 14c0 1c03 653c
000002a0: dc95 4b3f 91fa ba3e 2600 aebe 03ea e2c0
000002b0: b9d4 08bf ccc4 b3bf d6d4 36bf cb4f afbe
000002c0: 9578 53be 4ead 13c0 7bff 14c0 7916 95be
000002d0: c30a 46be 363f 04bf 8b37 ffbe 4c2a fdbf
000002e0: 9f79 edbf 0f80 e7be 26fd 5bbf c16f b63e
000002f0: 0ad1 0bc0 c11b 4fbf d70c a6be 47e9 8bbe
00000300: 643f 94bf b4fe e6c0 704a 0b40 9931 923e
00000310: dff6 dfbf ea2e ccbd 63cc 68bc 1a9e 0dbf
00000320: af75 86be 6a7d ae40 4ed2 d2be 5a44 093f
00000330: dcb2 813e 2bec 45bd 3b29 5dc0 986c e041
00000340: 7f1f d13d a937 be3f c045 d03d c706 f93f
00000350: 6a1a b440 c89c 6440 d9c3 8341 c03d be3c
00000360: d1e5 8b3c d63a 8840 3bc3 c8bb a9bd 5c3f
00000370: 83de aa3f bcc1 81bf 333f c03d f574 22bf
00000380: 2fe4 4f3f b714 913e 3dfd f03b e8c8 2141
00000390: 5dbb 79bf 5f32 03c1 7f26 a0c1 ad4a 7f41
000003a0: 81a9 26bf 2000 10bf 2fad 05bf 0027 bbbf
000003b0: bcb6 bdbe 69e9 1dc1 3682 623d 8a90 703f
000003c0: e802 a9bf 779a a8bf bea4 07c0 b91d a3be
000003d0: c953 1dbf cc34 1fbf ab6b 96be d5a4 dd3e
000003e0: 65f9 a9bf 1b08 893e 2919 ecbf 4b3b b5bf
000003f0: 9272 6a3d 5f8f 043f eda1 1cbe 6f1e 3bbe

fc3.bias f4 [32]
-1.6828436 -2.6550872 -1.6174694 -1.9522182 -2.6281989 -2.4234514 -0.24872163 -1.8462278
-2.1960502 -1.9022845 -0.44435877 -0.3168396 -1.0766773 -1.1283807 -2.1188295 -1.308481
-1.7303891 -1.5697638 -0.88435984 -2.000385 -0.94655645 -1.2964662 -1.0454621 -2.5395906
-1.0697975 -0.6481398 -0.9882767 -0.1292911 -2.0276916 -1.698491 -1.9073796 -0.23092549
00000000: 6b67 d7bf f3ec 29c0 3d09 cfbf 49e2 f9bf
00000010: 6934 28c0 d419 1bc0 e2b0 7ebe 3151 ecbf
00000020: 168c 0cc0 0f7e f3bf fe82 e3be cd38 a2be
00000030: 90d0 89bf c76e 90bf e79a 07c0 4e7c a7bf
00000040: 647d ddbf 05ee c8bf 6865 62bf 4f06 00c0
00000050: 8651 72bf 9bf2 a5bf b4d1 85bf a788 22c0
00000060: 20ef 88bf 7dec 25bf b4ff 7cbf e364 04be
00000070: b3c5 01c0 2768 d9bf 0425 f4bf bb77 6cbe

fc4.weight f4 [20, 32]
3.5412102 2.7780445 -1.8729312 4.2381907 1.4411757 1.4846791 4.3469872 -8.899039
3.2926414 1.4457699 -2.4600558 -4.9863033 -9.950385 0.29954353 -1.7701225 -5.8738093
-2.4522262 10.675199 -4.504122 0.5849691 4.807365 -6.2109194 -7.0580573 1.6537545
-7.929205 -5.981287 -5.875612 -4.2269783 1.8414067 -6.984483 -2.6245873 2.6748865
3.912811 3.685375 -1.5218289 1.8825845 2.2779043 1.3962488 -0.62169635 -9.733047
2.3297055 2.0921931 0.37998104 -2.642313 -10.023951 1.8363855 1.3395809 -5.5351124
-1.269181 -3.0251985 -5.7080765 2.204893 4.243345 0.9197844 -10.169764 3.9770172
1.7050391 2.5995455 -1.5807905 -3.8492312 2.5479014 -10.807183 -2.5272505 2.426508
1.3672222 1.8567736 -0.17746267 0.74996614 1.562629 -0.3903152 -3.1833854 -3.0826132
0.15803134 -0.15333056 1.8492824 -3.1259837 -0.99700665 0.008893608 2.2281349 -2.5964303
-0.78444517 -7.87203 -3.5541961 1.6170553 -0.10459138 3.7320778 -4.1118627 1.2395042
5.6381297 5.0891013 1.3183494 -0.81539476 0.58057797 -5.482069 -2.0494099 0.54096574
-0.95166343 -1.7306107 0.10297334 -2.0925767 -0.07214789 -0.14752 -2.434994 2.4939787
-0.812795 -1.6352415 1.377052 -1.2247356 3.136205 -0.9846432 2.003044 1.4588802
0.3178921 -5.588539 -0.5134086 -0.98258924 -2.6197336 3.2205696 2.1781478 -0.89462954
5.284513 4.8234267 2.2801752 1.6033913 -0.57756203 3.218082 -0.35879976 -1.0056789
-2.5823205 -0.1173309 0.55174357 -0.14294098 -0.09121801 0.41848698 -0.22053513 4.005928
1.0548512 -0.6787856 0.10925926 -0.0027857253 3.9948738 0.16259487 -0.72004884 4.289764
0.20964138 1.1503179 3.4257066 -1.0165918 -2.3714538 1.3551713 4.0627384 -1.9323785
1.2087511 1.3179942 1.9129989 1.9132279 0.18689772 6.9628625 0.9806269 -1.2178663
-0.22443672 -1.525512 -0.36103195 -0.033765193 -0.6047319 0.0830061 1.2791736 3.38482
-1.7850214 -0.56914383 -0.72979397 0.32102108 1.7629101 0.11908747 0.09254775 2.0405428
-0.33696654 3.2538104 -0.059142265 -1.1153245 -0.6883711 -1.1823766 1.4379418 0.9115609
-1.941669 -2.5016584 1.3633347 0.71846545 -1.2652183 3.2684653 0.61147845 -0.4596206
0.98588574 -0.69994956 0.21668963 0.57374686 -0.33552656 0.9544561 1.2661916 -0.91155463
-0.26948133 0.055298418 -0.71127224 -1.1142418 -1.1513503 0.048876334 0.07499084 0.28902316
0.06575375 3.0842447 -1.3824447 0.21112259 1.5686916 -1.6955751 -1.5863254 0.87474656
-2.3405147 -1.8436162 -1.4473287 -0.53302133 1.0406277 1.3435988 -0.44065958 0.32625893
0.30012405 -0.42609066 -0.4194914 1.367923 0.15147819 -0.15959941 0.3355425 -2.871536
-0.09462537 1.5103134 -0.19226462 -1.1603135 -4.304313 -0.86450267 0.4117012 -0.8162862
-0.77653706 1.3116984 3.246113 -0.336598 0.5546425 -2.8419921 -2.5895317 0.73387474
-1.9040179 -0.78893477 -0.14705004 -0.9040955 -1.4526802 1.5347363 -0.19748473 0.56066203
00000000: 30a3 6240 7bcb 3140 36bc efbf 429f 8740
00000010: 7278 b83f f709 be3f 851a 8b40 7762 0ec1
00000020: a3ba 5240 fd0e b93f 8e71 1dc0 cc8f 9fc0
00000030: c734 1fc1 c55d 993e 6093 e2bf 3ff6 bbc0
00000040: 46f1 1cc0 9dcd 2a41 c421 90c0 89c0 153f
00000050: efd5 9940 dabf c6c0 9bdb e1c0 3aae d33f
00000060: 0cbc fdc0 b466 bfc0 0305 bcc0 6843 87c0
00000070: 37b3 eb3f e280 dfc0 3df9 27c0 5731 2b40
00000080: 7f6b 7a40 2fdd 6b40 4acb c2bf 87f8 f03f
00000090: 2fc9 1140 48b8 b23f 7e27 1fbf 8fba 1bc1
000000a0: e519 1540 7ee6 0540 e08c c23e a81b 29c0
000000b0: 1a62 20c1 ae0e eb3f 6377 ab3f a41f b1c0
000000c0: 8674 a2bf da9c 41c0 90a8 b6c0 f81c 0d40
000000d0: 7bc9 8740 fe76 6b3f 5ab7 22c1 7387 7e40
000000e0: b93e da3f f45e 2640 5857 cabf ce59 76c0
000000f0: d110 2340 39ea 2cc1 79be 21c0 e84b 1b40
00000100: 2301 af3f c2aa ed3f c6b8 35be c8fd 3f3f
00000110: 3a04 c83f 65d7 c7be 96bc 4bc0 8949 45c0
00000120: f8d2 213e b002 1dbe 49b5 ec3f 1e10 48c0
00000130: d43b 7fbf 7fb6 113c c399 0e40 ea2b 26c0
00000140: 66d1 48bf abe7 fbc0 f377 63c0 abfb ce3f
00000150: 0134 d6bd 5dda 6e40 6194 83c0 13a8 9e3f
00000160: 8f6b b440 ebd9 a240 acbf a83f b6bd 50bf
00000170: c2a0 143f 1c6d afc0 8829 03c0 bb7c 0a3f
00000180: 37a0 73bf a784 ddbf b0e3 d23d c7ec 05c0
00000190: 46c2 93bd 7c0f 17be f1d6 1bc0 599d 1f40
000001a0: 5513 50bf 984f d1bf 3d43 b03f 23c4 9cbf
000001b0: 95b7 4840 9411 7cbf df31 0040 96bc ba3f
000001c0: c1c2 a23e 50d5 b2c0 bf6e 03bf f88a 7bbf
000001d0: b7a9 27c0 d01d 4e40 c666 0b40 7106 65bf
000001e0: bb1a a940 8359 9a40 64ee 1140 ed3b cd3f
000001f0: 1bdb 13bf 0ef5 4d40 9ab4 b7be 16ba 80bf
00000200: bd44 25c0 2f4b f0bd 113f 0d3f 1f5f 12be
00000210: 82d0 babd ed43 d63e f6d3 61be 9030 8040
00000220: 5d05 873f e5c4 2dbf 52c3 df3d b790 36bb
00000230: 03ac 7f40 457f 263e 1f55 38bf bf45 8940
00000240: 3bac 563e 9e3d 933f c73e 5b40 ae1f 82bf
00000250: e6c5 17c0 4176 ad3f f401 8240 2e58 f7bf
00000260: 5bb8 9a3f 09b4 a83f 26dd f43f a7e4 f43f
00000270: 1e62 3f3e c5cf de40 5d0a 7b3f 0be3 9bbf
00000280: bdd2 65be fa43 c3bf 2ed9 b8be 5f4d 0abd
00000290: b6cf 1abf 1aff a93d f6bb a33f e4a0 5840
000002a0: 957b e4bf 69b3 11bf c7d3 3abf e05c a43e
000002b0: 0aa7 e13f 22e4 f33d ad89 bd3d 4198 0240
000002c0: e186 acbe 6e3e 5040 293f 72bd f4c2 8ebf
000002d0: 1739 30bf 1e58 97bf 7a0e b83f 0e5c 693f
000002e0: 9c88 f8bf 2c1b 20c0 c081 ae3f 5aed 373f
000002f0: acf2 a1bf 892e 5140 da89 1c3f 6453 ebbe
00000300: 0263 7c3f e52f 33bf e3e3 5d3e 13e1 123f
00000310: 23ca abbe 3c57 743f 9112 a23f a55b 69bf
00000320: 75f9 89be 9880 623d f015 36bf 7a9f 8ebf
00000330: 725f 93bf 8d32 483d cc94 993d d8fa 933e
00000340: e7a9 863d 4464 4540 f3f3 b0bf 8530 583e
00000350: e3ca c83f 9b08 d9bf b60c cbbf 64ef 5f3f
00000360: feca 15c0 9efb ebbf 1142 b9bf 1674 08bf
00000370: 4a33 853f 0cfb ab3f 229e e1be 690b a73e
00000380: dca9 993e 8e28 dabe 94c7 d6be 1a18 af3f
00000390: 191d 1b3e 076e 23be 3acc ab3e 3fc7 37c0
000003a0: f2ca c1bd f351 c13f 04e1 44be 2785 94bf
000003b0: efbc 89c0 0c50 5dbf 80ca d23e 22f8 50bf
000003c0: 22cb 46bf bce5 a73f 51c0 4f40 9356 acbe
000003d0: 0dfd 0d3f 33e3 35c0 e3ba 25c0 37df 3b3f
000003e0: dcb6 f3bf a1f7 49bf 4994 16be cd72 67bf
000003f0: 6df1 b9bf 3d72 c43f 7039 4abe 8c87 0f3f

fc4.bias f4 [20]
-0.6357658 0.9504774 1.2134762 0.5052992 -0.29429385 -0.56623214 -0.31764916 0.06695359
0.24585333 0.17743899 0.013803092 -0.10781413 -0.09743735 -0.027680852 0.03980961 0.047346395
0.017434146 -0.0071931705 -0.023024341 -0.011933214
00000000: 8cc1 22bf 7d52 733f 3053 9b3f 4a5b 013f
00000010: afad 96be 97f4 10bf e9a2 a2be f71e 893d
00000020: fac0 7b3e 91b2 353e 5d26 623c a8cd dcbd
00000030: 3c8d c7bd f4c2 e2bc 670f 233d 4bee 413d
00000040: 0ed2 8e3c b0b4 ebbb 8b9d bcbc 8783 43bc
