transfer/dampedSpring/data/model_weights.pth (torch, 13595 bytes, 8 tensors)

fc1.weight f4 [32, 2]
0.05359699 2.4535275 0.29458863 -0.08753627 -0.013894489 0.4499051 -3.0515013 -0.27743885
-0.078231014 -3.0647101 -0.6267271 0.0577229 0.42921612 -0.0991895 0.07222069 3.2728264
-0.53834045 0.13019145 -2.647242 -0.24095006 0.5529482 -0.033337124 -0.06684264 0.5237425
-0.48679423 0.103471644 -0.50025487 0.17067577 2.7442207 0.2443712 2.6059914 0.23735012
-0.07489916 -0.44646817 0.22074729 -0.418389 -2.6594646 -0.2408483 0.060364243 2.739866
-0.056206852 -0.6554974 -0.65058255 0.08149413 0.53988105 0.024073338 -0.1012853 0.109559745
-0.13803506 -0.52525306 0.2444412 0.24407643 -0.007889561 -0.69941556 -2.8732722 -0.2609913
0.46236187 -0.03295833 -0.065375075 -2.9237082 -0.09006684 -3.8867235 0.03608085 2.3033998
00000000: 8488 5b3d 9806 1d40 52d4 963e 3746 b3bd
00000010: b6a5 63bc f659 e63e cc4b 43c0 770c 8ebe
00000020: 9537 a0bd 3624 44c0 3071 20bf d96e 6c3d
00000030: 37c2 db3e dd23 cbbd 71e8 933d fd75 5140
00000040: aed0 09bf e850 053e 6a6c 29c0 9dbb 76be
00000050: 038e 0d3f 828c 08bd cbe4 88bd fd13 063f
00000060: 183d f9be f1e8 d33d b410 00bf a1c5 2e3e
00000070: 50a1 2f40 723c 7a3e 90c8 2640 e90b 733e
00000080: bb64 99bd 7a97 e4be 940b 623e 1537 d6be
00000090: ab34 2ac0 f0a0 76be 7f40 773d f759 2f40
000000a0: 2839 66bd adce 27bf 948c 26bf 65e6 a63d
000000b0: a535 0a3f 7335 c53c ab6e cfbd dc60 e03d
000000c0: 1059 0dbe fc76 06bf cb4e 7a3e 2cef 793e
000000d0: 3843 01bc e60c 33bf b1e3 37c0 a7a0 85be
000000e0: b2ba ec3e 50ff 06bd 5ee3 85bd 091e 3bc0
000000f0: f774 b8bd 14c0 78c0 83c9 133d e76a 1340

fc1.bias f4 [32]
4.7813005 -13.494471 -8.142901 -2.3380725 12.0189705 -13.8740835 -13.674365 1.5504841
-13.702379 3.6368012 -13.594854 -13.362683 -13.581527 -13.716665 -12.597242 6.4981103
-14.123459 -13.69779 -12.646153 10.680959 -13.9902525 -14.371121 -13.078577 -13.544916
-13.865185 -13.766381 -13.802179 8.155181 -13.851194 6.5424643 3.5295103 -11.101769
00000000: 6a00 9940 5ae9 57c1 5349 02c1 fba2 15c0
00000010: b44d 4041 3ffc 5dc1 33ca 5ac1 4376 c63f
00000020: f23c 5bc1 5ac1 6840 8684 59c1 8dcd 55c1
00000030: ef4d 59c1 7677 5bc1 4e8e 49c1 85f0 cf40
00000040: b0f9 61c1 262a 5bc1 a556 4ac1 35e5 2a41
00000050: 13d8 5fc1 1df0 65c1 da41 51c1 fab7 58c1
00000060: ccd7 5dc1 1943 5cc1 bad5 5cc1 9f7b 0241
00000070: 7e9e 5dc1 de5b d140 7fe3 6140 d9a0 31c1

fc2.weight f4 [32, 32]
-0.020764802 -1.8933995 -0.6616906 5.208727 -0.18331413 5.6393847 -2.879011 0.014628874
2.19489 5.4859376 -4.283785 -0.3741226 1.9194771 1.8008708 -50.057995 -4.070453
0.39481732 -2.4561608 20.72323 0.005118332 -0.23677708 8.845584 -5.9610605 0.39695314
1.1104684 -2.0540314 0.07523155 0.92768764 -2.1852927 -0.0023184018 0.000263404 -0.42614263
0.013528891 -0.47589043 0.010847937 4.87148 -0.08046155 0.67717785 -0.5971092 -0.0030947973
0.43440393 -0.1871937 -2.5285866 -0.015345465 0.42096823 0.39865226 -35.913578 -3.5922701
-0.006836843 -0.0538582 29.210281 -0.00035473832 0.06684842 1.7755016 -3.9140544 -0.0021384782
0.18271491 -2.1452038 0.15803602 -1.1812137 -0.4823936 0.0122535415 -0.0048922948 -0.17287417
-1.1067501 -0.8383744 -1.0644425 -1.6690265 -2.4247959 -0.7531621 -0.63442934 -0.6255708
-0.7083196 -4.084153 -0.8298503 -1.0059578 -1.0928941 -0.539051 -1.9096782 -2.5640647
-1.0639882 -1.1247725 -0.32169 -1.9121279 -0.73005635 -0.49422836 -1.6516727 -2.5271451
-0.807541 0.6612545 -0.32608685 -5.9329658 -0.33007938 -1.2955422 -1.595506 -0.12865688
-43.651543 -0.3190583 -17.439026 -0.07106993 -0.23274574 -0.87143254 -0.14552183 -22.132408
-0.57453626 -0.06985723 -0.055298433 -13.032241 -0.97313404 -0.8786482 0.011231626 0.034403894
1.4467747 0.05950191 -0.08354826 -17.14402 -0.20016582 -0.7428869 -0.34212872 -4.9019437
-0.31326684 -7.387004 -0.2227149 0.0028903524 -0.2713487 -0.1546979 -0.14066267 -5.586757
0.0073739006 -0.636992 -0.15195763 45.275936 -0.09429205 4.7702827 -0.67309886 -0.019957636
-0.12872249 50.283493 -0.7106674 -0.23436198 1.1235124 0.24747008 -5.7012215 0.042689793
1.8208667 -0.46029368 11.374807 0.0045311544 0.47342914 12.82602 -0.32448763 -2.7343466
-0.42645296 -1.9495623 -0.2166079 6.0529137 -0.8118696 -0.028325928 0.016787872 -0.17321345
59.83676 -0.16792624 43.818882 -0.0114501 -0.6215411 0.08245376 -0.075975865 27.7598
0.19143675 -0.023829473 -0.6252548 21.512526 0.10286691 0.3226912 -0.030072425 -0.0209188
-0.19862759 -0.618228 -0.03917955 5.605683 -0.87247986 0.6522525 -0.32391757 1.4140332
-0.47254664 5.9380774 -0.64199215 0.010450094 -0.087474205 -0.31442273 -0.783681 8.151715
6.1807675 -0.14707929 12.604319 -0.0064644883 -1.7117873 -0.08197083 -0.1376054 50.264824
-0.03538207 0.00542746 -0.10480946 9.330561 -0.06325323 -0.043415498 -0.0023781578 -0.0072335387
-0.97123146 -0.3056704 -0.030929198 6.456497 -0.70484173 -0.034672547 -0.018541178 0.55645806
-0.51086706 0.26592752 -0.5433684 -0.009989718 -0.20012826 -1.5475043 -1.8404732 13.839501
-66.69954 -0.58346146 -37.643364 0.12099611 -0.71928024 0.07409089 -0.22812729 -6.983217
-0.16982788 -0.29548964 -0.29104897 -6.464049 -0.104640946 0.042486772 -0.37765205 0.5908023
1.4466169 0.29126367 0.6391948 -48.248856 0.75476134 -0.20688121 -0.5784518 -1.1062471
0.33370915 -0.22332563 0.29011545 0.2207826 -0.5459188 -0.44851324 -0.19543499 -0.75601983
00000000: f21a aabc ea5a f2bf 8e64 29bf e4ad a640
00000010: b3b6 3bbe d775 b440 b741 38c0 f2ad 6f3c
00000020: 1479 0c40 cd8c af40 c414 89c0 ff8c bfbe
00000030: 6db1 f53f ef82 e63f 633b 48c2 2741 82c0
00000040: 7f25 ca3e bd31 1dc0 2dc9 a541 aeb7 a73b
00000050: b175 72be 8387 0d41 02c1 bec0 713d cb3e
00000060: d423 8e3f 4075 03c0 0013 9a3d f07c 6d3f
00000070: d6db 0bc0 54f0 17bb 7d19 8a39 5e2f dabe
00000080: 48a8 5d3c e9a7 f3be 8cbb 313c 2ae3 9b40
00000090: 06c9 a4bd 875b 2d3f 26dc 18bf 15d2 4abb
000000a0: 316a de3e b5af 3fbe 5dd4 21c0 8c6b 7bbc
000000b0: 2689 d73e 261c cc3e 81a7 0fc2 c1e7 65c0
000000c0: 9907 e0bb 6a9a 5cbd a8ae e941 2cfc b9b9
000000d0: d3e7 883d a343 e33f de7f 7ac0 b625 0cbb
000000e0: 9e19 3b3e 054b 09c0 32d4 213e 0332 97bf
000000f0: 4bfc f6be 14c3 483c 8b4f a0bb ed05 31be
00000100: fda9 8dbf b49f 56bf a73f 88bf a9a2 d5bf
00000110: db2f 1bc0 3bcf 40bf f669 22bf 6825 20bf
00000120: 6f54 35bf 62b1 82c0 1271 54bf 3ac3 80bf
00000130: f4e3 8bbf 3fff 09bf 5670 f4bf a319 24c0
00000140: c430 88bf 8cf8 8fbf 8db4 a4be 9bc0 f4bf
00000150: f9e4 3abf 800b fdbe 036a d3bf bfbc 21c0
00000160: 02bb 4ebf fa47 293f dbf4 a6be dbda bdc0
00000170: 2a00 a9be 54d4 a5bf 8a39 ccbf a1be 03be
00000180: 2e9b 2ec2 9c5b a3be 2083 8bc1 1d8d 91bd
00000190: e654 6ebe 3416 5fbf ad03 15be 2c0f b1c1
000001a0: cf14 13bf 4f11 8fbd 9c80 62bd 0f84 50c1
000001b0: 501f 79bf 17ef 60bf db04 383c 19eb 0c3d
000001c0: ea2f b93f 46b8 733d 5a1b abbd f426 89c1
000001d0: 45f8 4cbe d62d 3ebf 7f2b afbe b9dc 9cc0
000001e0: 8364 a0be 5662 ecc0 600f 64be 116c 3d3b
000001f0: 38ee 8abe 2069 1ebe e009 10be b7c6 b2c0
00000200: c3a0 f13b e811 23bf c89a 1bbe 8f1a 3542
00000210: 311c c1bd 28a6 9840 3550 2cbf 327e a3bc
00000220: d4cf 03be 4c22 4942 4cee 35bf 96fc 6fbe
00000230: 41cf 8f3f cc68 7d3e 6870 b6c0 7edb 2e3d
00000240: 2912 e93f 9dab ebbe 36ff 3541 147a 943b
00000250: 4e65 f23e 6137 4d41 3e23 a6be 89ff 2ec0
00000260: 0b58 dabe 428b f9bf 76ce 5dbe 78b1 c140
00000270: b0d6 4fbf c70b e8bc b886 893c de5e 31be
00000280: d858 6f42 dbf4 2bbe 8946 2f42 3399 3bbc
00000290: 511d 1fbf 84dd a83d 3c99 9bbd 1214 de41
000002a0: ff07 443e 0736 c3bc b310 20bf a719 ac41
000002b0: e3ab d23d c837 a53e 725a f6bc e75d abbc
000002c0: 0865 4bbe 3144 1ebf bc7a 20bd c161 b340
000002d0: d75a 5fbf 05fa 263f 86d8 a5be 0aff b43f
000002e0: a2f1 f1be bb04 be40 9959 24bf df36 2b3c
000002f0: ad25 b3bd 04fc a0be 519f 48bf 6d6d 0241
00000300: d9c8 c540 f49b 16be 4aab 4941 0fd4 d3bb
00000310: d91b dbbf 53e0 a7bd 6ee8 0cbe 2e0f 4942
00000320: caec 10bd d6d8 b13b 58a6 d6bd fa49 1541
00000330: e98a 81bd 73d4 31bd deda 1bbb 5207 edbb
00000340: a0a2 78bf d580 9cbe 3b5f fdbc a09b ce40
00000350: 8270 34bf cd04 0ebd abe3 97bc 0974 0e3f
00000360: 2fc8 02bf a727 883e 311a 0bbf eaab 23bc
00000370: 6cee 4cbe 9f14 c6bf a094 ebbf 996e 5d41
00000380: 2a66 85c2 bb5d 15bf ce92 16c2 cfcc f73d
00000390: c022 38bf f7bc 973d 339a 69be 8376 dfc0
000003a0: 5ce7 2dbe 6b4a 97be 5f04 95be 7dd9 cec0
000003b0: fe4d d6bd 9c06 2e3d 9c5b c1be d23e 173f
000003c0: be2a b93f 8320 953e 45a2 233f d4fe 40c2
000003d0: 0a38 413f abd8 53be 6b15 14bf 8199 8dbf
000003e0: eddb aa3e 79af 64be 038a 943e d514 623e
000003f0: 56c1 0bbf 87a3 e5be 1c20 48be 848a 41bf

fc2.bias f4 [32]
-2.9671755 -2.0726225 -2.6061275 -1.167027 1.2239171 0.1432826 -1.1420652 -0.42493972
-2.1135404 -2.069096 -1.8685218 2.202341 -0.6151829 -1.1811655 -2.2544975 -4.410657
-1.8003571 0.59848243 2.3063226 -1.938776 -2.184277 -2.2567408 -2.9494028 1.0215213
0.08196433 -2.870453 -0.50669056 -1.5050237 1.2171308 -2.5402334 -1.5015621 -1.504494
00000000: 34e6 3dc0 d9a5 04c0 cbca 26c0 2461 95bf
00000010: 51a9 9c3f adb8 123e 312f 92bf b391 d9be
00000020: 3f44 07c0 126c 04c0 b92b efbf 28f3 0c40
00000030: a07c 1dbf 6e30 97bf b049 10c0 1a24 8dc0
00000040: 1a72 e6bf 2536 193f ca9a 1340 d029 f8bf
00000050: 32cb 0bc0 716e 10c0 04c3 3cc0 36c1 823f
00000060: eadc a73d 80b5 37c0 79b6 01bf 9ea4 c0bf
00000070: f1ca 9b3f 2f93 22c0 3033 c0bf 4293 c0bf

fc3.weight f4 [32, 32]
-2.6778421 -2.6173625 -0.025096685 -1.0077833 -0.84128195 -1.5210056 -1.7605039 -0.64891636
4.0486917 0.97997624 0.1125967 -8.925337 -0.100566454 -0.7554309 -0.7501389 -0.16108045
-0.19715737 -0.8334297 -1.0124701 -0.5857626 -0.12874398 -0.33770594 0.12879738 -2.333051
-1.8517681 -0.8831101 -0.1397181 1.1936027 -1.0244237 -0.93468 0.41234362 0.23978263
-2.3108406 -2.607093 -0.26574674 -0.7456482 -2.4949858 -2.3205845 -1.8182243 -0.28756687
1.0116017 -0.41006958 0.45616597 -8.754249 0.026579084 -1.5217396 -1.2092298 0.022034986
1.0982836 -1.6181445 -2.475242 -0.3587364 -0.14713073 -0.30793992 -0.04459069 -2.6153398
-2.182671 -0.12822208 -1.543472 0.5278276 -1.636684 -1.8608588 -0.17607045 0.55246663
-1.7030517 -1.1078066 0.26089555 -1.5423448 -1.5970354 -3.1607332 -2.7944982 -0.23813316
-0.61165166 -0.46011746 -0.2620605 -1.8035096 -0.06638926 -1.3017701 1.168675 -0.47580358
-0.098517776 -0.7210005 -4.5056376 0.394904 -0.37498543 -0.2743293 -0.22818185 -0.8834413
-1.0814624 0.14074327 -1.5882477 -0.4397263 -2.264962 -1.7643077 -0.00658005 -0.09787158
-3.2896266 -3.307257 -0.9551248 -0.088636845 -2.7889807 -1.2067995 -1.416309 -0.4388621
0.6902845 -1.3310251 -0.7279421 -8.535174 -0.7653599 -0.7735746 -1.361831 -0.4118144
-0.25659293 -1.0279838 -1.482398 -0.34561816 -0.9229016 -0.7661079 0.10352826 -2.5545187
-2.149576 -0.29675335 -0.7143621 -0.25553548 -0.971768 -1.6503848 -0.41798222 -1.1169728
-1.5584234 -1.5862162 -0.5069759 -1.5539575 -1.1623628 -2.2390728 -1.6332239 0.17518313
1.7920955 -0.10591589 1.0673888 -6.782563 0.02683973 2.8399835 -0.847657 -0.5876103
0.9711762 -0.64199084 -2.2453907 -0.1258099 -0.403966 -0.048265357 -1.1468194 -12.0119705
-5.9417596 -1.2536297 0.0334045 1.4943111 -2.1808827 -2.9041677 1.5270641 2.106368
-2.105026 -2.2639024 -0.44792578 -1.0032824 -2.1090517 -2.3450806 -2.3241706 0.013977792
0.7952554 0.36519292 -0.33984488 -7.091066 -0.5344959 -1.4044433 -0.7141851 -0.34240565
-0.20651467 -2.3074527 -2.3280933 -0.29118708 -0.19340043 -0.5165895 -0.49847063 -1.9778533
-1.8552741 -0.45214888 -0.8593315 0.35632136 -2.1846337 -0.80901724 -0.3243167 -0.27326414
-1.1769369 -8.8418865 2.17972 0.19920935 -1.9243871 0.0021353671 -0.0003429581 -0.61874235
0.04845584 5.455097 -0.3883637 0.57303965 0.28937584 -0.098135166 -3.4556339 27.874172
0.11082997 1.4298441 0.12741642 1.9555696 5.6289787 3.572876 16.487198 0.0017946184
0.0010150694 4.260205 0.011294239 0.910835 1.3189234 -0.20865463 0.10862365 -0.645771
0.9172829 0.46000725 0.0073545855 10.114137 -0.8248726 -8.153959 -20.017622 15.955745
-0.6510239 -0.5625019 -0.5221738 -1.2946959 -0.37044826 -9.869485 0.055273976 0.9400852
-1.3204012 -1.2872206 -1.9521419 -0.31858614 -0.6145597 -0.62189937 -0.2937875 0.59979224
-1.1605041 0.26764 -1.8445178 -1.415872 0.21730345 0.522351 -0.15296145 -0.18273328
00000000: c461 2bc0 de82 27c0 9097 cdbc 0bff 80bf
00000010: 415e 57bf 50b0 c2bf 3158 e1bf 621f 26bf
00000020: e28e 8140 b9df 7a3f 1999 e63d 2ece 0ec1
00000030: c9f5 cdbd eb63 41bf 1a09 40bf 46f2 24be
00000040: 9fe3 49be a65b 55bf 9f98 81bf 8af4 15bf
00000050: 76d5 03be cbe7 acbe 76e3 033e b550 15c0
00000060: bd06 edbf 8113 62bf 4312 0fbe f9c7 983f
00000070: 5120 83bf 3047 6fbf b41e d33e 9489 753e
00000080: d0e4 13c0 9dda 26c0 f50f 88be cde2 3ebf
00000090: d9ad 1fc0 7584 14c0 93bb e8bf f73b 93be
000000a0: 2a7c 813f a4f4 d1be 968e e93e 6711 0cc1
000000b0: 61bc d93c 5dc8 c2bf 0bc8 9abf b782 b43c
000000c0: 8f94 8c3f 5c1f cfbf 5d6a 1ec0 4cac b7be
000000d0: 70a9 16be 4daa 9dbe baa4 36bd ba61 27c0
000000e0: e2b0 0bc0 a64c 03be 7e90 c5bf b61f 073f
000000f0: dc7e d1bf 9f30 eebf d04b 34be 746e 0d3f
00000100: 99fd d9bf 9bcc 8dbf 1a94 853e 8e6b c5bf
00000110: a86b ccbf 7449 4ac0 0fd9 32c0 2ed9 73be
00000120: 3495 1cbf 8494 ebbe cb2c 86be 67d9 e6bf
00000130: 18f7 87bd 67a0 a6bf 2497 953f 879c f3be
00000140: b0c3 c9bd 7d93 38bf 2f2e 90c0 db30 ca3e
00000150: 17fe bfbe e474 8cbe 81a8 69be 3629 62bf
00000160: 5c6d 8abf 011f 103e b34b cbbf ce23 e1be
00000170: 23f5 10c0 d6d4 e1bf 769d d7bb e570 c8bd
00000180: 3e89 52c0 19aa 53c0 0f83 74bf 3c87 b5bd
00000190: a97e 32c0 6878 9abf 9d49 b5bf 88b2 e0be
000001a0: 7cb6 303f 085f aabf 6a5a 3abf 1390 08c1
000001b0: a0ee 43bf fc08 46bf 7a50 aebf 56d9 d2be
000001c0: 2660 83be f994 83bf 38bf bdbf ddf4 b0be
000001d0: 4743 6cbf a61f 44bf a006 d43d 3c7d 23c0
000001e0: a792 09c0 0ef0 97be 6fe0 36bf 8cd5 82be
000001f0: cac5 78bf cf3f d3bf c401 d6be f7f8 8ebf
00000200: 6b7a c7bf 2209 cbbf 2cc9 01bf 14e8 c6bf
00000210: 4ec8 94bf f84c 0fc0 7b0d d1bf 3563 333e
00000220: 6363 e53f 6eea d8bd 32a0 883f c20a d9c0
00000230: fede db3c 4ac2 3540 0d00 59bf a16d 16bf
00000240: 019f 783f 8359 24bf 7bb4 0fc0 4fd4 00be
00000250: a2d4 cebe e5b1 45bd faca 92bf 0831 40c1
00000260: e522 bec0 f076 a0bf 28d3 083d 9645 bf3f
00000270: 9593 0bc0 e2dd 39c0 d676 c33f bcce 0640
00000280: bfb8 06c0 c7e3 10c0 8756 e5be 8f6b 80bf
00000290: b4fa 06c0 cd15 16c0 36bf 14c0 1c03 653c
000002a0: dc95 4b3f 91fa ba3e 2600 aebe 03ea e2c0
000002b0: b9d4 08bf ccc4 b3bf d6d4 36bf cb4f afbe
000002c0: 9578 53be 4ead 13c0 7bff 14c0 7916 95be
000002d0: c30a 46be 363f 04bf 8b37 ffbe 4c2a fdbf
000002e0: 9f79 edbf 0f80 e7be 26fd 5bbf c16f b63e
000002f0: 0ad1 0bc0 c11b 4fbf d70c a6be 47e9 8bbe
00000300: dea5 96bf 5e78 0dc1 8880 0b40 89fd 4b3e
00000310: 5152 f6bf 84f1 0b3b 0fcf b3b9 e665 1ebf
00000320: a279 463d 2890 ae40 9bd7 c6be bab2 123f
00000330: 1229 943e 17fb c8bd 1b29 5dc0 4efe de41
00000340: d3fa e23d 2205 b73f 7379 023e 1b50 fa3f
00000350: 9820 b440 00aa 6440 c8e5 8341 6739 eb3a
00000360: 140c 853a 9953 8840 790b 393c 7c2c 693f
00000370: 7bd2 a83f 8fa9 55be 1476 de3d 4051 25bf
00000380: 0dd3 6a3f 1286 eb3e bcfe f03b 81d3 2141
00000390: da2a 53bf 9e76 02c1 1724 a0c1 bb4a 7f41
000003a0: 81a9 26bf 2000 10bf 2fad 05bf 98b8 a5bf
000003b0: 65ab bdbe 69e9 1dc1 f766 623d 6ca9 703f
000003c0: e802 a9bf a5c3 a4bf c9df f9bf b91d a3be
000003d0: c953 1dbf cc34 1fbf 516b 96be fc8b 193f
000003e0: 668b 94bf 1c08 893e 2919 ecbf 4b3b b5bf
000003f0: cc84 5e3e ccb8 053f eda1 1cbe 6f1e 3bbe

fc3.bias f4 [32]
-1.6827227 -2.6550872 -1.617172 -1.9522334 -2.6282084 -2.4234514 -0.25027776 -1.6787891
-2.1960502 -1.902266 -0.14049463 -0.71526414 -1.1728927 -1.1270101 -2.1188016 -1.2963846
-1.7304219 -1.4865805 -0.8656948 -2.0003512 -1.1955687 -1.2994349 -1.1846921 -2.5395906
-1.0897368 -0.6707948 -0.98616916 -0.20597821 -2.0277312 -1.6215426 -1.9073372 -0.18967846
00000000: 7563 d7bf f3ec 29c0 7eff cebf c9e2 f9bf
00000010: 9134 28c0 d419 1bc0 6824 80be 90e2 d6bf
00000020: 168c 0cc0 747d f3bf d3dd 0fbe 8d1b 37bf
00000030: 5921 96bf de41 90bf 729a 07c0 eeef a5bf
00000040: 777e ddbf 4548 bebf 2d9e 5dbf c105 00c0
00000050: 6508 99bf e253 a6bf fea3 97bf a788 22c0
00000060: 7f7c 8bbf 35b9 2bbf 9575 7cbf f4eb 52be
00000070: 59c6 01c0 b58e cfbf a023 f4bf 123b 42be

fc4.weight f4 [20, 32]
3.5411527 2.7780445 -1.8729978 4.2381897 1.4411743 1.4846791 4.1700144 -8.950699
3.2926414 1.4457545 -1.8689262 -4.9510975 -9.980124 0.29721358 -1.7701257 -5.8758807
-2.4522507 10.232513 -4.526035 0.58495367 4.5942307 -6.2103806 -7.0877953 1.6537545
-7.9255767 -5.9726405 -5.8753204 -3.7726638 1.8414047 -6.99753 -2.6245873 2.3283048
3.9128716 3.685375 -1.521797 1.8825905 2.2779047 1.3962488 -0.59435594 -9.687451
2.3297055 2.0921926 0.26350918 -2.7142313 -9.978053 1.8369446 1.3395814 -5.5327835
-1.269168 -2.1338818 -5.677862 2.2048936 3.6009412 0.9195876 -10.138271 3.9770172
1.703155 2.5946505 -1.5810208 -3.6672544 2.5479007 -10.796758 -2.5272524 2.2669477
1.3671898 1.8567736 -0.17752346 0.7499692 1.562628 -0.39031523 -3.052007 -3.0980098
0.15803133 -0.15333927 1.3666693 -3.203649 -1.0361964 0.007858954 2.2281353 -2.598586
-0.78447264 -8.171351 -3.5937328 1.6170487 0.71066064 3.7327166 -4.1337514 1.2395042
5.6419053 5.0980287 1.3187002 -0.94839066 0.580577 -5.4889855 -2.0494087 0.5903364
-0.951673 -1.7306107 0.102995865 -2.092553 -0.07214814 -0.1475203 -2.3341398 2.4775484
-0.812795 -1.6352383 1.0468205 -1.1504791 3.1241007 -0.98438823 2.0030437 1.4593337
0.3179 -5.8213964 -0.4894431 -0.9825908 -2.7988336 3.2203248 2.1573007 -0.89462954
5.284005 4.823032 2.2799754 1.3858933 -0.5775572 3.2219791 -0.35879982 -0.85372555
-2.5823298 -0.11733083 0.55168015 -0.14292409 -0.09122093 0.41848683 -0.2090441 4.0233607
1.0548512 -0.6787927 0.09386702 0.015779842 4.0028753 0.16089107 -0.7200508 4.289874
0.20961526 -0.28519678 3.4256394 -1.0166017 -1.7719866 1.3557411 4.060155 -1.9323785
1.2122782 1.327212 1.913299 1.7985336 0.186898 6.9652815 0.9806287 -1.1101606
-0.22437963 -1.525512 -0.3610037 -0.033748817 -0.60472465 0.083006345 1.2299513 3.3413165
-1.7850214 -0.56913 -0.5501496 0.20629033 1.7323109 0.1202886 0.09255432 2.03793
-0.33695742 3.3729167 -0.09121162 -1.1153183 -0.91857284 -1.182479 1.4437375 0.9115609
-1.9407755 -2.4993672 1.3628695 0.7472641 -1.2652111 3.2558331 0.6114764 -0.46304986
0.9859149 -0.69994956 0.21672787 0.57376873 -0.33552146 0.9544561 1.2125186 -0.93627405
-0.26948133 0.05530847 -0.5430665 -1.0917351 -1.1664853 0.050345775 0.07499535 0.28841698
0.0657654 2.9050586 -1.3950118 0.21112825 2.0565171 -1.6956915 -1.5906942 0.87474656
-2.3412628 -1.8446337 -1.4472495 -0.43072763 1.0406348 1.3373916 -0.44065747 0.2645
0.30014825 -0.42609066 -0.4194095 1.367953 0.15148123 -0.15959898 0.3253875 -2.8806467
-0.09462527 1.5103228 -0.14572813 -1.1398772 -4.314876 -0.8626971 0.41170782 -0.8169184
-0.77650994 0.72048324 3.2529688 -0.33659106 0.3308266 -2.841998 -2.6092412 0.73387474
-1.9034648 -0.7870595 -0.1471575 -0.83223706 -1.4526696 1.5355619 -0.19748464 0.5155277
00000000: 3fa2 6240 7bcb 3140 64be efbf 409f 8740
00000010: 6678 b83f f709 be3f c270 8540 1036 0fc1
00000020: a3ba 5240 7c0e b93f f938 efbf 646f 9ec0
00000030: 97ae 1fc1 612c 983e 7b93 e2bf 3707 bcc0
00000040: adf1 1cc0 60b8 2341 47d5 90c0 86bf 153f
00000050: f003 9340 70bb c6c0 38cf e2c0 3aae d33f
00000060: 539e fdc0 df1f bfc0 a002 bcc0 5373 71c0
00000070: 26b3 eb3f c4eb dfc0 3df9 27c0 f202 1540
00000080: 7d6c 7a40 2fdd 6b40 3eca c2bf baf8 f03f
00000090: 31c9 1140 48b8 b23f b627 18bf cdff 1ac1
000000a0: e519 1540 7ce6 0540 adea 863e f7b5 2dc0
000000b0: 1ba6 1fc1 0021 eb3f 6777 ab3f 900c b1c0
000000c0: 1974 a2bf 8591 08c0 0cb1 b5c0 fa1c 0d40
000000d0: d275 6640 186a 6b3f 5c36 22c1 7387 7e40
000000e0: fc00 da3f c10e 2640 e45e cabf 4cb4 6ac0
000000f0: ce10 2340 85bf 2cc1 81be 21c0 ac15 1140
00000100: 1300 af3f c2aa ed3f b6c8 35be fbfd 3f3f
00000110: 3204 c83f 66d7 c7be 1554 43c0 cb45 46c0
00000120: f7d2 213e f804 1dbe 05ef ae3f 9608 4dc0
00000130: 15a2 84bf d8c2 003c c599 0e40 3c4f 26c0
00000140: 33d3 48bf dbbd 02c1 b8ff 65c0 74fb ce3f
00000150: dbed 353f d4e4 6e40 b147 84c0 13a8 9e3f
00000160: 7d8a b440 0d23 a340 2bcb a83f bbc9 72bf
00000170: b2a0 143f c5a5 afc0 8329 03c0 4920 173f
00000180: d7a0 73bf a784 ddbf 7fef d23d 63ec 05c0
00000190: 67c2 93bd 900f 17be 8c62 15c0 2790 1e40
000001a0: 5513 50bf 7d4f d1bf 37fe 853f e642 93bf
000001b0: 44f1 4740 de00 7cbf de31 0040 72cb ba3f
000001c0: cac3 a23e e148 bac0 4998 fabe 128b 7bbf
000001d0: 1720 33c0 cd19 4e40 3711 0a40 7106 65bf
000001e0: 9216 a940 4756 9a40 1eeb 1140 f464 b13f
000001f0: cada 13bf e834 4e40 9cb4 b7be c28d 5abf
00000200: e444 25c0 254b f0bd e93a 0d3f b15a 12be
00000210: 0ad2 babd e843 d63e a80f 56be 5fbf 8040
00000220: 5d05 873f 5cc5 2dbf 5a3d c03d ba44 813c
00000230: 8e17 8040 a1c0 243e 4055 38bf a646 8940
00000240: 62a5 563e 5005 92be ad3d 5b40 0120 82bf
00000250: 75d0 e2bf ed88 ad3f caec 8140 2e58 f7bf
00000260: ef2b 9b3f 15e2 a93f fbe6 f43f 5936 e63f
00000270: 3062 3f3e 96e3 de40 7c0a 7b3f be19 8ebf
00000280: c6c3 65be fa43 c3bf 7ad5 b8be 333c 0abd
00000290: 3ccf 1abf 3bff a93d 0b6f 9d3f 21d8 5540
000002a0: 957b e4bf 81b2 11bf 9bd6 0cbf c63d 533e
000002b0: 5dbc dd3f df59 f63d 1f8d bd3d 726d 0240
000002c0: af85 acbe dedd 5740 28cd babd c0c2 8ebf
000002d0: 9727 6bbf 795b 97bf 64cc b83f 0e5c 693f
000002e0: 556b f8bf a2f5 1fc0 8272 ae3f b34c 3f3f
000002f0: 70f2 a1bf 925f 5040 b889 1c3f df14 edbe
00000300: eb64 7c3f e52f 33bf e9ed 5d3e 82e2 123f
00000310: 78c9 abbe 3c57 743f cf33 9b3f a8af 6fbf
00000320: 75f9 89be 228b 623d 6806 0bbf fabd 8bbf
00000330: 644f 95bf 5f37 4e3d 2997 993d 64ab 933e
00000340: 03b0 863d 7bec 3940 bf8f b2bf 0132 583e
00000350: fa9d 0340 6b0c d9bf de9b cbbf 64ef 5f3f
00000360: 40d7 15c0 f51c ecbf 793f b9bf 5588 dcbe
00000370: 8533 853f a62f ab3f db9d e1be 8b6c 873e
00000380: 08ad 993e 8e28 dabe d8bc d6be 1519 af3f
00000390: e51d 1b3e ea6d 23be 3199 a63e 845c 38c0
000003a0: e5ca c1bd 4252 c13f c139 15be 7fe7 91bf
000003b0: 7713 8ac0 b8d9 5cbf 5ecb d23e 9021 51bf
000003c0: 5bc9 46bf 9771 383f a430 5040 aa55 acbe
000003d0: 1b62 a93e 4ce3 35c0 cffd 26c0 37df 3b3f
000003e0: bca4 f3bf bb7c 49bf 75b0 16be 7d0d 55bf
000003f0: 14f1 b9bf 4b8d c43f 6a39 4abe a0f9 033f

fc4.bias f4 [20]
-0.55858314 0.9210617 1.1504725 0.45795196 -0.29372257 -0.53695923 -0.29556763 0.063969225
0.2365817 0.16910076 0.006024568 -0.09749356 -0.0893953 -0.02011294 0.03678808 0.044640165
0.01744279 -0.011869915 -0.02047387 -0.011649579
00000000: 4eff 0ebf b3ca 6b3f af42 933f ae78 ea3e
00000010: ce62 96be 2976 09bf a454 97be 4c02 833d
00000020: 7942 723e c028 2d3e bd69 c53b b4aa c7bd
00000030: e214 b7bd e4c3 a4bc 19af 163d 9bd8 363d
00000040: 2fe4 8e3c 087a 42bc d1b8 a7bc e0dd 3ebc
