scripts/TCLab_NNv0.pt (torch, 122786 bytes, 18 tensors)

weight f4 [64, 1]
00000000: f19a 15bf b001 c2bf 8d67 aebf d432 f93d
00000010: 1372 abbf 5e0b 033f d726 3cbf f5c1 6cbf
00000020: a20e 8f3f cde3 eabe 24f0 923f d31f 1b3f
00000030: 47a6 593b a2a3 c03e 8415 f73f ab7a c7bf
00000040: 1f1b c33e ba61 c3bf 25d8 3fc0 0747 4040
00000050: 914d f53e 7ee1 01bc 3fd4 8bbf 2f27 893d
00000060: c942 e43e b851 0b40 5b83 81c0 5132 d63e
00000070: e8e8 bf3e ee1b a7bf 7266 493f e4d5 b03f
00000080: e5f2 66bf 5a09 ffbf cf65 cab9 2a12 e0be
00000090: 9973 4a3f 0815 afbf 49fa f6bf 3360 ac3e
000000a0: 8feb c1bf f4d8 d33f eb0c f8bf 108c c3bf
000000b0: 6907 333c 0d30 b33f f80f 45c0 d8a6 833e
000000c0: e29a f13e 31c0 dc3f 20d6 17bf b645 88be
000000d0: b208 2b3f 5ce7 7f3f d631 7c3f 9d9c dd3f
000000e0: 9202 873c 55c3 4dbf 4274 273f 20ef e5bf
000000f0: 311b 56bf e1aa 84bd dc0a 7840 9570 0ec0
-0.58439547 -1.5156765 -1.3625351 0.12167898 -1.3394188 0.5118922 -0.73496765 -0.92483455
1.117634 -0.45876923 1.1479535 0.60595435 0.0033210681 0.37624842 1.9303441 -1.558431
0.3810663 -1.5264199 -2.9975674 3.0043352 0.4791074 -0.007927297 -1.0924147 0.06696927
0.44582203 2.1768627 -4.0472846 0.41835263 0.3748238 -1.3055398 0.78671944 1.3815274
-0.9021438 -1.9924729 -0.00038604296 -0.43763858 0.7908264 -1.3678293 -1.9295131 0.33667144
-1.5150012 1.6550584 -1.9378942 -1.5277119 0.01092706 1.3999039 -3.0790997 0.2571323
0.4718848 1.7246152 -0.59311104 -0.26615685 0.66810143 0.999624 0.98513544 1.731342
0.016480718 -0.8037618 0.6541177 -1.79636 -0.8363524 -0.06477905 3.8756628 -2.2256215

bias f4 [64]
00000000: c5c8 acbd cb8d 4a3e 9a64 483f 50b6 02be
00000010: d7e9 75bd 22ff 96bd 2de8 f4be 63a4 f0bc
00000020: cf28 93bd 0000 0000 1be6 7d3f 7fa0 b8bd
00000030: e2c6 933c 1299 24bf b366 853f 778e 87bd
00000040: 9a2a 7dbd 8493 73bd f6e0 7dbd ab08 7b3c
00000050: d494 91bd 2030 d23c 4e77 0abd 4faf 7abd
00000060: 7601 86bd 67aa f0bd dc3d 70bd 4ba4 a3bd
00000070: d000 283d 48d3 53bd 50cb 94bd a503 1abe
00000080: 1ee9 7abd 0000 0000 4eb0 e63e e699 3e3f
00000090: 7e2a 83be 2837 5bbd 6bd4 99be 52fb 50be
000000a0: b253 91bd 2e28 5fbe 397d 7bbd 9160 5ebd
000000b0: d6da 013d e5a4 82be 4bc9 11bc cec1 343d
000000c0: 0000 0000 3524 8cbd 16e8 a63d 8817 0fbe
000000d0: 8eae 9d3e fa4c 293e 43ad 233f 078c 07be
000000e0: 9988 be3d 7db6 04be 14bd 72bd d7d9 abbd
000000f0: 4b38 333f 0000 0000 1d2a cbbe 8e17 05be
-0.08436731 0.19780652 0.78278506 -0.12764859 -0.06003746 -0.073728815 -0.47833386 -0.02937526
-0.07185518 0.0 0.9917924 -0.09014987 0.01803917 -0.64296067 1.0421966 -0.0661897
-0.061808206 -0.059466854 -0.061982118 0.015321891 -0.07108465 0.025657713 -0.033805184 -0.061202344
-0.065432474 -0.11751252 -0.058652744 -0.07990321 0.0410164 -0.051715165 -0.07265341 -0.15040453
-0.061257474 0.0 0.45056385 0.7445358 -0.25618356 -0.053519398 -0.30044875 -0.20408371
-0.07096042 -0.21792671 -0.06139872 -0.05429131 0.03170284 -0.2551643 -0.00889809 0.04413014
0.0 -0.068428434 0.08149736 -0.1397382 0.30797237 0.1653327 0.6393625 -0.1323701
0.09303398 -0.12960239 -0.05926235 -0.08391159 0.7000777 0.0 -0.39680567 -0.12997267

weight f4 [64, 1]
00000000: cb6b 3e3f 759b 09c0 c3e5 94bf bf9d a13c
00000010: f4d3 da3e e222 d53e ab3b e83e 2158 453c
00000020: a131 dbbf a54f 7bbf 8790 723e 68d2 97be
00000030: 847f 193c 98fa 9cbf 72e8 6cbe a6fa a5bf
00000040: bb55 2bc0 78e5 c0be bf03 07c0 532a 813e
00000050: 811f 42c0 5a32 63bc a241 1ebf 21ba 8cbf
00000060: 65b0 93bc 9909 0b40 16ff b63d af50 3a3d
00000070: 717a 8840 549d 5f3d b8e2 f9bf b8d3 263f
00000080: 1d27 223f a60d 2a3d 8e57 a83b dd30 b63f
00000090: b021 22c0 60f6 1ac0 e571 a0bf 1bca c03f
000000a0: bfaf c33e c32a 1640 7968 953e 8180 e33e
000000b0: 90aa 6ebf 2cdb a13f 4b0e dfbf 63ed fdbe
000000c0: 511e cfbd 9f6a e5bf 861f 943e 94ce ba3f
000000d0: 26f3 49bf e438 df3f e567 1bbf a823 84bf
000000e0: 1cbc 843f cba3 b3bf f5ea 8ebf a7a2 923f
000000f0: 145c 8340 af7f 9cbf bacc 943f 538f ff3f
0.7438323 -2.1501133 -1.1632618 0.01972854 0.42739832 0.41628176 0.45358023 0.012044937
-1.712452 -0.981684 0.23687945 -0.29652715 0.009368781 -1.2263975 -0.23135546 -1.2967117
-2.6771076 -0.3767507 -2.1096036 0.25227603 -3.0331728 -0.013866985 -0.618189 -1.0994302
-0.018028447 2.1724608 0.089353725 0.045487102 4.2649465 0.0545934 -1.9522314 0.6516681
0.6334093 0.041516922 0.0051373905 1.4233662 -2.5333061 -2.4212875 -1.2534758 1.5061678
0.3822002 2.34636 0.2918127 0.44433978 -0.9322901 1.2645011 -1.7426237 -0.49595174
-0.10113204 -1.7923163 0.289303 1.4594293 -0.7888664 1.7439237 -0.60705405 -1.0323381
1.0369906 -1.4034361 -1.1165453 1.1455888 4.10499 -1.2226466 1.1624978 1.9965614

bias f4 [64]
00000000: c5c8 acbd cb8d 4a3e 9a64 483f 50b6 02be
00000010: d7e9 75bd 22ff 96bd 2de8 f4be 63a4 f0bc
00000020: cf28 93bd 0000 0000 1be6 7d3f 7fa0 b8bd
00000030: e2c6 933c 1299 24bf b366 853f 778e 87bd
00000040: 9a2a 7dbd 8493 73bd f6e0 7dbd ab08 7b3c
00000050: d494 91bd 2030 d23c 4e77 0abd 4faf 7abd
00000060: 7601 86bd 67aa f0bd dc3d 70bd 4ba4 a3bd
00000070: d000 283d 48d3 53bd 50cb 94bd a503 1abe
00000080: 1ee9 7abd 0000 0000 4eb0 e63e e699 3e3f
00000090: 7e2a 83be 2837 5bbd 6bd4 99be 52fb 50be
000000a0: b253 91bd 2e28 5fbe 397d 7bbd 9160 5ebd
000000b0: d6da 013d e5a4 82be 4bc9 11bc cec1 343d
000000c0: 0000 0000 3524 8cbd 16e8 a63d 8817 0fbe
000000d0: 8eae 9d3e fa4c 293e 43ad 233f 078c 07be
000000e0: 9988 be3d 7db6 04be 14bd 72bd d7d9 abbd
000000f0: 4b38 333f 0000 0000 1d2a cbbe 8e17 05be
-0.08436731 0.19780652 0.78278506 -0.12764859 -0.06003746 -0.073728815 -0.47833386 -0.02937526
-0.07185518 0.0 0.9917924 -0.09014987 0.01803917 -0.64296067 1.0421966 -0.0661897
-0.061808206 -0.059466854 -0.061982118 0.015321891 -0.07108465 0.025657713 -0.033805184 -0.061202344
-0.065432474 -0.11751252 -0.058652744 -0.07990321 0.0410164 -0.051715165 -0.07265341 -0.15040453
-0.061257474 0.0 0.45056385 0.7445358 -0.25618356 -0.053519398 -0.30044875 -0.20408371
-0.07096042 -0.21792671 -0.06139872 -0.05429131 0.03170284 -0.2551643 -0.00889809 0.04413014
0.0 -0.068428434 0.08149736 -0.1397382 0.30797237 0.1653327 0.6393625 -0.1323701
0.09303398 -0.12960239 -0.05926235 -0.08391159 0.7000777 0.0 -0.39680567 -0.12997267

weight f4 [64, 61]
00000000: 3e78 86be 77e9 08be 3f6b 4f3d ce46 903c
00000010: 9fbd 77bd f73f a53b cb1b 10be 8bb4 e63d
00000020: 076b 44be 479b 8bbd 034d e1bd b717 413e
00000030: b5c8 debd 83d8 c43d 03a9 64be 5f43 bb3d
00000040: cd61 42be 4873 dcbe 20c4 223e 2bff 683e
00000050: 2e2c 8b3b 9ea0 08be af32 08be a74b af3d
00000060: f01d a53e 5226 893e 0844 03be 152b 003d
00000070: 3023 a938 8370 8cbe c594 c0bd 452b ae3e
00000080: ca21 57bd 9f68 9bbd 4167 7bbe 32c1 c2be
00000090: 94bf 64bc 1f3c e6bd c1c5 0dbe 1fb3 63be
000000a0: e1b5 20bd beb9 32be 53d7 c9bd 2484 b2be
000000b0: 584e 6d3b 1f3a 32be 196d 7cbe 2efa 573e
000000c0: 36d0 dabe cfca 0d3e 922f ec3c 3327 ccbd
000000d0: 6e58 dd3b 1fd4 cabb c192 92bd e673 3c3e
000000e0: c76b d7bc 6c20 ccbd 20bc 58bd 36f5 bebc
000000f0: 3432 7abe 6434 b63d e0b6 9e3e c73d 4e3e
00000100: 2316 583e c267 d43e f46f ea3e d5ba 523e
00000110: 626f 953e cf1b 823e 754b 18be dcff ba3e
00000120: e5d2 183e ce3f 8c3e 5f7c 103f 107c d43d
00000130: 433e 1d3e 535e 743e f89e 883b 8ef0 a03e
00000140: c285 9b3e 6f4b 82bd e3cc a13d 5677 c33c
00000150: ede5 9fbd 527c 34bd 69a1 09be c443 0ebd
00000160: 947f 20bb 8f36 463e 7f16 f9bd 2983 25be
00000170: ea62 e1be f2e4 f73a 37fe 993d c28b 0cbd
00000180: 5f74 f43d ff0d 983d 9f20 583e 7462 c2bc
00000190: 0850 e0be 5fc8 2ebe f2e7 d1be b6bc 843d
000001a0: ee0c 94bd f846 f8bd daf3 9f3e 068c adbe
000001b0: ec4c e6bb 8c0a c6bd 118c 763d 06d5 e13d
000001c0: f216 a83e 3c1e c7bc 2116 2c3d c177 00ba
000001d0: 7c83 dbbc 0676 81bd 57ed 353e c2ec bb3d
000001e0: 8080 99bd 3f1b 7b3e ee50 27bd a784 a13d
000001f0: 6d4b 293e a174 c1bd ebf2 efbd 74f3 b33e
00000200: f90d 803d 84f3 d13e a06c abbe bd38 693e
00000210: 9884 a2be 2e73 00bd 5284 fb3c 6234 783d
00000220: e68a 84be 44aa d2be 00e2 8a3e 9b1f 83bd
00000230: 8a19 47bd a9c2 7dbe fc83 123e 2001 ebbe
00000240: dc42 babd f6d6 c1bd a75a 64bd b2d7 9d3d
00000250: c113 71bc 4286 a3be 9ba5 54bd fac4 943e
00000260: d40c f8bd 2086 07be 8e74 893e 7c3d 873d
00000270: 0870 f2bd fafc 893d c479 553e ec9e 4a3e
00000280: dafb cc3d 598a 1b3d da10 b13e c9c0 2d3d
00000290: a645 c9bd bc68 7dbe c0e8 993d 19a2 1dbc
000002a0: 4ec2 30be 4ab1 1fbe c7e9 abbc 64b2 d2bd
000002b0: 611a 233d df02 7ebc 56eb ce3d 00ec aebd
000002c0: 0598 59bd 54a9 26be acbd 3dbe 8671 b53d
000002d0: 31f5 1e3d 547d c03d f6b6 b43e 90c3 3dbd
000002e0: f6a9 2a3e 410c 0dbe 769b e7bd 3823 05be
000002f0: 4d7b e7bc e414 edbd 7a8d 9a3d 8e34 6fbc
00000300: 5347 713e 9076 2d3e a464 b93b a021 b2bd
00000310: d388 063d 65e2 95ba 6fe5 80bd dfde 643e
00000320: 75b3 c93e e07f 5f3d 5a6f 56be e340 a43c
00000330: 0260 28be ec9b 81bc b649 75be eb0b ab3e
00000340: bf36 cebd 7e66 08bc 04d5 143e c220 353e
00000350: 660e 9bbc 8552 7e3d 24f9 6bbd 326b 91bc
00000360: e751 f6bd 0a0d 5cbe f9a6 11be c418 29bd
00000370: 8eaf 013d 2d06 a7be 4e0a 363c 254e 1a3d
00000380: 2432 d9bc bd59 483d 6580 28be d1eb 0bbe
00000390: cf53 8cbe 1012 fc3d 76dc a0bc 9ecf 8cbe
000003a0: 7415 39be 3a4c 2e3e 4ae4 87bd 2e9d a23c
000003b0: 8008 c6bb ff8f 943d 1538 a3be 189b 18be
000003c0: 2769 543e 1a80 973c 48e2 b8bd acd6 363e
000003d0: b44a 853e fdf2 36be d38b 413e 934b 47be
000003e0: 86e4 d73c 6ded 64be 0b25 40be e5b0 80bd
000003f0: 6175 ff3c cd07 c03e e34b 843d 7c49 05be
-0.26263613 -0.1337031 0.050639387 0.017611887 -0.06048357 0.0050430256 -0.14073102 0.112649046
-0.19181453 -0.06816726 -0.11001017 0.18856703 -0.108781256 0.09611609 -0.22330098 0.091437094
-0.1898262 -0.43056703 0.15895128 0.22753589 0.00424721 -0.1334252 -0.13300584 0.085593514
0.32249403 0.2678705 -0.1281892 0.031291086 8.065102e-05 -0.2742959 -0.094033755 0.34017387
-0.052522458 -0.07588314 -0.24551107 -0.3803802 -0.013961691 -0.11241936 -0.13844968 -0.22236298
-0.039235953 -0.17453668 -0.09855523 -0.3486644 0.0036210027 -0.17404984 -0.24650992 0.2109153
-0.42736977 0.13846897 0.028831277 -0.09968414 0.0067549264 -0.0061898376 -0.07156897 0.18403587
-0.02629651 -0.099671215 -0.052913785 -0.023310285 -0.24433213 0.088967115 0.30998898 0.20140754
0.21102194 0.4148541 0.45788538 0.20579083 0.2918654 0.2541184 -0.14872535 0.3652333
0.149242 0.2739243 0.56439775 0.103752255 0.15355782 0.23864107 0.004169341 0.3143353
0.30375487 -0.06362044 0.07900407 0.023860615 -0.07807527 -0.044063874 -0.1344048 -0.034732595
-0.0024490105 0.1935675 -0.12162494 -0.16163315 -0.44020778 0.0018912836 0.07519191 -0.03431297
0.119362585 0.074245445 0.21106194 -0.023728587 -0.4381106 -0.17068623 -0.40997273 0.06481306
-0.07229029 -0.12122911 0.3124073 -0.33895892 -0.007028213 -0.096699804 0.06019217 0.11026959
0.32830006 -0.024306409 0.04201329 -0.0004900657 -0.026796095 -0.06321339 0.17766319 0.09176017
-0.074952126 0.24522112 -0.040848665 0.078866296 0.16532679 -0.09446073 -0.11716255 0.35146677
0.06252665 0.410061 -0.33481312 0.2277555 -0.31741786 -0.031359844 0.030702744 0.06059683
-0.2588722 -0.41145527 0.2712555 -0.06402513 -0.04860834 -0.24781288 0.1430816 -0.45899296
-0.09094784 -0.09464829 -0.055750515 0.07707156 -0.014714182 -0.31938368 -0.051915746 0.2905653
-0.12111822 -0.13234758 0.26846737 0.06603524 -0.118377745 0.067377046 0.20847231 0.19787186
0.100089744 0.037973735 0.3458317 0.042420182 -0.098277375 -0.24746984 0.07515097 -0.009621167
-0.17261621 -0.15594974 -0.020985497 -0.102879316 0.03982008 -0.015503614 0.101034805 -0.08541107
-0.053123493 -0.16275531 -0.18529385 0.088595435 0.03880805 0.093989044 0.35295838 -0.04632908
0.16666397 -0.13774206 -0.11308949 -0.13001716 -0.028257037 -0.1157625 0.07546516 -0.014599932
0.23562364 0.16939759 0.0056577493 -0.0869782 0.03284533 -0.0011435269 -0.06293761 0.22350644
0.39394727 0.05456531 -0.20940915 0.020050472 -0.16442874 -0.01582142 -0.239539 0.3340753
-0.10069036 -0.008325217 0.14534384 0.17688277 -0.018927764 0.062090416 -0.057610646 -0.01775131
-0.120273404 -0.21489349 -0.14223851 -0.041283384 0.031661563 -0.326219 0.011110855 0.03767218
-0.026513167 0.048913706 -0.16455229 -0.13664176 -0.2740769 0.12308133 -0.019636374 -0.2750215
-0.1807459 0.17021266 -0.066353396 0.01985034 -0.0060434937 0.072540276 -0.31878725 -0.14902914
0.20743237 0.0184937 -0.09027535 0.17855328 0.26033556 -0.1786613 0.18900995 -0.19462423
0.026354086 -0.22356196 -0.18764131 -0.0628374 0.0311839 0.37505952 0.06459787 -0.13016313

bias f4 [64]
00000000: c5c8 acbd cb8d 4a3e 9a64 483f 50b6 02be
00000010: d7e9 75bd 22ff 96bd 2de8 f4be 63a4 f0bc
00000020: cf28 93bd 0000 0000 1be6 7d3f 7fa0 b8bd
00000030: e2c6 933c 1299 24bf b366 853f 778e 87bd
00000040: 9a2a 7dbd 8493 73bd f6e0 7dbd ab08 7b3c
00000050: d494 91bd 2030 d23c 4e77 0abd 4faf 7abd
00000060: 7601 86bd 67aa f0bd dc3d 70bd 4ba4 a3bd
00000070: d000 283d 48d3 53bd 50cb 94bd a503 1abe
00000080: 1ee9 7abd 0000 0000 4eb0 e63e e699 3e3f
00000090: 7e2a 83be 2837 5bbd 6bd4 99be 52fb 50be
000000a0: b253 91bd 2e28 5fbe 397d 7bbd 9160 5ebd
000000b0: d6da 013d e5a4 82be 4bc9 11bc cec1 343d
000000c0: 0000 0000 3524 8cbd 16e8 a63d 8817 0fbe
000000d0: 8eae 9d3e fa4c 293e 43ad 233f 078c 07be
000000e0: 9988 be3d 7db6 04be 14bd 72bd d7d9 abbd
000000f0: 4b38 333f 0000 0000 1d2a cbbe 8e17 05be
-0.08436731 0.19780652 0.78278506 -0.12764859 -0.06003746 -0.073728815 -0.47833386 -0.02937526
-0.07185518 0.0 0.9917924 -0.09014987 0.01803917 -0.64296067 1.0421966 -0.0661897
-0.061808206 -0.059466854 -0.061982118 0.015321891 -0.07108465 0.025657713 -0.033805184 -0.061202344
-0.065432474 -0.11751252 -0.058652744 -0.07990321 0.0410164 -0.051715165 -0.07265341 -0.15040453
-0.061257474 0.0 0.45056385 0.7445358 -0.25618356 -0.053519398 -0.30044875 -0.20408371
-0.07096042 -0.21792671 -0.06139872 -0.05429131 0.03170284 -0.2551643 -0.00889809 0.04413014
0.0 -0.068428434 0.08149736 -0.1397382 0.30797237 0.1653327 0.6393625 -0.1323701
0.09303398 -0.12960239 -0.05926235 -0.08391159 0.7000777 0.0 -0.39680567 -0.12997267

weight f4 [64, 61]
00000000: a773 a33d b442 fc3d b3f5 1abe 73d8 4cbe
00000010: 00a6 b13c 8f70 68be ad5d 1e3d e771 ccbe
00000020: 3421 cb3d 39b1 633e 5d1e 93bd 15f6 43be
00000030: 0777 ffbd 05b4 4bbe ebbf 19be f362 d3be
00000040: 8030 24bd 075c 9f3d b5f9 613d f5b7 55be
00000050: 16e9 2c3e d62c 23bc 4707 953e 39f3 ce3b
00000060: 85e6 a9bd 148c 8bbe 3774 89be dd4d 5f3d
00000070: 7b35 653c 2095 3abe 5ab5 2b3e 6a5e 8abc
00000080: 8dfa 83be 5ff8 48bc 26ef 263e 5278 a3be
00000090: 6c05 363a f4d0 4cbd 3c31 2cbe 70f9 2f3e
000000a0: dd7c 3dbe 7a97 15be 69dc 8abd a00b c7be
000000b0: 9eed 9e3d b246 81be 8b51 723c b1b8 36be
000000c0: e17c 04be 9b8b c8bd a800 d83c 1357 bf3e
000000d0: 0ba6 8c3c 8d42 95be 2cdf 993d 8ecf 66be
000000e0: a7be 77be fab1 7ebd 1e8c 993d a72f 53be
000000f0: 364d b1bb 9ffb cf3e 37fb 8c3e 05d9 ad3e
00000100: a26a 6b3c a01f 1a3f b3ec ec3e 32e8 193e
00000110: 8e0a 3a3e 94e2 453c d180 cc3e 32dc 133f
00000120: 414a 8e3e e430 033f aad4 2e3e 50eb 273e
00000130: ba62 0c3e 9731 8c3e fe9f 053e e2e8 243f
00000140: a2d5 5e3e 7471 cdbe 0f53 0bbf e218 b5be
00000150: 9dfd c2ba 0409 90be b019 ddbe 5caf c0be
00000160: a743 05bf 2058 babe 7868 cbbe 2622 bbbe
00000170: 1146 14bf 80b4 bebe 5d4d 2abe 4f5f 6bbe
00000180: 1962 41bf d1d8 12be 158b 13bf 348c fbbe
00000190: 6615 dabe 6de7 963e 8d1a 093e 93cc f03e
000001a0: 876c 0cb9 61f2 16be cf83 d5bc 254c d03c
000001b0: 9647 26bc c538 21be b7fb 35be a0a9 b6bd
000001c0: 9145 2fbd 13d9 e9ba 6b95 49be 45fc 9d3e
000001d0: bf94 993e b706 093e ddba 323d cf64 0b3d
000001e0: 7f5d 893e 85a8 b13e fad2 0e3e 112b ecbd
000001f0: 0f89 003b 8484 53bd 8784 f7bd 7bb4 a63e
00000200: 60ff 4abd f328 febd 0ef2 2dbe 508e 0e3e
00000210: 9ccd 543e b766 a6be a67d 99bc 1cdf 6f3d
00000220: b819 0ebd 7645 7abe 246e 793e fef5 da3c
00000230: 745d 3e3e 8131 c0bd 857c 4b3e 3d9c 1c3d
00000240: 6dd4 ee3d 52fd dabe 19f2 9d3c 6486 86ba
00000250: bd2c b5bd c5fd bd3d 82d8 acbe c271 863e
00000260: 3d0b 643e 81ad 32be 47e8 0fbe 99cb 1d3d
00000270: 55c9 913c 93bd 2c3e a5c9 04be a52f 133e
00000280: 691b 83bc 53ff 59be 0956 693d 310c 0cbe
00000290: 1232 e03c 262b bfbe dedf a93e 593f 08bd
000002a0: 2185 56be 8ab7 ccbd 9f05 3c3e 2c89 a6bd
000002b0: 590a 013e 7b7b 02bc dac7 823e 59bc 0e3e
000002c0: 792b 63be 79ec 253d 494b 0dbe 124e d83d
000002d0: bfc9 16bd 7ffb 00bc 1060 85bd 694c c8bd
000002e0: f06a 3f3c d50a 48be 953c 01bd 7961 1a3c
000002f0: b53c f0bc a1d1 6d3d 0f81 e93c 8aac c7bd
00000300: 3212 3dbe 727b 4a3d d5dd 43be 660f ccbc
00000310: b5c8 16bd 3327 63be 93e7 7fbe 8f4b 5e3e
00000320: 7951 a4bc 896b 74be b795 07bd db2a 84be
00000330: 5e46 35bc 5607 04be 3a4e 7abd ee1c 343e
00000340: bb01 f43e 3a94 7b3e f6d6 7a3e f229 d7bd
00000350: 0828 f6bd c713 08bf a07b 33be bcf8 73be
00000360: 863a b1be cc1a 053e 7381 c3bd bcdf 8d3b
00000370: 588c d73e 768b febd 08a6 5cbe 9f05 bcbd
00000380: 3dcd b6be 1fd4 45bd dd44 293e 7997 ebbd
00000390: b809 0cbd 3340 e8bd 961b e73d c52d 52bd
000003a0: fb13 e4bd 3fd3 4c3d c9a0 a8bd a3dc 5bbe
000003b0: 0fda 983d 4aee be3b 735a 163d 5506 43be
000003c0: b3b1 84bc 4b21 b03e 15b7 1c3e 5bbd 65bd
000003d0: 537f 06be c6d8 17be 56af 5cbc ebce 7abb
000003e0: ee7c 9c3d 5959 edbd 8657 433e 4101 5fbe
000003f0: 7232 243e 5ad3 68be dbc6 f3bd 3ee2 17be
0.07981043 0.1231741 -0.1513279 -0.20004444 0.0216856 -0.22699188 0.038663555 -0.3993065
0.09918442 0.22235574 -0.07183526 -0.19136842 -0.124738745 -0.19892891 -0.15014617 -0.4128643
-0.040085316 0.07781225 0.05516978 -0.20870955 0.1688579 -0.00995942 0.29107115 0.0063156155
-0.08295921 -0.2725531 -0.26846477 0.054517616 0.0139898015 -0.18220949 0.16768399 -0.016890723
-0.25777093 -0.0122662475 0.16302165 -0.31927735 0.0006943557 -0.05000396 -0.16815656 0.17184997
-0.18504663 -0.14608565 -0.06780321 -0.38876057 0.07760166 -0.2524925 0.014789949 -0.17843892
-0.12938263 -0.09792253 0.0263675 0.3737112 0.01716902 -0.29152337 0.0751327 -0.22540113
-0.24193822 -0.06218145 0.07497428 -0.20623647 -0.0054108156 0.4062166 0.27535412 0.33954635
0.014368685 0.60204506 0.46274337 0.15029982 0.18168089 0.012077946 0.3994203 0.57757866
0.27791026 0.51246476 0.17073312 0.16398358 0.13709536 0.27381584 0.13049313 0.6441785
0.21761182 -0.4012562 -0.5442361 -0.35370547 -0.0014876608 -0.28131878 -0.4318366 -0.3763379
-0.52056354 -0.3639536 -0.3972814 -0.3654949 -0.5791941 -0.37247086 -0.16631074 -0.22985576
-0.7554031 -0.14340521 -0.576341 -0.49130404 -0.4259445 0.2947344 0.13389035 0.47031078
-0.0001339187 -0.14740898 -0.026063828 0.025426934 -0.010148903 -0.15744312 -0.17771803 -0.08919072
-0.042790953 -0.0017841182 -0.19685905 0.3085653 0.29996297 0.13381468 0.043635238 0.034031685
0.26829144 0.34698883 0.13947669 -0.11531652 0.0019612943 -0.05164005 -0.120858245 0.3255957
-0.04955995 -0.12410154 -0.16986868 0.13921475 0.20781559 -0.3250024 -0.018736672 0.058562383
-0.034692496 -0.2444056 0.24358422 0.026728626 0.18590337 -0.09384442 0.19871719 0.038234938
0.11661611 -0.42771393 0.01928048 -0.001026344 -0.08846424 0.09276918 -0.33758932 0.26258665
0.22269912 -0.17448999 -0.1405345 0.038524244 0.017796198 0.16869192 -0.12967546 0.14373644
-0.016004281 -0.21288805 0.056966815 -0.13676526 0.027367625 -0.37337607 0.3317861 -0.033263538
-0.20949222 -0.09995945 0.1836152 -0.08131632 0.12601604 -0.00796401 0.255431 0.13939036
-0.22184552 0.04050872 -0.1379825 0.10561766 -0.036813494 -0.007872461 -0.06512463 -0.09780199
0.011683211 -0.19535382 -0.031551916 0.009422653 -0.029325822 0.058061246 0.028503923 -0.09749706
-0.18463972 0.049434133 -0.19127591 -0.024909686 -0.036812503 -0.22182922 -0.24990682 0.21708511
-0.02005838 -0.23869146 -0.033101764 -0.25813946 -0.01106414 -0.12893423 -0.06110976 0.17589161
0.4765757 0.24568263 0.24496064 -0.10506047 -0.12019354 -0.5315518 -0.17527628 -0.23825353
-0.34614962 0.12998503 -0.09546175 0.0043296497 0.4209926 -0.12428944 -0.21547711 -0.0918076
-0.3570346 -0.048297998 0.16530176 -0.115035005 -0.034188956 -0.1134037 0.112845585 -0.05131318
-0.111366235 0.050006147 -0.08233792 -0.21470885 0.074634664 0.005826746 0.036707353 -0.19045384
-0.016198015 0.344004 0.15304215 -0.056088787 -0.13134508 -0.14828786 -0.013469538 -0.0038270305
0.07641016 -0.11589307 0.19076356 -0.21777822 0.16034868 -0.22736874 -0.11903163 -0.14832398

bias f4 [64]
00000000: c5c8 acbd cb8d 4a3e 9a64 483f 50b6 02be
00000010: d7e9 75bd 22ff 96bd 2de8 f4be 63a4 f0bc
00000020: cf28 93bd 0000 0000 1be6 7d3f 7fa0 b8bd
00000030: e2c6 933c 1299 24bf b366 853f 778e 87bd
00000040: 9a2a 7dbd 8493 73bd f6e0 7dbd ab08 7b3c
00000050: d494 91bd 2030 d23c 4e77 0abd 4faf 7abd
00000060: 7601 86bd 67aa f0bd dc3d 70bd 4ba4 a3bd
00000070: d000 283d 48d3 53bd 50cb 94bd a503 1abe
00000080: 1ee9 7abd 0000 0000 4eb0 e63e e699 3e3f
00000090: 7e2a 83be 2837 5bbd 6bd4 99be 52fb 50be
000000a0: b253 91bd 2e28 5fbe 397d 7bbd 9160 5ebd
000000b0: d6da 013d e5a4 82be 4bc9 11bc cec1 343d
000000c0: 0000 0000 3524 8cbd 16e8 a63d 8817 0fbe
000000d0: 8eae 9d3e fa4c 293e 43ad 233f 078c 07be
000000e0: 9988 be3d 7db6 04be 14bd 72bd d7d9 abbd
000000f0: 4b38 333f 0000 0000 1d2a cbbe 8e17 05be
-0.08436731 0.19780652 0.78278506 -0.12764859 -0.06003746 -0.073728815 -0.47833386 -0.02937526
-0.07185518 0.0 0.9917924 -0.09014987 0.01803917 -0.64296067 1.0421966 -0.0661897
-0.061808206 -0.059466854 -0.061982118 0.015321891 -0.07108465 0.025657713 -0.033805184 -0.061202344
-0.065432474 -0.11751252 -0.058652744 -0.07990321 0.0410164 -0.051715165 -0.07265341 -0.15040453
-0.061257474 0.0 0.45056385 0.7445358 -0.25618356 -0.053519398 -0.30044875 -0.20408371
-0.07096042 -0.21792671 -0.06139872 -0.05429131 0.03170284 -0.2551643 -0.00889809 0.04413014
0.0 -0.068428434 0.08149736 -0.1397382 0.30797237 0.1653327 0.6393625 -0.1323701
0.09303398 -0.12960239 -0.05926235 -0.08391159 0.7000777 0.0 -0.39680567 -0.12997267

weight f4 [64, 64]
00000000: 4732 8e3c 703a 083f 91e7 5dbe 5886 ad3d
00000010: e49d 7f3d 33f6 f8bd 8e81 79be 7e09 ae3e
00000020: fffb 293e b6b4 2a3e 2ffc a03d b1c1 8fbd
00000030: 8bda 673d 9560 bc3e 3fab 1fbe 87c4 4a3e
00000040: ea1d 00be 6945 243e d91b 11bf b445 8bbb
00000050: 2467 963d b4a3 5a3e 4b0d 3fbd 67ef e63c
00000060: 9841 cebd c194 383e 5faf 5c3e 483f 183c
00000070: 2f2a 01bb bb4c 3abd d998 c63e bf6d b13d
00000080: 0df2 c13a b139 afbc d191 ca3e 31ee 9ebe
00000090: 57fd 46bd 633a c53e ecfb eabc 7787 10bd
000000a0: 9cc0 a8bd 9612 fabe 71aa 73bd cac0 c2bc
000000b0: 4678 40bb 97ac 153e 447b f33d 4a22 5dbe
000000c0: efbb d63c 4c90 95bd 825d 903d b22c 8ebe
000000d0: 5810 453b 47cb 5f3e 3319 3c3e bca3 a3be
000000e0: 793b d93e a595 87be ebc6 63be 7068 823e
000000f0: af3c fd3d 5bfa cc3e 4292 843d 3a49 7c3b
00000100: 0af8 9c3d bb27 2a3e c896 a73e f44e aabd
00000110: 5d3f 1d3e 5749 953d 4647 0abe 7758 2a3e
00000120: 200f 94bd 1435 83bd dbf6 983e 26c6 133b
00000130: 683f 85be d18e 39be 3e2e 563e ca83 ae3e
00000140: 0943 47be 2ee7 86ba 3741 d7bc 21e3 4e3d
00000150: 19ce a43e 1d71 0bbe 6c0a e83d 556a f1be
00000160: 79c8 f4bd 75d1 f0bd 6f86 cd3d 9580 06be
00000170: 29ce 3abe 18f9 a13d 35f6 9e3e b09a bb3c
00000180: a5fc 033d 6f60 e2bd d4b0 e5bd 6b1e 303e
00000190: 3c65 0bbe 22c0 1b3d 8552 c5bd 2a5b 0fbe
000001a0: 1af9 ad3e 69a2 26be 9bbd 7cbe f559 c2bc
000001b0: 1293 2b3e 54fb 1d3d e300 76be 1e17 9cbd
000001c0: 4a9a 763d 8888 d9bc 3fe7 193d 9db0 433e
000001d0: bd06 d13d ca65 a93d 6712 bc3d 2bc0 903c
000001e0: 71c9 293d 2a5b 6b39 84ed c83c 7c68 f13d
000001f0: 88f4 1f3f 06a1 32be e565 b53a b80f dbbd
00000200: 5b78 493c 9881 243e ffa5 e73d fcd7 043e
00000210: e74e b7bd ec56 213e e7e6 223f 4447 b53d
00000220: 352c ba3e 96cb 0fbd 9121 593e 9876 f43d
00000230: 8d7d 73bc 6da9 703e fd5c 493d 1de8 b8bd
00000240: 4212 c2bd 93a6 7b3d c10a 4c3d 0bb5 2a3d
00000250: d914 e3bd 13ea babd d6d9 3b3d a262 aa3d
00000260: 8c9a afbe 3935 87bc 3f0a ef3d 357d c4bd
00000270: 465e 243e 8966 3e3e 99ac 62be d42b 18be
00000280: ec44 0bbc a09d cb3c 2e5b a83c a9a7 1ebe
00000290: ac0e 213d 7a55 23be 4af0 023e 9ee7 5fbe
000002a0: 7077 923d 83c7 28be effa 1c3e 50b6 3dbe
000002b0: e4a9 9a3d c28e 533e c562 d0bc 5891 713e
000002c0: 63d8 aabe 744f 133d cdd3 c0bd 3351 98be
000002d0: ac05 8e3e 4f21 593e 6963 01bf eb82 a03e
000002e0: f812 973c 17b1 7cbc 91b1 80be 4e38 743c
000002f0: 32a9 c83c 31d5 05be 0feb a13c 74ce 9a3e
00000300: 8803 e43d 0e90 313e 5145 e13a e2eb 92bd
00000310: 3129 953d b604 2c3e 6f78 debd 2b0e 16be
00000320: 3779 9abc 8cc2 1d3d 2b57 7c3d d757 4b3d
00000330: 8787 f83b 45f3 b4bd 0b73 dbbd dad1 03be
00000340: 6a5d 14bd e163 b3bd 0ce7 08bf ae44 d9ba
00000350: de5d 0c3d ec25 6abe 9c3b 8e3e e6c2 e1bd
00000360: 86df 02be 72cd 283b cf22 92be e4bd 30be
00000370: 4da7 a5bc 0bd2 9bbd ee31 0abe 35a4 1e3f
00000380: 0260 633e a7c7 24be 373d 383e cd51 b53d
00000390: d2e5 3a3d 44c6 9fbe f8b3 d2bd 0c16 debe
000003a0: f777 d03d 5eac e8bd 95ca 153e 5489 8cbe
000003b0: 4891 e63d e522 043e f187 033e 996d 66bd
000003c0: 134f 9f3d f803 10be 5b83 133d 475a cabe
000003d0: 0eb4 c4be e8e0 e43e 6f7d 683d 25f8 143d
000003e0: 0a9d 573c 53d9 f6be 9cfe d13d 29d1 943e
000003f0: f0ff 40be bbf2 023e 02ec 3d3d a823 73be
0.017357958 0.5321417 -0.21670367 0.0847289 0.062406436 -0.12156334 -0.24365827 0.33991617
0.16600035 0.16670498 0.078606 -0.070193656 0.056604903 0.36792436 -0.15592669 0.19801532
-0.12511411 0.16042103 -0.5668312 -0.0042502526 0.07343891 0.2135151 -0.046643537 0.028190328
-0.10071105 0.18025495 0.21551274 0.009292431 -0.0019708981 -0.045483332 0.38788489 0.086635105
0.0014796868 -0.021389814 0.39564374 -0.310411 -0.048581447 0.38521108 -0.028684579 -0.03528544
-0.08239862 -0.48842305 -0.059488717 -0.02377357 -0.0029368564 0.14616619 0.118887454 -0.21595111
0.02621266 -0.07302913 0.07049085 -0.27768475 0.0030069556 0.21854888 0.18368988 -0.31960857
0.42428187 -0.26481357 -0.2224385 0.25470304 0.1236509 0.40034756 0.06473209 0.0038495795
0.07664497 0.16616718 0.32732224 -0.0831584 0.15356202 0.07289379 -0.13503751 0.16635309
-0.07229447 -0.06406608 0.29875836 0.0022548526 -0.26024938 -0.18120886 0.20916077 0.34084922
-0.19459166 -0.0010292286 -0.026276214 0.050509576 0.3218849 -0.13617368 0.11330113 -0.47151437
-0.119522996 -0.11758701 0.10035407 -0.13134988 -0.18242706 0.07908839 0.31047216 0.02290091
0.032223362 -0.110535495 -0.11215368 0.17199104 -0.13612837 0.03802503 -0.0963488 -0.1399962
0.33979112 -0.16272892 -0.24681704 -0.023724535 0.16755322 0.038569763 -0.24023776 -0.07621597
0.060205735 -0.026554361 0.03757405 0.19110341 0.10206363 0.08271368 0.091831975 0.017669758
0.041451875 0.00022445308 0.024527319 0.11787507 0.624825 -0.17444238 0.0013839571 -0.106963575
0.012296761 0.16065061 0.11310958 0.12973017 -0.08950596 0.15755814 0.6363358 0.088514835
0.36361852 -0.035106264 0.21204211 0.119366825 -0.014861477 0.23502131 0.049160946 -0.09028647
-0.09476139 0.061438154 0.049814943 0.041676562 -0.11087961 -0.09126677 0.04586204 0.08319594
-0.34297597 -0.01650487 0.11671876 -0.09594194 0.16051587 0.18593802 -0.22136153 -0.14860469
-0.008500319 0.024855435 0.02055129 -0.15493645 0.039320633 -0.15950575 0.12786976 -0.21865699
0.07151687 -0.16482358 0.15330099 -0.18526578 0.07551935 0.20659927 -0.025437722 0.235906
-0.33368215 0.035964444 -0.09415398 -0.2974945 0.27738702 0.21204112 -0.5054231 0.31349882
0.018441662 -0.015423081 -0.25135472 0.014906002 0.024494741 -0.13069607 0.019765405 0.30235636
0.11133486 0.17340109 0.0017186796 -0.07173897 0.07283247 0.16798672 -0.10862815 -0.14653842
-0.018856628 0.038515612 0.061606567 0.049644317 0.0075845155 -0.088354625 -0.10715302 -0.12873021
-0.0362219 -0.08759285 -0.5347755 -0.0016576254 0.034269206 -0.22866029 0.27779853 -0.11023502
-0.1278058 0.002575722 -0.28542182 -0.17259938 -0.020221377 -0.07608422 -0.13495609 0.6196931
0.22204593 -0.16091786 0.17992102 0.08853493 0.04562933 -0.31205952 -0.102882326 -0.43376195
0.101791315 -0.113610014 0.1462806 -0.27448523 0.11258179 0.12903936 0.12844826 -0.056256864
0.07778754 -0.14064014 0.036013942 -0.39522 -0.3841862 0.4470284 0.056760248 0.03636946
0.01316 -0.4821268 0.10253641 0.29065827 -0.18847632 0.12787907 0.046367653 -0.2374407

bias f4 [64]
00000000: 1a25 98bc 716f 203f 09bc a5bd f057 ef3d
00000010: 42dc 87bd 4ee4 8dbe 66a7 9cbd fb2d cb3e
00000020: 64dd 95bd 8d41 56be 92be d4bc 6938 1ebf
00000030: f162 54bd 4f72 bd3e c935 ec3d 7d99 acbe
00000040: 3bb9 313f e8d0 0abe 9ec3 323f 1bce a33d
00000050: f0b3 63bd 35c3 afbe 21d9 7ebd 0d36 803d
00000060: d235 303f c154 b4bf da8d 44bf fcb3 4dbe
00000070: ab8d 0c3e e2af 80bd eac5 373e 2c6a 873f
00000080: f642 cabd 2a45 c03d 1463 8b3d a812 d5be
00000090: 2ef9 883d e569 a73e c325 81bd d862 fd3d
000000a0: 8ccc 8ebd c80a 4c3f eafc 56be a6f6 fe3d
000000b0: 4788 f93e de4e b1be 26e9 aabe 67aa 983f
000000c0: 6e06 da3c 58e6 63bd f3a5 4a3e 9f3d bebe
000000d0: eb01 883e 205f 353f 671e a2be f8e2 f1bb
000000e0: 7d75 aabd d557 96be 511d 91be 0512 b43e
000000f0: de0b 99be 8a47 f7be 10ef 15bf f815 0e3e
-0.018572379 0.62670046 -0.080925055 0.116866946 -0.06633808 -0.27713245 -0.07649116 0.39683518
-0.073176175 -0.20923443 -0.025969777 -0.61804825 -0.05185217 0.37001273 0.11533696 -0.33710852
0.69423264 -0.13556254 0.6982974 0.07998296 -0.055591524 -0.3432862 -0.06221879 0.06260309
0.68832123 -1.4088365 -0.7677895 -0.2008819 0.13725917 -0.06283547 0.17946592 1.0579276
-0.09876053 0.09388192 0.06806007 -0.41615796 0.06688152 0.3269798 -0.063060306 0.123723686
-0.06972608 0.7970395 -0.20994917 0.12449388 0.48736784 -0.34630483 -0.33381003 1.1927003
0.026614394 -0.055639595 0.19789867 -0.37156388 0.26563963 0.70848274 -0.3166382 -0.007381793
-0.0832319 -0.29363886 -0.2834268 0.35169998 -0.29891866 -0.48296767 -0.58567905 0.13875568

weight f4 [64, 64]
00000000: 07a9 bcbc 5d25 153f 6119 b73d 2851 8aba
00000010: 749d 133e fddf c73d 6585 9cbe ad5e 583d
00000020: 6a86 2b3d 0e30 0f3b 9dc5 4c3f 1467 c83c
00000030: d8f4 e13c a322 c5bc d5f1 0fbe 90a0 593e
00000040: a86e 12bf 63ee 8f3f 1d83 a6be d5e7 2eb9
00000050: 27e8 823c a384 033e 36a1 843e 457b f63e
00000060: 6e6d 54bf 0891 a43a 53a7 853c b882 27ba
00000070: 2484 9f3a 7a40 06be 8e1d c5ba 3d8c 923f
00000080: 6e61 51be 0f06 49bb 0a68 733e a94a 9cbe
00000090: db15 90bd 4231 2ebd 70f9 a13d 4e4c dfbe
000000a0: dfb1 62be 4bfb 7dbf fd23 cbbd d14d 433d
000000b0: f9d2 f13b 5481 083e badf 91bd 013c 0abf
000000c0: 0134 d1bb e0fc 67bd 3cb5 2fbb 5343 81be
000000d0: afb9 eebd 2cb1 9b3d aaf4 9dbd e11f b43a
000000e0: 69d8 f1bd b2c8 06be fde9 a4be c6f3 4ebd
000000f0: d381 55be 186a f039 7680 98bb 30d4 3fbc
00000100: 292d 25be 3335 0fbf 4994 98be 91c1 3ebe
00000110: 26ab 27be b838 8c3c cc8a c13c 7a94 67be
00000120: 0d20 323d a0bb 98be 4634 81bd 727a 6bbe
00000130: c13c 163e 2a82 09bf 0e6f 46be 0f5a f93d
00000140: 0a40 3abe a434 65be e31c 1dbe 2c09 f23c
00000150: 6055 59be 98ca af3d 0e52 8b3c 62fe babe
00000160: 635c c0be 729f 05bf 1886 14be c804 aa3d
00000170: 83d3 f33d 48db bebe c5ec 2d3c 3db9 05be
00000180: c732 553e 37d7 b1be a624 85be 786a e2be
00000190: d842 d7bd db8e 91be c51b 69bd a401 a7be
000001a0: 7ff2 25bd 30f6 4c3e e0cb 6bbe 0c52 3e3e
000001b0: 1fba a8bd 4250 54be 05a5 453e c9a0 d5be
000001c0: d303 2ebd 2cef 273d 54b6 b53b d6bf 7cbd
000001d0: 9fc7 3ebe 2183 08bd 452a 5f3e 0725 a5be
000001e0: 88c3 a33d 6168 a8be 6275 15be 8e12 aabd
000001f0: 9a0c f7bc e498 0d3e 5b36 dbbe af9b 3fbe
00000200: 1519 003d 8cb5 b03e 65fe bdbc 0ea9 77bb
00000210: 2d36 ae3d 4442 133e 4068 08be ba73 573d
00000220: 532f 5e3e 2b5c 37ba 701a 443f 7e7c a43c
00000230: 942d b6bc 9ce5 563b 3d38 03bc 053b 583d
00000240: d58c 09bf 3433 a53f 930c cdbe 1855 d3bb
00000250: 04ca 44be 23f6 483e ce2e e93e 58a5 bd3e
00000260: c94c 9fbf 0770 c839 a3a3 f63c a5de cd39
00000270: 2988 9bb9 f00c bf3d 4154 3539 6313 633f
00000280: 5328 44be 0678 afbb 9015 9e3e ea69 98be
00000290: 5267 a2bd e986 e2bc c56c 763e 1a18 d8be
000002a0: ba2c 4f3e 8699 79bf d081 21be 9813 a6be
000002b0: 4c68 5b3c c6ed d9bd 5429 debc 0f22 15bf
000002c0: 5017 603c 3472 fabe ce9d 94bc b85c ea3e
000002d0: 6dc4 d6bd bc84 403c 12b5 88be e480 14ba
000002e0: 9267 09be 5961 75be 5837 e53d 26ba 833e
000002f0: cb12 8ebe 3ca9 b43a e67e eab9 d569 b2bc
00000300: 8fc3 703d 5faa 57bd 6973 07be 9a7e d4bc
00000310: 93ab b6bd 90fe 633b ee70 7d3d de7c be3c
00000320: 0ac9 6fbe d590 6b3c 6e49 9d3b b460 33bb
00000330: c0bd 8bbd 40eb c33c d7e0 89be fdcc 84be
00000340: 978f c7bf 4829 94be 1324 d53d 7475 04bd
00000350: 3525 8cbd 7ea7 96be 7c10 3e3d 48dd 21bf
00000360: 3cb9 cdbe 33b8 6ebc d10a 933c d079 83bd
00000370: b86c 95bd 05d1 c03d 1e90 ac3d 7a69 e9bd
00000380: 0faa d5be 04ed d1bb 653a e53e 3f14 70bd
00000390: e73e 9abc fe67 46be 4c51 e93e e064 64be
000003a0: c665 083e 4fc5 74be 4e66 d43b 932d afbd
000003b0: 8a4b d0bf 3c1e 1cbe 560c 15be 3fbb 8c3e
000003c0: 184a 393f 8614 e4be 1cee 8a3d c7d2 56be
000003d0: ae48 ddbc b0d4 ae3c bfb4 61bd 31ed d13b
000003e0: e01c eebd dac1 6d3f 05a7 073e 2454 78bc
000003f0: 08e9 40bd 2878 723c fea7 4e3e 5ef4 0abc
-0.023029817 0.58260137 0.089403875 -0.0010552751 0.14415532 0.09759519 -0.30570522 0.052824665
0.041876234 0.0021848711 0.79989034 0.024463214 0.02758257 -0.024064368 -0.14057095 0.21252656
-0.572001 1.1244625 -0.32521906 -0.00016680297 0.01597984 0.12843566 0.25904244 0.48140922
-0.82979476 0.001255543 0.016315138 -0.0006390023 0.0012170118 -0.13110533 -0.0015038715 1.1449047
-0.20447323 -0.0030673777 0.23770157 -0.3052571 -0.070354186 -0.042527445 0.079089046 -0.43612903
-0.22138165 -0.9921157 -0.099189736 0.047681633 0.007379886 0.13330585 -0.071227506 -0.5399781
-0.006384373 -0.056637645 -0.0026810905 -0.25246677 -0.1165651 0.07602152 -0.077126816 0.0013742411
-0.11808855 -0.13162497 -0.3220977 -0.05052545 -0.20850305 0.00045855413 -0.0046539856 -0.011708304
-0.16130508 -0.5594055 -0.29800633 -0.18628527 -0.16373882 0.01711689 0.023625754 -0.22615233
0.043487597 -0.29830647 -0.063087985 -0.22995928 0.14671613 -0.5371424 -0.19378302 0.121753804
-0.18188491 -0.22383362 -0.1534305 0.02954539 -0.21223974 0.085835636 0.0170069 -0.36522204
-0.37570485 -0.5219642 -0.14504278 0.08301693 0.11905577 -0.37276673 0.010615532 -0.13058944
0.20820151 -0.34734508 -0.26004523 -0.44221854 -0.10510796 -0.28429303 -0.05691125 -0.3261844
-0.040514465 0.20015788 -0.23026991 0.18585986 -0.08238625 -0.20733741 0.19301231 -0.41724232
-0.042484116 0.040999576 0.005545417 -0.061706387 -0.18630837 -0.03332818 0.21793468 -0.32254812
0.07996279 -0.32892135 -0.14595559 -0.0830432 -0.030157376 0.13827854 -0.42814907 -0.18711732
0.03127392 0.3451351 -0.023192594 -0.0037789973 0.08506427 0.14380747 -0.13321018 0.0526006
0.2169774 -0.000699463 0.7660284 0.020078894 -0.02223853 0.0032790666 -0.008009014 0.05279066
-0.5373052 1.2906251 -0.40048656 -0.006449353 -0.19217688 0.19625144 0.45543522 0.3704021
-1.2445308 0.0003823044 0.030107325 0.0003926653 -0.0002966535 0.093286395 0.00017292892 0.88701457
-0.19156007 -0.005354884 0.30875826 -0.29768306 -0.07929863 -0.02765222 0.2406493 -0.42205888
0.20231906 -0.97499883 -0.15772176 -0.32436824 0.0133915655 -0.10641055 -0.027119316 -0.58255094
0.013677433 -0.48915255 -0.018141653 0.45773864 -0.10486684 0.011750396 -0.26700646 -0.0005664958
-0.13418415 -0.23962916 0.111921966 0.25727957 -0.27748713 0.0013783346 -0.00044726505 -0.02177898
0.05878025 -0.052652713 -0.13227619 -0.025939275 -0.08919444 0.0034789182 0.061875276 0.0232529
-0.23416534 0.014377792 0.0048000133 -0.0027370872 -0.06823301 0.023915887 -0.26929352 -0.25937644
-1.5590695 -0.28937745 0.10407271 -0.032338575 -0.06843034 -0.2942466 0.04640244 -0.63228273
-0.40180385 -0.014570284 0.017949494 -0.06419718 -0.07296127 0.09414867 0.08425926 -0.11397071
-0.41731307 -0.0064064283 0.44771114 -0.05861306 -0.018828822 -0.19375607 0.45569837 -0.22304106
0.13320073 -0.23903392 0.006481922 -0.085536145 -1.6273053 -0.15245908 -0.14555487 0.27486607
0.72378683 -0.44546908 0.06783697 -0.20978843 -0.027012195 0.021341652 -0.055104014 0.0064064492
-0.11626601 0.9287392 0.13247307 -0.015156779 -0.047097236 0.014799155 0.20181271 -0.008481113

bias f4 [64]
00000000: 4751 49be 42f4 54be f186 86bf 7e08 e6be
00000010: bfcc d4bd ebf5 063f cff2 0bbe 874c 99bd
00000020: 2939 9fbe 5108 d4bd 26e0 753f aa49 8ebd
00000030: 5b7d a2bd bb84 de3e 12ca 043f eabb 93bd
00000040: 4575 7cbd f471 fbbd 51c8 483f 39dc b6bd
00000050: a921 013f 492a 3fbe d466 edbd 9efc 18be
00000060: f3ed 983e 78b0 123f 2117 bbbd 529a bebd
00000070: 3d0b bfbd 15a3 2a3f 2f2f 373e 8dcf b5bd
00000080: f903 a73e 79e4 c8bd 9cae 483f 7806 79bd
00000090: d78e 143f 2dc5 66bd 6059 b3be 0e06 633e
000000a0: 0c8b 39be 6f0b 81be e9d6 303f 9d7a cbbd
000000b0: e2e8 083f 181c 2a3f 7f84 ff3d 4764 313f
000000c0: 7431 2f3e 5ea6 14bc 84fd 0ebe b2a7 bf3e
000000d0: 51fd 1e3f 9cb8 0abf d894 22be ad33 bfbc
000000e0: 51c8 5a3f aad5 5b3d 07ed f03b 87fa 71be
000000f0: d310 003d 2533 b5be c0b8 243f 5ea3 d6bf
-0.19659911 -0.20796302 -1.0509931 -0.44928354 -0.10390615 0.5271899 -0.13666843 -0.074852996
-0.31098297 -0.10353149 0.9604515 -0.06947644 -0.07934066 0.4346064 0.51870835 -0.07213576
-0.061635274 -0.12277594 0.7843066 -0.08928723 0.50441986 -0.18668474 -0.115918785 -0.14940116
0.2986904 0.5730052 -0.09135271 -0.09306778 -0.093283154 0.66655093 0.17889093 -0.08877478
0.32620218 -0.09809203 0.7839143 -0.060797185 0.58030456 -0.056340385 -0.35029125 0.22170278
-0.18119448 -0.25204036 0.69077927 -0.09935496 0.5348035 0.6644912 0.124764435 0.69293636
0.17108709 -0.009072868 -0.13963896 0.3743263 0.6210528 -0.5418794 -0.15877092 -0.02334007
0.8546191 0.053670563 0.0073524746 -0.23630725 0.031266045 -0.35390583 0.64344406 -1.6768606

weight f4 [64, 64]
00000000: 38ac cf3e f558 4c3f 3ade b4be 0806 3c3e
00000010: 5807 17be b2fc 383b 8e86 abbd e5b9 18bd
00000020: 3f02 8f3d 3588 b4bc 30d7 163d ca34 c8bb
00000030: 7ee2 cfbe 255b bcbd 03d1 5d3e 8b38 343d
00000040: 5264 eb3c 1f5f 013e e79f cc3d ede8 603e
00000050: 4797 0c3e 0750 713d d746 b8bd 5281 0f3e
00000060: e8b7 fc3e 4f3e c33e e455 83bd 2c3e 83bf
00000070: d08c e8be 91b8 8f3a c72f 8fbf deba 183f
00000080: 28fb dd3d b1e1 8e3d d694 17be 6ccf 49be
00000090: 14e6 373c b1c3 dd3b 4b4a 1ebe fdf7 883e
000000a0: e34c 7cbe 819e 653f 5f87 453d 96c0 5cbc
000000b0: 11cb 563d 9195 3a3d 1511 2abc 4ea7 d73e
000000c0: 2216 c33e 5c74 9fbd 5f56 203c 25a0 6a3e
000000d0: bd34 883d 9eee 09bd 56ac d93e ee28 cbbc
000000e0: d58f acbe c265 b4bd 6598 32be 136f df3b
000000f0: 067e 3cbd 6b36 b3bf e395 86be 988c 20bd
00000100: 9890 993e ec73 92be bc7c 213d 5418 863c
00000110: c0ab 343e 4c2b e53e 756b 523e 3474 5ebe
00000120: 5ecb e7bd 967a a93d c76a 4dbe efcc 1ebf
00000130: 91e8 c0be 650e 4bbe 7da4 583e fd71 223d
00000140: 5625 e03d 4a14 1ebc 41c2 0dbf a223 ecbc
00000150: d9f4 b4bc 94e0 52be 23a1 623e 3482 103d
00000160: ffa3 80be d6ef 02bd 2e5d 093d ad1c 52bb
00000170: b0c0 a139 2b1c 90bc f13a ebbc 5062 013e
00000180: 7e03 11bd d07d babc 6e44 fbbd cc8a aa3c
00000190: 0833 8340 b45b ab3e 3e87 de3d 49d1 68be
000001a0: 04d2 d0bd f587 133e 37e4 ee3e 8247 c7bb
000001b0: f604 64bc 6e10 72be 6c15 b63e 6435 f33e
000001c0: 75dd 943d 6886 fbbe 0533 f13b 75ec 3b3e
000001d0: 5513 35c0 18b5 3bbd 9a9c 3b3e ab93 31bd
000001e0: ee34 b4bd 0590 90be 9e6a 983d c9fa a9bc
000001f0: 7a98 923e 334c 3cbb bb18 b03c 0370 d63d
00000200: 6177 25be 74c9 883e 4240 45be d878 0f3d
00000210: 8e2f 53bd f721 7ebe 70a3 abbe ee89 53be
00000220: e95e 193e a3d6 163d 2194 03be 58d1 81be
00000230: 0ee5 60bd eb47 76bd 4d99 0bbf 42b6 9fbe
00000240: 3c8b b7bd e168 b13b 8626 8c3d f56f 85be
00000250: 0513 bc3e c8e5 223d fb7a 6bbe 86e6 f23b
00000260: ea47 06be 0428 0cbd 40b3 1ebe a03b 6dbe
00000270: 5aa6 873d 81e7 9c3e 7438 83bd daf2 3d3e
00000280: db7b 9f3d 88f3 42be 002f a23d 532d 95bd
00000290: 7840 66be b922 e63d 7432 d7bd 7d88 c7be
000002a0: 321a 213d a0a4 b2be 6501 d1be 0daa b43e
000002b0: 79dc e0bd 9fae 30be 3330 613d 18c5 69be
000002c0: 28f3 48ba b688 86bd ba55 debd 0ff9 f23d
000002d0: b2a6 acbe d3ca 8c3e 8e9d 82be f9f4 873d
000002e0: 2b11 80bc f94e ccbe 3340 4c3e 10f1 96be
000002f0: 7bce 333b 3e36 cebd 711b 02be 6e19 89bd
00000300: aff1 023f 792d 513e d19d 983e abad 8a3e
00000310: bdd4 e03b 0472 c8be 144d 17bd b00a aabd
00000320: 9974 2ebe d3f6 08bf 00cd 12bd 4c6a 933e
00000330: 80a2 253e b803 ff3c 3ae3 0e3e 0ee2 d83d
00000340: 848e 813b 0b44 433e baa4 113e 97b4 30bc
00000350: 17bd aa3e 790d 8abe 5934 febd c75a aabd
00000360: 9117 c13d e3ca a73f 554c e6be 7992 7ebe
00000370: 3684 ca3e b43f babd a46f 87be 33d0 df3d
00000380: f835 623d 32e7 6fbf 67cc f23d 40e9 ba3d
00000390: 03f8 163d b7e6 75be ac11 dd3d 878b 773e
000003a0: eb06 1bbe 0840 913e 527c 97be c7da 23bc
000003b0: b347 c8bd 2c79 4e3e ff1a eebc 25cd e63e
000003c0: d52d c73c c09c 2e3d 7dd5 0a3c ce4b c2be
000003d0: 2f41 c6bd 7406 b53c 90f5 9fbe 7406 20bf
000003e0: 0f7c 28be 7f7b 58bc e7a9 abbe bca1 0b3e
000003f0: 169c b8be dafa 2dbf 36c2 f2bd 7c2e a63d
0.4056108 0.7982324 -0.35325795 0.18361676 -0.14748895 0.002822679 -0.08375274 -0.037286658
0.0698285 -0.022037605 0.036826313 -0.0061098086 -0.40602487 -0.09197072 0.21661763 0.043999236
0.02873436 0.12633942 0.099914365 0.21963854 0.13729583 0.05891421 -0.08997887 0.14014176
0.4935906 0.38133475 -0.06412867 -1.0253348 -0.4541993 0.0010965039 -1.1186455 0.59660137
0.1083892 0.06976641 -0.1480287 -0.19708031 0.0112242885 0.006767713 -0.15458028 0.267517
-0.24638705 0.8969498 0.048224803 -0.01347365 0.052439753 0.045552794 -0.010380049 0.4211983
0.38102823 -0.07785866 0.0097862175 0.22912653 0.06650684 -0.03367483 0.42514294 -0.02479979
-0.33703485 -0.08808471 -0.17440946 0.006818661 -0.046018623 -1.4000982 -0.2628623 -0.03919658
0.2999313 -0.28604066 0.039425597 0.016369022 0.17643642 0.44759595 0.20548804 -0.21724015
-0.11318086 0.082753345 -0.20060264 -0.62031454 -0.37677434 -0.1982971 0.21156497 0.03965949
0.10944621 -0.009648392 -0.5537453 -0.028825585 -0.022089409 -0.20593482 0.22131781 0.03528042
-0.2512512 -0.031967007 0.03353613 -0.003206055 0.00030851876 -0.017591557 -0.028714629 0.1263516
-0.03540372 -0.02276507 -0.12268911 0.020818137 4.0999794 0.334684 0.10865639 -0.22736086
-0.10196307 0.14407332 0.4665849 -0.0060815224 -0.013917198 -0.2363908 0.3556322 0.4750167
0.07268802 -0.4912598 0.0073608183 0.1835192 -2.829305 -0.045827 0.18321458 -0.043353718
-0.08799158 -0.28234878 0.074422106 -0.020749466 0.28631955 -0.0028731942 0.021496167 0.10470583
-0.1615882 0.26716197 -0.19262794 0.035027355 -0.051559024 -0.24817644 -0.3352313 -0.20658085
0.14977612 0.036825787 -0.12849475 -0.2535503 -0.054905944 -0.06012718 -0.54530793 -0.3119374
-0.08962104 0.005414114 0.06843285 -0.2606198 0.3673326 0.039769918 -0.22996132 0.0074127344
-0.1311337 -0.03421785 -0.15498066 -0.23167276 0.06623526 0.30645373 -0.06407252 0.18549672
0.077872954 -0.19038212 0.07919121 -0.072840355 -0.2248553 0.112370916 -0.1050767 -0.3897132
0.039331622 -0.34891224 -0.40821376 0.35285988 -0.10979552 -0.17254113 0.054977607 -0.22829092
-0.00076656276 -0.06569044 -0.10856195 0.118639104 -0.33720928 0.27498493 -0.2551083 0.06638522
-0.015633186 -0.39904 0.19946365 -0.2948079 0.0027436304 -0.100689396 -0.1270578 -0.066943035
0.5115003 0.20427503 0.29807904 0.27085623 0.006861298 -0.39149487 -0.03693874 -0.0830282
-0.17036666 -0.53501624 -0.035840034 0.28792036 0.1617527 0.031129703 0.13953868 0.105899915
0.0039537568 0.19068925 0.14222994 -0.0107852435 0.3334739 -0.26963404 -0.12412328 -0.08318096
0.09428323 1.3108791 -0.44980112 -0.24860562 0.39553994 -0.09094182 -0.26452363 0.10928383
0.05522725 -0.9371215 0.11855393 0.0912652 0.036857616 -0.24013792 0.10794386 0.24174319
-0.15139358 0.28369164 -0.29587036 -0.010000891 -0.097793005 0.20163411 -0.029065607 0.45078388
0.024313847 0.042629957 0.008473751 -0.3794846 -0.096804015 0.022097804 -0.31242037 -0.62509847
-0.16453575 -0.0132130375 -0.33528063 0.13635916 -0.36056584 -0.67960894 -0.11853449 0.08114335

bias f4 [64]
00000000: e5f0 ab3e f8bb e93e e40c f0bd bcd0 013f
00000010: 0fbc 523f 40b2 eabe 89d1 f63e 07fb a7bd
00000020: 2646 55be e9dc 4dbe a3aa ec3d d7f0 30bd
00000030: ae1f babd aec8 afbd 2fa6 aebd 0c69 303f
00000040: 15a4 c6bb e463 ad3e 7344 afbe cf8e 3dbe
00000050: 19a7 b9be 5691 783e 1273 063c 1b4a 00be
00000060: aad1 293b a147 89bf d49f 813e da1b 9bbe
00000070: a528 683e 6d51 babd 79d6 4ebe a92a 58be
00000080: a20f 48be ed25 623e 0472 533e 5f04 57bd
00000090: cb71 edbd 3cbd 9b3c f05b 95bd edcb 203f
000000a0: f6a6 ae3d 8474 0dbe 088f 9c3d 5cfb 20be
000000b0: baec 98be c74a b4be 5029 eebe bee9 6fbe
000000c0: ad0d afbe 15d9 f63e a374 e83e 8ee5 b0be
000000d0: 6f95 03be 61e5 1b3e a7e2 ef3e 2e2b e3bd
000000e0: deea 90bf 91c2 df3b 225c cbbe 4a85 a83e
000000f0: 29c4 8dbd c59a 3cbe a31f 93be b115 01be
0.33582225 0.4565122 -0.11721209 0.5070913 0.82318205 -0.4583912 0.48206738 -0.082021765
-0.20827541 -0.20103802 0.11555984 -0.043198433 -0.09088074 -0.085831985 -0.08527791 0.6891029
-0.0060620406 0.33865273 -0.3423191 -0.18511508 -0.36260298 0.24274191 0.008206146 -0.12528269
0.0025912323 -1.0724984 0.25317252 -0.30294687 0.22671755 -0.09097562 -0.20199002 -0.21110024
-0.19537213 0.2208478 0.20648962 -0.052494403 -0.1159397 0.019011132 -0.07292926 0.62811166
0.08527939 -0.13813978 0.076444685 -0.15720886 -0.29868108 -0.352133 -0.46515894 -0.2342901
-0.3419012 0.48212495 0.45401487 -0.34550136 -0.12849973 0.1522422 0.4685261 -0.1109222
-1.1321676 0.006828614 -0.3971873 0.3291419 -0.0692218 -0.18418415 -0.28735074 -0.12605931
