transfer/dampedSpring/data/transfer_finetuning/c(0.45)_model_weights.pth (torch, 13651 bytes, 8 tensors)

fc1.weight f4 [32, 2]
0.014047073 2.4831703 0.27987307 -0.04922544 -0.080679715 0.4827554 -3.077686 -0.28053805
-0.042004745 -3.0736911 -0.6333461 0.06823755 0.4381462 -0.05009408 0.025176907 3.266764
-0.516399 0.14676182 -2.6401658 -0.2573107 0.6803289 -0.024238419 -0.09526286 0.5381487
-0.47757062 0.11546482 -0.48401928 0.18332632 2.8397317 0.25817543 2.6672714 0.2432951
-0.014782253 -0.4513678 0.22016291 -0.46598935 -2.6999648 -0.2641886 0.021190654 2.7874267
-0.05272091 -0.6345976 -0.6753444 0.0805816 0.60349417 0.06944136 -0.12014002 0.1568072
-0.12406727 -0.4896301 0.22565813 0.38039106 0.035745293 -0.7042782 -2.900712 -0.279916
0.5198387 0.039130263 -0.03307992 -2.9326599 -0.032693624 -3.9575706 -0.025174165 2.344374
00000000: b225 663c 43ec 1e40 864b 8f3e 9da0 49bd
00000010: 683b a5bd b72b f73e cff8 44c0 afa2 8fbe
00000020: 2b0d 2cbd 5bb7 44c0 f822 22bf 21c0 8b3d
00000030: b354 e03e 732f 4dbd cd3f ce3c a912 5140
00000040: ba32 04bf bb48 163e 7af8 28c0 3abe 83be
00000050: 092a 2e3f a68f c6bc 2d19 c3bd 1dc4 093f
00000060: 2384 f4be d278 ec3d 60d1 f7be e5b9 3b3e
00000070: 2abe 3540 922f 843e 93b4 2a40 5a22 793e
00000080: 4331 72bc ae19 e7be 6372 613e 2896 eebe
00000090: 39cc 2cc0 ba43 87be 0698 ad3c 3365 3240
000000a0: e2f1 57bd fd74 22bf 5fe3 2cbf f707 a53d
000000b0: 987e 1a3f 4637 8e3d f90b f6bd 1192 203e
000000c0: fb16 febd ccb0 fabe ed12 673e 9ec2 c23e
000000d0: a869 123d 934b 34bf 44a5 39c0 2651 8fbe
000000e0: 2614 053f 0e47 203d cf7e 07bd b3b0 3bc0
000000f0: c0e9 05bd d648 7dc0 0d3a cebc 390a 1640

fc1.bias f4 [32]
4.774304 -13.50871 -8.185891 -2.3720515 12.011731 -13.868306 -13.677664 1.5536
-13.705531 3.656696 -13.544022 -13.364275 -13.584525 -13.716703 -12.50978 6.4246187
-14.147637 -13.689033 -12.615446 10.63968 -14.019314 -14.358582 -13.0619 -13.540171
-13.883964 -13.749795 -13.805056 8.13317 -13.833198 6.538311 3.4766645 -11.068888
00000000: 19c7 9840 ad23 58c1 69f9 02c1 b1cf 17c0
00000010: 0d30 4041 95e4 5dc1 b6d7 5ac1 5ddc c63f
00000020: db49 5bc1 4f07 6a40 50b4 58c1 12d4 55c1
00000030: 375a 59c1 9e77 5bc1 0f28 48c1 7a96 cd40
00000040: b95c 62c1 4706 5bc1 ded8 49c1 213c 2a41
00000050: 1c4f 60c1 c0bc 65c1 8bfd 50c1 8aa4 58c1
00000060: b724 5ec1 29ff 5bc1 82e1 5cc1 7721 0241
00000070: c754 5dc1 d839 d140 ac81 5e40 2a1a 31c1

fc2.weight f4 [32, 32]
0.028185846 -1.8938252 -0.63457763 5.3021464 -0.20363992 5.6410847 -2.8793113 0.024885
2.1975093 5.4802394 -4.2837424 -0.3681414 1.9218479 1.8037637 -50.061634 -4.0705075
0.3894533 -2.4635236 20.722305 0.024084505 -0.2509161 8.845842 -5.9602795 0.39831996
1.1021254 -2.0527482 0.054250333 0.927141 -2.1851387 0.0039601037 -0.0031313947 -0.39809963
8.50143e-05 -0.47335777 -0.056313787 4.861546 -0.045571566 0.674151 -0.5948761 0.00765413
0.4317678 -0.1956021 -2.5268779 -0.052449297 0.41773248 0.39530036 -36.021122 -3.5529394
-0.004078812 -0.05023568 29.23529 -0.0038419212 0.069597185 1.7733892 -3.9130979 -0.00535261
0.18490788 -2.1533766 0.16000904 -1.1896316 -0.4812274 0.015224346 0.027689898 -0.30594125
-0.96317023 -0.8383744 -1.0609435 -1.6690253 -2.4620857 -0.7531621 -0.63442934 -0.48154673
-0.7083196 -4.075959 -0.8298503 -1.0059578 -1.0928941 -0.539051 -1.8621984 -2.4167788
-1.0639882 -1.1247725 -0.32169 -1.7689112 -0.73005635 -0.49422836 -1.6516727 -2.5271451
-0.807541 0.6612545 -0.32608685 -5.819152 -0.33007938 -1.2816633 -1.5666105 0.06573119
-43.630596 -0.3139683 -17.432995 -0.087726615 -0.20517059 -0.8726589 -0.13774943 -22.131985
-0.5750253 -0.0931586 -0.04198451 -13.032241 -0.9736428 -0.8789903 0.04452694 0.061129812
1.4505769 0.07473885 -0.11144927 -17.123602 -0.19209507 -0.74384487 -0.3292215 -4.9017754
-0.31013408 -7.3866196 -0.20745419 -0.0119638825 -0.26516914 -0.1271046 -0.11312447 -5.586757
-0.0089942645 -0.64075816 -0.18634541 45.272408 -0.06639853 4.7701726 -0.67768294 -0.030922528
-0.12910199 50.254597 -0.71556854 -0.24522449 1.1230646 0.24694814 -5.7210393 0.047920566
1.8210307 -0.46068454 11.374807 0.0122710345 0.47401342 12.826014 -0.33045992 -2.7363756
-0.42630965 -1.9571581 -0.2151958 6.024063 -0.8167937 -0.02396133 -0.00876223 -0.25105077
59.814453 -0.17551872 43.80833 0.0058133067 -0.6408579 0.07728769 -0.087866135 27.752165
0.18889728 -0.0065049753 -0.64685977 21.512524 0.10038897 0.32083577 -0.09256981 -0.035810735
-0.20313938 -0.6358183 -0.07876522 5.582722 -0.8809283 0.6482401 -0.34495553 1.4133254
-0.47707134 5.936927 -0.6563936 0.029971585 -0.09770287 -0.33374128 -0.80299777 8.151715
6.1689553 -0.14795652 12.603316 -0.02057375 -1.7083173 -0.08451772 -0.13916285 50.240273
-0.036739692 -0.0022917083 -0.10796827 9.330415 -0.06475609 -0.04444256 -0.017221848 0.010172785
-0.971517 -0.30290082 -0.047651403 6.4602647 -0.70589125 -0.036652263 -0.0229544 0.55607474
-0.5130359 0.2650323 -0.54173553 0.0087057995 -0.20243825 -1.544034 -1.8370031 13.839501
-66.67967 -0.582163 -37.641098 0.09476536 -0.68112564 0.07415559 -0.22604135 -6.983204
-0.16982268 -0.32363087 -0.28681192 -6.464049 -0.104644574 0.042486694 -0.33469748 0.6392956
1.4477835 0.29651603 0.6521512 -48.22446 0.7578864 -0.20682716 -0.5745776 -1.1061866
0.33483917 -0.22319937 0.29689336 0.21107079 -0.5443086 -0.4103673 -0.15728593 -0.75601983
00000000: 01e6 e63c dd68 f2bf ae73 22bf 2fab a940
00000010: fc86 50be c483 b440 a346 38c0 a1db cb3c
00000020: fea3 0c40 1f5e af40 6b14 89c0 087d bcbe
00000030: 1dff f53f bbe1 e63f 1d3f 48c2 9941 82c0
00000040: 6c66 c73e 5faa 1dc0 48c7 a541 de4c c53c
00000050: 1378 80be 9288 0d41 9cba bec0 98f0 cb3e
00000060: 7212 8d3f 3a60 03c0 9935 5e3d 1d59 6d3f
00000070: 50d9 0bc0 c2c3 813b 1638 4dbb b7d3 cbbe
00000080: b449 b238 f35b f2be 49a9 66bd c991 9b40
00000090: 40a9 3abd 2995 2c3f cd49 18bf 7fcf fa3b
000000a0: ab10 dd3e eb4b 48be 5eb8 21c0 13d5 56bd
000000b0: 08e1 d53e cf64 ca3e a115 10c2 5c63 63c0
000000c0: 8ea7 85bb eec3 4dbd e0e1 e941 bec8 7bbb
000000d0: f888 8e3d 6bfe e23f 3270 7ac0 f264 afbb
000000e0: 7e58 3d3e ecd0 09c0 69d9 233e d945 98bf
000000f0: 7063 f6be 896f 793c edd5 e23c 55a4 9cbe
00000100: 5392 76bf b49f 56bf ffcc 87bf 9fa2 d5bf
00000110: d092 1dc0 3bcf 40bf f669 22bf 4b8d f6be
00000120: 6f54 35bf 426e 82c0 1271 54bf 3ac3 80bf
00000130: f4e3 8bbf 3fff 09bf 845c eebf 81ac 1ac0
00000140: c430 88bf 8cf8 8fbf 8db4 a4be af6b e2bf
00000150: f9e4 3abf 800b fdbe 036a d3bf bfbc 21c0
00000160: 02bb 4ebf fa47 293f dbf4 a6be 7e36 bac0
00000170: 2a00 a9be 8b0d a4bf b186 c8bf 139e 863d
00000180: bb85 2ec2 74c0 a0be c676 8bc1 03aa b3bd
00000190: 3d18 52be 9366 5fbf 300e 0dbe 4e0e b1c1
000001a0: dc34 13bf f0c9 bebd f3f7 2bbd 0f84 50c1
000001b0: a840 79bf 8205 61bf e161 363d 4163 7a3d
000001c0: 81ac b93f af10 993d 843f e4bd 23fd 88c1
000001d0: 92b4 44be 9e6c 3ebf b88f a8be 58db 9cc0
000001e0: e5c9 9ebe 305f ecc0 df6e 54be 2904 44bc
000001f0: 40c4 87be b527 02be cdad e7bd b7c6 b2c0
00000200: ae5c 13bc ba08 24bf 55d1 3ebe f216 3542
00000210: f4fb 87bd 41a5 9840 a17c 2dbf 3e51 fdbc
00000220: 5033 04be b504 4942 802f 37bf 211c 7bbe
00000230: 95c0 8f3f f9df 7c3e c112 b7c0 5b48 443d
00000240: 8917 e93f d8de ebbe 36ff 3541 730c 493c
00000250: e3b1 f23e 5a37 4d41 0b32 a9be c720 2fc0
00000260: 4245 dabe 2884 fabf 4a5c 5cbe 20c5 c040
00000270: 6419 51bf 8d4a c4bc 758f 0fbc ba89 80be
00000280: 0042 6f42 2ebb 33be bb3b 2f42 8d7d be3b
00000290: 430f 24bf 0249 9e3d 29f3 b3bd 6f04 de41
000002a0: 4a6e 413e b027 d5bb 9a98 25bf a619 ac41
000002b0: bb98 cd3d 9644 a43e 3e95 bdbd 47ae 12bd
000002c0: c503 50be fdc4 22bf a94f a1bd a9a5 b240
000002d0: 8484 61bf 10f3 253f 039e b0be d9e7 b43f
000002e0: b242 f4be 4efb bd40 6909 28bf f886 f53c
000002f0: 7118 c8bd 23e0 aabe 4391 4dbf 6d6d 0241
00000300: 1568 c540 ea81 17be 2fa7 4941 488a a8bc
00000310: 24aa dabf a017 adbd b580 0ebe 0af6 4842
00000320: 5c7c 16bd 7c30 16bb 781e ddbd 6149 1541
00000330: d79e 84bd 6709 36bd d514 8dbc c1ab 263c
00000340: 57b5 78bf d115 9bbe 1e2e 43bd 7dba ce40
00000350: 4ab5 34bf af20 16bd de0a bcbc ea5a 0e3f
00000360: 5256 03bf 50b2 873e 2eaf 0abf c5a2 0e3c
00000370: f94b 4fbe e8a2 c5bf eb22 ebbf 996e 5d41
00000380: fe5b 85c2 a208 15bf 7c90 16c2 5714 c23d
00000390: 405e 2ebf e3de 973d 6277 67be 6876 dfc0
000003a0: ffe5 2dbe f2b2 a5be 03d9 92be 7dd9 cec0
000003b0: e54f d6bd 8706 2e3d 785d abbe e0a8 233f
000003c0: f850 b93f f3d0 973e 62f3 263f d9e5 40c2
000003d0: d804 423f 80ca 53be 8517 13bf 8697 8dbf
000003e0: 0a70 ab3e 608e 64be 6802 983e f122 583e
000003f0: cf57 0bbf aa1b d2be 900f 21be 848a 41bf

fc2.bias f4 [32]
-2.9669397 -2.0814872 -2.4588425 -1.1394578 1.2291453 0.123960026 -1.1385951 -0.38678965
-2.0897493 -1.7808069 -1.8521556 2.1993885 -0.5148096 -1.1784775 -2.2204223 -4.3952227
-1.7220488 0.6021511 2.2580469 -1.7132319 -1.9740901 -2.0362787 -2.971104 1.0168251
0.07289639 -2.6612527 -0.503808 -1.3814874 1.2157998 -2.5657413 -1.4157748 -1.4508914
00000000: 57e2 3dc0 1637 05c0 ad5d 1dc0 c1d9 91bf
00000010: a254 9d3f c1de fd3d 7cbd 91bf 4b09 c6be
00000020: 74be 05c0 7bf1 e3bf 6f13 edbf c8c2 0c40
00000030: 90ca 03bf 5ad8 96bf 661b 0ec0 aaa5 8cc0
00000040: 186c dcbf 9326 1a3f d783 1040 2f4b dbbf
00000050: fcae fcbf 6452 02c0 9126 3ec0 5327 823f
00000060: b44a 953d f751 2ac0 90f9 00bf 94d4 b0bf
00000070: 549f 9b3f 1b35 24c0 1c38 b5bf cfb6 b9bf

fc3.weight f4 [32, 32]
-2.6774347 -2.6173625 -0.025096685 -1.0077833 -0.8362308 -1.5189399 -1.7578548 -0.64891636
4.0486917 0.97997624 0.1125967 -8.924809 -0.100566454 -0.7552221 -0.7501389 -0.16123226
-0.19715737 -0.83583605 -1.0115366 -0.5857626 -0.12874398 -0.33770594 0.1287974 -2.3345597
-1.8538983 -0.8831101 -0.13857773 1.1936027 -1.0235468 -0.93468 0.41234362 0.23978306
-2.3108406 -2.607093 -0.26574674 -0.7456482 -2.4949858 -2.3205845 -1.8182243 -0.28756687
1.0116017 -0.41006958 0.45616597 -8.754249 0.026579084 -1.5217396 -1.2092298 0.022033548
1.0982836 -1.6181445 -2.475242 -0.3587364 -0.14713073 -0.30793992 -0.04459069 -2.6153398
-2.182671 -0.12822208 -1.543472 0.5278276 -1.636684 -1.8608588 -0.17607045 0.55246663
-1.7077196 -1.1126392 0.26089555 -1.5416962 -1.5836769 -3.1551228 -2.79408 -0.2379799
-0.61165166 -0.46011746 -0.2620605 -1.7853535 -0.06638304 -1.3017701 1.1686876 -0.47576162
-0.098517776 -0.7013628 -4.4876847 0.394904 -0.37498543 -0.2743293 -0.22818185 -0.86655265
-1.0646409 0.14074327 -1.5882065 -0.4397263 -2.2427597 -1.7643058 -0.00658005 -0.09787158
-3.2896266 -3.307257 -0.9551248 -0.08863788 -2.7892745 -1.2083547 -1.4178247 -0.4388621
0.69028467 -1.3310251 -0.7279421 -8.5362215 -0.7653599 -0.77355826 -1.361831 -0.41199782
-0.25659293 -1.0291506 -1.4840329 -0.34561816 -0.9229016 -0.7661079 0.10352705 -2.5545187
-2.1495566 -0.29675335 -0.7142861 -0.25553548 -0.973411 -1.6503848 -0.41798222 -1.1169728
-1.5583982 -1.5862129 -0.5069759 -1.5539575 -1.1621778 -2.2397604 -1.6338282 0.17518313
1.7920955 -0.10591589 1.0673888 -6.782813 0.02683973 2.8399835 -0.847657 -0.58762246
0.9711762 -0.6426623 -2.2460852 -0.1258099 -0.403966 -0.048265357 -1.1468194 -12.0119705
-5.9417596 -1.2536297 0.03325879 1.4943111 -2.1815867 -2.9041677 1.5270641 2.106368
-2.105026 -2.2639024 -0.44792578 -1.0032824 -2.1090517 -2.3450806 -2.3241706 0.013977792
0.7952554 0.36519292 -0.33984488 -7.091066 -0.5344959 -1.4044433 -0.7141851 -0.34240565
-0.20651467 -2.3074527 -2.3280933 -0.29118708 -0.19340043 -0.5165895 -0.49847063 -1.9778533
-1.8552741 -0.45214888 -0.8593315 0.35632136 -2.1846337 -0.80901724 -0.3243167 -0.27326414
-1.2299716 -8.901243 2.3111794 0.19635755 -1.924903 0.002119595 0.008207922 -0.61527306
0.07066566 5.683979 -0.23797348 0.5757058 0.4501933 -0.039854452 -3.4823952 27.942575
0.26138088 1.4475298 0.13011527 2.2623966 5.773594 3.7483072 16.469585 0.008984254
-0.015818348 4.415965 0.028245075 1.1697017 1.321573 -0.15412241 0.27670974 -0.57715183
0.8581302 0.4398751 0.008281976 10.138182 -0.79301566 -8.107348 -19.977829 15.987577
-0.6510239 -0.5625019 -0.5221738 -1.2441053 -0.3727653 -9.869485 0.087882675 0.9438365
-1.3204012 -1.0985074 -1.903425 -0.31858614 -0.6145597 -0.6218542 -0.29270744 0.64233756
-1.1176727 0.26808053 -1.8445178 -1.415872 0.25931594 0.5360807 -0.15296145 -0.18273328
00000000: 175b 2bc0 de82 27c0 9097 cdbc 0bff 80bf
00000010: 3913 56bf 9f6c c2bf 6301 e1bf 621f 26bf
00000020: e28e 8140 b9df 7a3f 1999 e63d 05cc 0ec1
00000030: c9f5 cdbd 3c56 41bf 1a09 40bf 121a 25be
00000040: 9fe3 49be 5af9 55bf 087a 81bf 8af4 15bf
00000050: 76d5 03be cbe7 acbe 77e3 033e 6d69 15c0
00000060: 8a4c edbf 8113 62bf 52e7 0dbe f9c7 983f
00000070: 9503 83bf 3047 6fbf b41e d33e b189 753e
00000080: d0e4 13c0 9dda 26c0 f50f 88be cde2 3ebf
00000090: d9ad 1fc0 7584 14c0 93bb e8bf f73b 93be
000000a0: 2a7c 813f a4f4 d1be 968e e93e 6711 0cc1
000000b0: 61bc d93c 5dc8 c2bf 0bc8 9abf b37f b43c
000000c0: 8f94 8c3f 5c1f cfbf 5d6a 1ec0 4cac b7be
000000d0: 70a9 16be 4daa 9dbe baa4 36bd ba61 27c0
000000e0: e2b0 0bc0 a64c 03be 7e90 c5bf b61f 073f
000000f0: dc7e d1bf 9f30 eebf d04b 34be 746e 0d3f
00000100: 8e96 dabf f66a 8ebf 1a94 853e 4d56 c5bf
00000110: edb5 cabf 88ed 49c0 35d2 32c0 01b1 73be
00000120: 3495 1cbf 8494 ebbe cb2c 86be 7786 e4bf
00000130: d5f3 87bd 67a0 a6bf 8e97 953f 0797 f3be
00000140: b0c3 c9bd 838c 33bf 1d9b 8fc0 db30 ca3e
00000150: 17fe bfbe e474 8cbe 81a8 69be 65d6 5dbf
00000160: 2746 88bf 011f 103e 5a4a cbbf ce23 e1be
00000170: 6089 0fc0 c6d4 e1bf 769d d7bb e570 c8bd
00000180: 3e89 52c0 19aa 53c0 0f83 74bf c787 b5bd
00000190: 7983 32c0 5eab 9abf 487b b5bf 88b2 e0be
000001a0: 7fb6 303f 085f aabf 6a5a 3abf 5d94 08c1
000001b0: a0ee 43bf ea07 46bf 7a50 aebf 61f1 d2be
000001c0: 2660 83be 35bb 83bf caf4 bdbf ddf4 b0be
000001d0: 4743 6cbf a61f 44bf fd05 d43d 3c7d 23c0
000001e0: 5692 09c0 0ef0 97be 74db 36bf 8cd5 82be
000001f0: 7731 79bf cf3f d3bf c401 d6be f7f8 8ebf
00000200: 9879 c7bf 0609 cbbf 2cc9 01bf 14e8 c6bf
00000210: 3ec2 94bf 3c58 0fc0 4821 d1bf 3563 333e
00000220: 6363 e53f 6eea d8bd 32a0 883f ce0c d9c0
00000230: fede db3c 4ac2 3540 0d00 59bf 6d6e 16bf
00000240: 019f 783f 8485 24bf dcbf 0fc0 4fd4 00be
00000250: a2d4 cebe e5b1 45bd faca 92bf 0831 40c1
00000260: e522 bec0 f076 a0bf 5e3a 083d 9645 bf3f
00000270: 1e9f 0bc0 e2dd 39c0 d676 c33f bcce 0640
00000280: bfb8 06c0 c7e3 10c0 8756 e5be 8f6b 80bf
00000290: b4fa 06c0 cd15 16c0 36bf 14c0 1c03 653c
000002a0: dc95 4b3f 91fa ba3e 2600 aebe 03ea e2c0
000002b0: b9d4 08bf ccc4 b3bf d6d4 36bf cb4f afbe
000002c0: 9578 53be 4ead 13c0 7bff 14c0 7916 95be
000002d0: c30a 46be 363f 04bf 8b37 ffbe 4c2a fdbf
000002e0: 9f79 edbf 0f80 e7be 26fd 5bbf c16f b63e
000002f0: 0ad1 0bc0 c11b 4fbf d70c a6be 47e9 8bbe
00000300: b66f 9dbf 7e6b 0ec1 5dea 1340 f411 493e
00000310: 3963 f6bf e7e8 0a3b 857a 063c 8982 1dbf
00000320: 28b9 903d 28e3 b540 52af 73be 7561 133f
00000330: bc7f e63e 6c3e 23bd 90df 5ec0 658a df41
00000340: b7d3 853e a848 b93f f03c 053e 1bcb 1040
00000350: 48c1 b840 44e4 6f40 b6c1 8341 b132 133c
00000360: 7b95 81bc 964f 8d40 3762 e73c c9b8 953f
00000370: 4e29 a93f 44d2 1dbe e6ac 8d3e 39c0 13bf
00000380: 6cae 5b3f 4f37 e13e 20b1 073c fe35 2241
00000390: 1303 4bbf b3b7 01c1 98d2 9fc1 1ecd 7f41
000003a0: 81a9 26bf 2000 10bf 2fad 05bf d83e 9fbf
000003b0: 18db bebe 69e9 1dc1 d5fb b33d 459f 713f
000003c0: e802 a9bf e49b 8cbf 6ea3 f3bf b91d a3be
000003d0: c953 1dbf d631 1fbf c0dd 95be 3c70 243f
000003e0: e60f 8fbf da41 893e 2919 ecbf 4b3b b5bf
000003f0: 0fc5 843e 963c 093f eda1 1cbe 6f1e 3bbe

fc3.bias f4 [32]
-1.6818168 -2.6550872 -1.5990161 -1.9538707 -2.6289032 -2.4234514 -0.24762009 -1.6281757
-2.1960502 -1.9030432 -0.13316566 -0.7810042 -1.3216329 -1.1117775 -2.1168394 -1.3389969
-1.7176892 -1.4816066 -1.1201825 -2.000841 -1.1768634 -1.2649558 -1.0570859 -2.5395906
-1.0491471 -0.62700695 -1.1484331 -0.19972137 -2.0280247 -1.6713101 -1.9043891 -0.18351251
00000000: c645 d7bf f3ec 29c0 8fac ccbf 6f18 fabf
00000010: f33f 28c0 d419 1bc0 1f90 7dbe 1068 d0bf
00000020: 168c 0cc0 eb96 f3bf 945c 08be e4ef 47bf
00000030: 442b a9bf ba4e 8ebf 4c7a 07c0 4064 abbf
00000040: 3ddd dbbf 49a5 bdbf 2462 8fbf c70d 00c0
00000050: 76a3 96bf 12ea a1bf 974e 87bf a788 22c0
00000060: 744a 86bf 8783 20bf dbff 92bf c283 4cbe
00000070: 28cb 01c0 7ded d5bf 06c3 f3bf b4ea 3bbe

fc4.weight f4 [20, 32]
3.5398395 2.7780445 -1.8724365 4.2381206 1.4411225 1.4846791 4.06284 -8.759372
3.2926414 1.445511 -1.8552594 -4.764152 -9.753466 0.2662948 -1.7702981 -5.680406
-2.452838 10.018234 -4.3319325 0.5847702 4.460878 -6.2933846 -6.8869705 1.6537545
-8.07064 -6.1312547 -5.857761 -3.7280624 1.8412824 -6.83451 -2.6236384 2.3340204
3.9126756 3.685375 -1.5303221 1.8825836 2.2779047 1.3962488 -0.6500658 -9.773336
2.3297055 2.0921898 0.31880948 -2.7400846 -9.993712 1.8278402 1.3394678 -5.568102
-1.272764 -2.0791264 -5.6762586 2.2048936 3.619791 0.8242899 -10.19949 3.9770172
1.6344924 2.541956 -1.6314178 -3.695774 2.5478997 -10.869512 -2.5279486 2.3498974
1.366336 1.8567736 -0.18221052 0.7492034 1.5625696 -0.39031523 -3.1742718 -3.0531967
0.15803133 -0.15360302 1.4620912 -3.16656 -0.9112299 -0.017373616 2.2282376 -2.5657573
-0.7865509 -8.291622 -3.467828 1.6170131 0.68883777 3.710538 -4.147384 1.2395042
5.6154146 5.085602 1.3156946 -0.9436969 0.5804209 -5.4331927 -2.0491104 0.6141855
-0.95270944 -1.7306107 0.11071852 -2.0929039 -0.072438754 -0.14752062 -2.4270191 2.6514602
-0.812795 -1.6354123 1.1142753 -0.98161584 3.2828043 -0.9934393 2.0031486 1.6385005
0.32052445 -5.9536715 -0.28908917 -0.9827103 -2.855302 3.320727 2.3835094 -0.89462954
5.4303803 4.9967723 2.3367355 1.5133888 -0.57768327 3.4317 -0.35686076 -0.94905025
-2.5829713 -0.11733083 0.5642581 -0.14284292 -0.09141838 0.41848683 -0.16122952 4.033789
1.0548512 -0.6789194 0.05718555 -0.07009568 3.9881809 0.12915798 -0.7204291 4.2527575
0.21496527 -0.33842567 3.4597416 -1.0166153 -1.6664226 1.1166215 4.3609543 -1.9323785
0.99869335 1.1112007 1.7528083 1.9553533 0.18691984 6.9276395 0.9799201 -1.2341077
-0.22331364 -1.525512 -0.35134768 -0.033882603 -0.60464245 0.0830081 1.4082419 3.449233
-1.7850214 -0.56908184 -0.66523707 0.34789756 1.7984143 0.10638925 0.09270643 2.1658719
-0.33335692 3.3617382 -0.10611497 -1.1153026 -0.84806454 -1.044013 1.6298908 0.9115609
-1.8843943 -2.4767644 1.4803816 0.790384 -1.2651738 3.2687073 0.6127727 -0.503475
0.98801845 -0.69994956 0.21613297 0.57479674 -0.33507964 0.9544561 1.3694715 -0.9616657
-0.26948133 0.055746593 -0.62257 -1.1568936 -1.1897147 0.093473144 0.074902825 0.24853992
0.06576702 3.1553133 -1.4094518 0.21137708 2.397195 -1.7272838 -1.6080943 0.87474656
-2.3839922 -1.8857329 -1.4838036 -0.53187686 1.040739 1.3444822 -0.4417968 0.33700097
0.30094996 -0.42609066 -0.42551073 1.3681254 0.15169732 -0.15959898 0.32626083 -3.0426762
-0.09462527 1.5103874 -0.13941437 -1.2887007 -4.476903 -0.8365766 0.41197762 -0.95793813
-0.7789109 0.7568555 3.0038846 -0.33648878 0.38500795 -2.693702 -2.8151894 0.73387474
-1.7754465 -0.6599417 -0.07321098 -0.9903448 -1.4526631 1.333348 -0.19835323 0.6184165
00000000: bb8c 6240 7bcb 3140 00ac efbf af9e 8740
00000010: b476 b83f f709 be3f c902 8240 6326 0cc1
00000020: a3ba 5240 8106 b93f 2479 edbf ef73 98c0
00000030: 320e 1cc1 cb57 883e 2199 e2bf e3c5 b5c0
00000040: 4cfb 1cc0 b04a 2041 319f 8ac0 80b3 153f
00000050: 83bf 8e40 6863 c9c0 1062 dcc0 3aae d33f
00000060: 5721 01c1 3d33 c4c0 c772 bbc0 9398 6ec0
00000070: 24af eb3f 4eb4 dac0 b1e9 27c0 9760 1540
00000080: 4769 7a40 2fdd 6b40 98e1 c3bf 80f8 f03f
00000090: 31c9 1140 48b8 b23f b66a 26bf 965f 1cc1
000000a0: e519 1540 70e6 0540 ff3a a33e 8c5d 2fc0
000000b0: 3fe6 1fc1 abf6 e93f ae73 ab3f e42d b2c0
000000c0: eee9 a2bf 6810 05c0 e9a3 b5c0 fa1c 0d40
000000d0: a8aa 6740 aa04 533f 1c31 23c1 7387 7e40
000000e0: 0c37 d13f 68af 2240 4cd2 d0bf 9087 6cc0
000000f0: ca10 2340 85e9 2dc1 e9c9 21c0 b864 1640
00000100: 19e4 ae3f c2aa ed3f 6595 3abe cbcb 3f3f
00000110: 4802 c83f 66d7 c7be 4527 4bc0 9367 43c0
00000120: f7d2 213e 1c4a 1dbe ce25 bb3f eba8 4ac0
00000130: 5d46 69bf 1d53 8ebc 729b 0e40 5e35 24c0
00000140: 665b 49bf 7caa 04c1 e5f0 5dc0 49fa ce3f
00000150: ac57 303f 7479 6d40 5fb7 84c0 13a8 9e3f
00000160: 7ab1 b340 40bd a240 ae68 a83f 1f96 71bf
00000170: 7796 143f b7dc adc0 a024 03c0 433b 1d3f
00000180: c4e4 73bf a784 ddbf 64c0 e23d 23f2 05c0
00000190: c55a 94bd a50f 17be 4854 1bc0 86b1 2940
000001a0: 5513 50bf 3155 d1bf 93a0 8e3f 2d4b 7bbf
000001b0: 7719 5240 0a52 7ebf 9633 0040 62ba d13f
000001c0: c81b a43e 7a84 bec0 7f03 94be e792 7bbf
000001d0: 45bd 36c0 cb86 5440 6b8b 1840 7106 65bf
000001e0: adc5 ad40 8fe5 9f40 138d 1540 b9b6 c13f
000001f0: 0de3 13bf f9a0 5b40 74b6 b6be f5f4 72bf
00000200: 674f 25c0 254b f0bd 3873 103f 6a45 12be
00000210: 8f39 bbbd e843 d63e 5a19 25be cd14 8140
00000220: 5d05 873f a9cd 2dbf 653b 6a3d 538e 8fbd
00000230: 5b3e 7f40 fd41 043e 0b6e 38bf 9716 8840
00000240: db1f 5c3e 2146 adbe 686c 5d40 7320 82bf
00000250: 564d d5bf 74ed 8e3f f08c 8b40 2e58 f7bf
00000260: 5eaa 7f3f d33b 8e3f 065c e03f 0449 fa3f
00000270: ea67 3f3e 39af dd40 0bdc 7a3f 3ef7 9dbf
00000280: 55ac 64be fa43 c3bf d8e3 b3be 7cc8 0abd
00000290: d9c9 1abf 2700 aa3d 4541 b43f 3cc0 5c40
000002a0: 957b e4bf 59af 11bf fa4c 2abf a11f b23e
000002b0: 7132 e63f 9be2 d93d dedc bd3d a59d 0a40
000002c0: c2ad aabe b826 5740 ce52 d9bd 3cc2 8ebf
000002d0: c21a 59bf 38a2 85bf 43a0 d03f 0e5c 693f
000002e0: d533 f1bf 4f83 1ec0 257d bd3f 9b56 4a3f
000002f0: 37f1 a1bf 8032 5140 acde 1c3f bde3 00bf
00000300: c7ee 7c3f e52f 33bf f651 5d3e e125 133f
00000310: 8f8f abbe 3c57 743f d84a af3f b92f 76bf
00000320: 75f9 89be 8a56 643d bf60 1fbf 1715 94bf
00000330: 9248 98bf d96e bf3d a766 993d 4081 7e3e
00000340: dcb0 863d a7f0 4940 eb68 b4bf 3c73 583e
00000350: a56b 1940 a317 ddbf 09d6 cdbf 64ef 5f3f
00000360: 5493 18c0 b25f f1bf 47ed bdbf 1529 08bf
00000370: f036 853f fe17 ac3f 3133 e2be 648b ac3e
00000380: 1d16 9a3e 8e28 dabe 8bdc d9be bc1e af3f
00000390: 8b56 1b3e ea6d 23be a90b a73e 35bb 42c0
000003a0: e5ca c1bd 6054 c13f a4c2 0ebe 25f4 a4bf
000003b0: ca42 8fc0 e229 56bf bbee d23e 6f3b 75bf
000003c0: b466 47bf 48c1 413f a53f 4040 4248 acbe
000003d0: c31f c53e 9d65 2cc0 102c 34c0 37df 3b3f
000003e0: d541 e3bf f0f1 28bf a3ef 95bd 3d87 7dbf
000003f0: ddf0 b9bf 26ab aa3f 1c1d 4bbe 8b50 1e3f

fc4.bias f4 [20]
-0.53458786 0.9242857 1.1748389 0.46146968 -0.33257252 -0.5929476 -0.32293734 0.09213605
0.28466383 0.20313488 -0.0006342548 -0.1294383 -0.11282999 -0.018004477 0.054958086 0.06331944
0.02330403 -0.02093624 -0.031287666 -0.020567548
00000000: c0da 08bf fd9d 6c3f 1f61 963f c145 ec3e
00000010: f246 aabe 6acb 17bf 0b58 a5be d3b1 bc3d
00000020: 75bf 913e 9702 503e 1e44 26ba 798b 04be
00000030: 6913 e7bd 207e 93bc bb1b 613d 9fad 813d
00000040: 18e8 be3c 7a82 abbc 7f27 00bd 467d a8bc
