transfer/dampedSpring/data/transfer_finetuning/c(0.55)_model_weights.pth (torch, 13651 bytes, 8 tensors)

fc1.weight f4 [32, 2]
0	0x3db4cffa	0.08828731
1	0x401b7f13	2.429631
2	0x3e96d452	0.29458863
3	0xbdb34637	-0.08753627
4	0xbc63a5b6	-0.013894489
5	0x3ee659f6	0.4499051
6	0xc041c20f	-3.0274694
7	0xbe85b66e	-0.26115745
8	0xbe0bee6f	-0.13665174
9	0xc0424aab	-3.0358074
10	0xbf207130	-0.6267271
11	0x3d6c6ed9	0.0577229
12	0x3edbc237	0.42921612
13	0xbdcb23dd	-0.0991895
14	0x3df5f95e	0.12010454
15	0x4051a2f8	3.2755718
16	0xbf09d0ae	-0.53834045
17	0x3e0550e8	0.13019145
18	0xc029fb03	-2.6559455
19	0xbe790478	-0.24318111
20	0x3f0d8e03	0.5529482
21	0xbd088c82	-0.033337124
22	0xbd88e4cb	-0.06684264
23	0x3f0613fd	0.5237425
24	0xbef93d18	-0.48679423
25	0x3dd3e8f1	0.103471644
26	0xbf0010b4	-0.50025487
27	0x3e2ec5a1	0.17067577
28	0x402aa282	2.6661687
29	0x3e65908e	0.22418424
30	0x402379ce	2.5543094
31	0x3e627a6e	0.22117016
32	0xbd9964bb	-0.07489916
33	0xbee4977a	-0.44646817
34	0x3e620b94	0.22074729
35	0xbed63715	-0.418389
36	0xc026698f	-2.6001928
37	0xbe5667a5	-0.20937975
38	0x3e01cc9a	0.12675706
39	0x402c283e	2.6899562
40	0xbd663928	-0.056206852
41	0xbf27cead	-0.6554974
42	0xbf268c94	-0.65058255
43	0x3da6e665	0.08149413
44	0x3f0a35a5	0.53988105
45	0x3cc53573	0.024073338
46	0xbdcf6eab	-0.1012853
47	0x3de060dc	0.109559745
48	0xbe0d5910	-0.13803506
49	0xbf0676fc	-0.52525306
50	0x3e7a4ecb	0.2444412
51	0x3e79ef2c	0.24407643
52	0xbc014338	-0.007889561
53	0xbf330ce6	-0.69941556
54	0xc0352ddc	-2.830924
55	0xbe7cdb49	-0.24693026
56	0x3eecbab2	0.46236187
57	0xbd06ff50	-0.03295833
58	0xbde7c789	-0.11317355
59	0xc03a3252	-2.9093213
60	0xbe57eb65	-0.2108589
61	0xc073f4cd	-3.8118165
62	0x3dba382b	0.090927444
63	0x40103104	2.2529917

fc1.bias f4 [32]
0	0x409933d2	4.7875757
1	0xc157e95a	-13.494471
2	0xc1024953	-8.142901
3	0xc01771ba	-2.3663163
4	0x41409cc1	12.03827
5	0xc15dfc3f	-13.8740835
6	0xc15aca33	-13.674365
7	0x3fc300a7	1.5234574
8	0xc15b3cf2	-13.702379
9	0x4067f4c0	3.6243134
10	0xc1598486	-13.594854
11	0xc155cd8d	-13.362683
12	0xc1594def	-13.581527
13	0xc15b7776	-13.716665
14	0xc14ab7e5	-12.669896
15	0x40d1cba5	6.556109
16	0xc161f9b0	-14.123459
17	0xc15b2a26	-13.69779
18	0xc14aed90	-12.682999
19	0x412bae0b	10.729991
20	0xc15fd813	-13.9902525
21	0xc165f01d	-14.371121
22	0xc15141da	-13.078577
23	0xc158b7fa	-13.544916
24	0xc15dd7cc	-13.865185
25	0xc15c4319	-13.766381
26	0xc15cd5ba	-13.802179
27	0x4102eee1	8.18332
28	0xc15d9e7e	-13.851194
29	0x40d17473	6.545465
30	0x4066a0bf	3.6035612
31	0xc13234e3	-11.137912

fc2.weight f4 [32, 32]
0	0xbc80c79a	-0.015720177
1	0xbff25aea	-1.8933995
2	0xbf29648e	-0.6616906
3	0x40a511f8	5.1584435
4	0xbe3c18ac	-0.18368787
5	0x40b475d7	5.6393847
6	0xc03841b7	-2.879011
7	0x3cb86a55	0.02251164
8	0x400c7914	2.19489
9	0x40af44b6	5.4771376
10	0xc08914c4	-4.283785
11	0xbebf8cff	-0.3741226
12	0x3ff5b16d	1.9194771
13	0x3fe682ef	1.8008708
14	0xc2483b63	-50.057995
15	0xc082831d	-4.078505
16	0x3eca257f	0.39481732
17	0xc01d31bd	-2.4561608
18	0x41a5c92d	20.72323
19	0xbc84ba72	-0.016202185
20	0xbe7275b1	-0.23677708
21	0x410d8783	8.845584
22	0xc0bec102	-5.9610605
23	0x3ecb3d71	0.39695314
24	0x3f8e23d4	1.1104684
25	0xc0037540	-2.0540314
26	0x3d9a1300	0.07523155
27	0x3f6b5cef	0.9193868
28	0xc00bdbd6	-2.1852927
29	0x3a39bd68	0.00070854137
30	0x3ba320f9	0.004978296
31	0xbede1cfb	-0.43381485
32	0x3bf733dc	0.007544024
33	0xbef3a7e9	-0.47589043
34	0x3c31bb8c	0.010847937
35	0x409b503f	4.8535457
36	0xbdd420cf	-0.1035782
37	0x3f2d5b87	0.67717785
38	0xbf18dc26	-0.5971092
39	0xbbccff23	-0.0062560006
40	0x3ede6a31	0.43440393
41	0xbe539a82	-0.20664409
42	0xc021d45d	-2.5285866
43	0xbc7b6b8c	-0.015345465
44	0x3ed78926	0.42096823
45	0x3ecc1c26	0.39865226
46	0xc20fa781	-35.913578
47	0xc066af60	-3.604454
48	0xbbe00799	-0.006836843
49	0xbd5c9a6a	-0.0538582
50	0x41e9aea8	29.210281
51	0xbc7bbc40	-0.0153647065
52	0x3d88e7d3	0.06684842
53	0x3fe343a3	1.7755016
54	0xc07a7fde	-3.9140544
55	0xbb0c25b6	-0.0021384782
56	0x3e3b199e	0.18271491
57	0xc0094b05	-2.1452038
58	0x3e21d432	0.15803602
59	0xbf99d505	-1.2018133
60	0xbef6fc4b	-0.4823936
61	0x3c242dd1	0.010020689
62	0x3c8db455	0.017297903
63	0xbe24c53a	-0.16090861
64	0xbf8da9fd	-1.1067501
65	0xbf569fb4	-0.8383744
66	0xbf883fa7	-1.0644425
67	0xbfd5a2a9	-1.6690265
68	0xc01b2fdb	-2.4247959
69	0xbf40cf3b	-0.7531621
70	0xbf2269f6	-0.63442934
71	0xbf202568	-0.6255708
72	0xbf35546f	-0.7083196
73	0xc082b162	-4.084153
74	0xbf547112	-0.8298503
75	0xbf80c33a	-1.0059578
76	0xbf8be3f4	-1.0928941
77	0xbf09ff3f	-0.539051
78	0xbff47056	-1.9096782
79	0xc02419a3	-2.5640647
80	0xbf8830c4	-1.0639882
81	0xbf8ff88c	-1.1247725
82	0xbea4b48d	-0.32169
83	0xbff4c09b	-1.9121279
84	0xbf3ae4f9	-0.73005635
85	0xbefd0b80	-0.49422836
86	0xbfd36a03	-1.6516727
87	0xc021bcbf	-2.5271451
88	0xbf4ebb02	-0.807541
89	0x3f2947fa	0.6612545
90	0xbea6f4db	-0.32608685
91	0xc0bddadb	-5.9329658
92	0xbea9002a	-0.33007938
93	0xbfa5d454	-1.2955422
94	0xbfcc398a	-1.595506
95	0xbe03bea1	-0.12865688
96	0xc22e9b2e	-43.651543
97	0xbea35b9c	-0.3190583
98	0xc18b8320	-17.439026
99	0xbd518fcd	-0.05116253
100	0xbe93295f	-0.287425
101	0xbf5f1634	-0.87143254
102	0xbe1503ad	-0.14552183
103	0xc1b10f2c	-22.132408
104	0xbf1314cf	-0.57453626
105	0xbd854239	-0.065067716
106	0xbd62809c	-0.055298433
107	0xc150840f	-13.032241
108	0xbf791f50	-0.97313404
109	0xbf60ef17	-0.8786482
110	0x3c3804db	0.011231626
111	0xbcb93df8	-0.022612557
112	0x3fb92fea	1.4467747
113	0x3d73b846	0.05950191
114	0xbdab1b5a	-0.08354826
115	0xc18926f4	-17.14402
116	0xbe4cf845	-0.20016582
117	0xbf3e2dd6	-0.7428869
118	0xbeaf2b7f	-0.34212872
119	0xc09cdcb9	-4.9019437
120	0xbea06483	-0.31326684
121	0xc0ec6256	-7.387004
122	0xbe640f60	-0.2227149
123	0xbc910ed9	-0.017707275
124	0xbe8aee38	-0.2713487
125	0xbe5666f5	-0.20937712
126	0xbe4807b5	-0.1953419
127	0xc0b2c6b7	-5.586757
128	0x3c824513	0.015902078
129	0xbf2311e8	-0.636992
130	0xbe1b9ac8	-0.15195763
131	0x42351a8f	45.275936
132	0xbdb154c7	-0.08658748
133	0x4098a628	4.7702827
134	0xbf2c5035	-0.67309886
135	0xbbc2e8c5	-0.0059481584
136	0xbe03cfd4	-0.12872249
137	0x4249224c	50.283493
138	0xbf35ee4c	-0.7106674
139	0xbe6ffc96	-0.23436198
140	0x3f8fcf41	1.1235124
141	0x3e7d68cc	0.24747008
142	0xc0b4f496	-5.6548567
143	0x3d76e182	0.060273655
144	0x3fe91229	1.8208667
145	0xbeebab9d	-0.46029368
146	0x4135ff36	11.374807
147	0x3ccea136	0.025223356
148	0x3ef2654e	0.47342914
149	0x414d3761	12.82602
150	0xbea6233e	-0.32448763
151	0xc02eff89	-2.7343466
152	0xbeda580b	-0.42645296
153	0xbff98b42	-1.9495623
154	0xbe5dce76	-0.2166079
155	0x40c19dd5	6.0505166
156	0xbf4fd6b0	-0.8118696
157	0x3bafeb22	0.005368606
158	0x3d26495c	0.040597305
159	0xbe2bf845	-0.16793926
160	0x426f58d8	59.83676
161	0xbe2bf4db	-0.16792624
162	0x422f4689	43.818882
163	0xbc8df5ab	-0.017329058
164	0xbf15a72c	-0.5845821
165	0x3da8dd84	0.08245376
166	0xbd9b993c	-0.075975865
167	0x41de1412	27.7598
168	0x3e4407ff	0.19143675
169	0xbd3db28d	-0.046312857
170	0xbf2010b3	-0.6252548
171	0x41ac19a7	21.512526
172	0x3dd2abe3	0.10286691
173	0x3ea537c8	0.3226912
174	0xbcecdb21	-0.028913083
175	0x3c8ea523	0.017412728
176	0xbe4b6508	-0.19862759
177	0xbf1e4431	-0.618228
178	0xbd207abc	-0.03917955
179	0x40b36d4c	5.607092
180	0xbf5f5ad7	-0.87247986
181	0x3f26fa05	0.6522525
182	0xbea5d886	-0.32391757
183	0x3fb4ff0a	1.4140332
184	0xbef1f1a2	-0.47254664
185	0x40be04bb	5.9380774
186	0xbf245999	-0.64199215
187	0xbc290f7e	-0.010318635
188	0xbdb325ad	-0.087474205
189	0xbe8e0fca	-0.2774642
190	0xbf3f292c	-0.746722
191	0x41026d6d	8.151715
192	0x40c63198	6.193554
193	0xbe169bf4	-0.14707929
194	0x4149ab4a	12.604319
195	0xbc24e650	-0.010064676
196	0xbfda8fe5	-1.7075163
197	0xbda7e053	-0.08197083
198	0xbe0ce86e	-0.1376054
199	0x42490f2e	50.264824
200	0xbd10ecca	-0.03538207
201	0xbb7e6983	-0.0038820214
202	0xbdd6a658	-0.10480946
203	0x411549fa	9.330561
204	0xbd818ae9	-0.06325323
205	0xbd31d473	-0.043415498
206	0x3caba607	0.020953191
207	0xbcb1ab56	-0.021688145
208	0xbf78a2a0	-0.97123146
209	0xbe9c80d5	-0.3056704
210	0x3c3f2c0c	0.011668216
211	0x40ce939e	6.4555197
212	0xbf347082	-0.70484173
213	0xbd0e04cd	-0.034672547
214	0xbc97e3ab	-0.018541178
215	0x3f0e7409	0.55645806
216	0xbf02c82f	-0.51086706
217	0x3e8827a7	0.26592752
218	0xbf0b1a31	-0.5433684
219	0xbb4f434c	-0.0031625805
220	0xbe4cee6c	-0.20012826
221	0xbfc588ac	-1.5432334
222	0xbfeb08ae	-1.8362024
223	0x415d6e99	13.839501
224	0xc285662a	-66.69954
225	0xbf155dbb	-0.58346146
226	0xc21692ce	-37.643364
227	0x3df7cccf	0.12099611
228	0xbf3822c0	-0.71928024
229	0x3d97bcf7	0.07409089
230	0xbe699a33	-0.22812729
231	0xc0df7683	-6.983217
232	0xbe2de75c	-0.16982788
233	0xbe974a6b	-0.29548964
234	0xbe95045f	-0.29104897
235	0xc0ced97d	-6.464049
236	0xbdd64dfe	-0.104640946
237	0x3d2e069c	0.042486772
238	0xbec15b9c	-0.37765205
239	0x3f173ed2	0.5908023
240	0x3fb92abe	1.4466169
241	0x3e952083	0.29126367
242	0x3f23a245	0.6391948
243	0xc240fed4	-48.248856
244	0x3f41380a	0.75476134
245	0xbe53d8ab	-0.20688121
246	0xbf14156b	-0.5784518
247	0xbf8d9981	-1.1062471
248	0x3eaadbed	0.33370915
249	0xbe64af79	-0.22332563
250	0x3e948a03	0.29011545
251	0x3e6214d5	0.2207826
252	0xbf0bc156	-0.5459188
253	0xbee5a387	-0.44851324
254	0xbe48201c	-0.19543499
255	0xbf418a84	-0.75601983

fc2.bias f4 [32]
0	0xc03e6b71	-2.9753077
1	0xc005f3c3	-2.093003
2	0xc026cacb	-2.6061275
3	0xbf9c7928	-1.2224474
4	0x3f9f3b28	1.2439928
5	0x3e380f04	0.17974478
6	0xbf91a33d	-1.1377941
7	0xbed991b3	-0.42493972
8	0xc0086d89	-2.1316855
9	0xc0046c12	-2.069096
10	0xbfef2bb9	-1.8685218
11	0x400cf328	2.202341
12	0xbf1d7ca0	-0.6151829
13	0xbf9ca440	-1.2237625
14	0xc0158d85	-2.3367627
15	0xc08f4a97	-4.477855
16	0xbfe6721a	-1.8003571
17	0x3f171c4b	0.59027547
18	0x40139aca	2.3063226
19	0xbff829d0	-1.938776
20	0xc00bcb32	-2.184277
21	0xc0106e71	-2.2567408
22	0xc03cc304	-2.9494028
23	0x3f827199	1.0190917
24	0x3dacf69f	0.08445477
25	0xc037b580	-2.870453
26	0xbf016a60	-0.5055294
27	0xbfc0a49e	-1.5050237
28	0x3f9eebd2	1.2415717
29	0xc022932f	-2.5402334
30	0xbfc03330	-1.5015621
31	0xbfc09342	-1.504494

fc3.weight f4 [32, 32]
0	0xc02b61c4	-2.6778421
1	0xc02782de	-2.6173625
2	0xbccd9790	-0.025096685
3	0xbf80ff0b	-1.0077833
4	0xbf575e41	-0.84128195
5	0xbfc2b050	-1.5210056
6	0xbfe15831	-1.7605039
7	0xbf261f62	-0.64891636
8	0x40818ee2	4.0486917
9	0x3f7adfb9	0.97997624
10	0x3de69919	0.1125967
11	0xc10ece2e	-8.925337
12	0xbdcdf5c9	-0.100566454
13	0xbf4163eb	-0.7554309
14	0xbf40091a	-0.7501389
15	0xbe24f246	-0.16108045
16	0xbe49e39f	-0.19715737
17	0xbf555ba6	-0.8334297
18	0xbf81989f	-1.0124701
19	0xbf15f48a	-0.5857626
20	0xbe03d576	-0.12874398
21	0xbeace7cb	-0.33770594
22	0x3e03e376	0.12879738
23	0xc01550b5	-2.333051
24	0xbfed06bd	-1.8517681
25	0xbf621381	-0.8831101
26	0xbe0f1243	-0.1397181
27	0x3f98c7f9	1.1936027
28	0xbf832051	-1.0244237
29	0xbf6f4730	-0.93468
30	0x3ed31eb4	0.41234362
31	0x3e758994	0.23978263
32	0xc013e4d0	-2.3108406
33	0xc026da9d	-2.607093
34	0xbe880ff5	-0.26574674
35	0xbf3ee2cd	-0.7456482
36	0xc01fadd9	-2.4949858
37	0xc0148475	-2.3205845
38	0xbfe8bb93	-1.8182243
39	0xbe933bf7	-0.28756687
40	0x3f817c2a	1.0116017
41	0xbed1f4a4	-0.41006958
42	0x3ee98e96	0.45616597
43	0xc10c1167	-8.754249
44	0x3cd9bc61	0.026579084
45	0xbfc2c85d	-1.5217396
46	0xbf9ac80b	-1.2092298
47	0x3cb482b7	0.022034986
48	0x3f8c948f	1.0982836
49	0xbfcf1f5c	-1.6181445
50	0xc01e6a5d	-2.475242
51	0xbeb7ac4c	-0.3587364
52	0xbe16a970	-0.14713073
53	0xbe9daa4d	-0.30793992
54	0xbd36a4ba	-0.04459069
55	0xc02761ba	-2.6153398
56	0xc00bb0e2	-2.182671
57	0xbe034ca6	-0.12822208
58	0xbfc5907e	-1.543472
59	0x3f071fb6	0.5278276
60	0xbfd17edc	-1.636684
61	0xbfee309f	-1.8608588
62	0xbe344bd0	-0.17607045
63	0x3f0d6e74	0.55246663
64	0xbfd9fd99	-1.7030517
65	0xbf8dcc9b	-1.1078066
66	0x3e85941a	0.26089555
67	0xbfc56b8e	-1.5423448
68	0xbfcc6ba8	-1.5970354
69	0xc04a4974	-3.1607332
70	0xc032d90f	-2.7944982
71	0xbe73d92e	-0.23813316
72	0xbf1c9534	-0.61165166
73	0xbeeb9484	-0.46011746
74	0xbe862ccb	-0.2620605
75	0xbfe6d967	-1.8035096
76	0xbd87f718	-0.06638926
77	0xbfa6a067	-1.3017701
78	0x3f959724	1.168675
79	0xbef39c87	-0.47580358
80	0xbdc9c3b0	-0.098517776
81	0xbf38937d	-0.7210005
82	0xc0902e2f	-4.5056376
83	0x3eca30db	0.394904
84	0xbebffe17	-0.37498543
85	0xbe8c74e4	-0.2743293
86	0xbe69a881	-0.22818185
87	0xbf622936	-0.8834413
88	0xbf8a6d5c	-1.0814624
89	0x3e101f01	0.14074327
90	0xbfcb4bb3	-1.5882477
91	0xbee123ce	-0.4397263
92	0xc010f523	-2.264962
93	0xbfe1d4d6	-1.7643077
94	0xbbd79d76	-0.00658005
95	0xbdc870e5	-0.09787158
96	0xc052893e	-3.2896266
97	0xc053aa19	-3.307257
98	0xbf74830f	-0.9551248
99	0xbdb5873c	-0.088636845
100	0xc0327ea9	-2.7889807
101	0xbf9a7868	-1.2067995
102	0xbfb5499d	-1.416309
103	0xbee0b288	-0.4388621
104	0x3f30b67c	0.6902845
105	0xbfaa5f08	-1.3310251
106	0xbf3a5a6a	-0.7279421
107	0xc1089013	-8.535174
108	0xbf43eea0	-0.7653599
109	0xbf4608fc	-0.7735746
110	0xbfae507a	-1.361831
111	0xbed2d956	-0.4118144
112	0xbe836026	-0.25659293
113	0xbf8394f9	-1.0279838
114	0xbfbdbf38	-1.482398
115	0xbeb0f4dd	-0.34561816
116	0xbf6c4347	-0.9229016
117	0xbf441fa6	-0.7661079
118	0x3dd406a0	0.10352826
119	0xc0237d3c	-2.5545187
120	0xc00992a7	-2.149576
121	0xbe97f00e	-0.29675335
122	0xbf36e06f	-0.7143621
123	0xbe82d58c	-0.25553548
124	0xbf78c5ca	-0.971768
125	0xbfd33fcf	-1.6503848
126	0xbed601c4	-0.41798222
127	0xbf8ef8f7	-1.1169728
128	0xbfc77a6b	-1.5584234
129	0xbfcb0922	-1.5862162
130	0xbf01c92c	-0.5069759
131	0xbfc6e814	-1.5539575
132	0xbf94c84e	-1.1623628
133	0xc00f4cf8	-2.2390728
134	0xbfd10d7b	-1.6332239
135	0x3e336335	0.17518313
136	0x3fe56363	1.7920955
137	0xbdd8ea6e	-0.10591589
138	0x3f88a032	1.0673888
139	0xc0d90ac2	-6.782563
140	0x3cdbdefe	0.02683973
141	0x4035c24a	2.8399835
142	0xbf59000d	-0.847657
143	0xbf166da1	-0.5876103
144	0x3f789f01	0.9711762
145	0xbf245983	-0.64199084
146	0xc00fb47b	-2.2453907
147	0xbe00d44f	-0.1258099
148	0xbeced4a2	-0.403966
149	0xbd45b1e5	-0.048265357
150	0xbf92cafa	-1.1468194
151	0xc1403108	-12.0119705
152	0xc0be22e5	-5.9417596
153	0xbfa076f0	-1.2536297
154	0x3d08d328	0.0334045
155	0x3fbf4596	1.4943111
156	0xc00b9395	-2.1808827
157	0xc039dde2	-2.9041677
158	0x3fc376d6	1.5270641
159	0x4006cebc	2.106368
160	0xc006b8bf	-2.105026
161	0xc010e3c7	-2.2639024
162	0xbee55687	-0.44792578
163	0xbf806b8f	-1.0032824
164	0xc006fab4	-2.1090517
165	0xc01615cd	-2.3450806
166	0xc014bf36	-2.3241706
167	0x3c65031c	0.013977792
168	0x3f4b95dc	0.7952554
169	0x3ebafa91	0.36519292
170	0xbeae0026	-0.33984488
171	0xc0e2ea03	-7.091066
172	0xbf08d4b9	-0.5344959
173	0xbfb3c4cc	-1.4044433
174	0xbf36d4d6	-0.7141851
175	0xbeaf4fcb	-0.34240565
176	0xbe537895	-0.20651467
177	0xc013ad4e	-2.3074527
178	0xc014ff7b	-2.3280933
179	0xbe951679	-0.29118708
180	0xbe460ac3	-0.19340043
181	0xbf043f36	-0.5165895
182	0xbeff378b	-0.49847063
183	0xbffd2a4c	-1.9778533
184	0xbfed799f	-1.8552741
185	0xbee7800f	-0.45214888
186	0xbf5bfd26	-0.8593315
187	0x3eb66fc1	0.35632136
188	0xc00bd10a	-2.1846337
189	0xbf4f1bc1	-0.80901724
190	0xbea60cd7	-0.3243167
191	0xbe8be947	-0.27326414
192	0xbf90cc76	-1.1312397
193	0xc10d6aaf	-8.838546
194	0x400b8088	2.17972
195	0x3e4bfd89	0.19920935
196	0xbff63011	-1.9233419
197	0xbb4e8f21	-0.0031518417
198	0x3c1118e0	0.008856028
199	0xbf1e65e6	-0.61874235
200	0x3d4679a2	0.04845584
201	0x40ae9028	5.455097
202	0xbec6d79b	-0.3883637
203	0x3f10905c	0.56470275
204	0x3e942912	0.28937584
205	0xbe01ea89	-0.12687124
206	0xc05d291b	-3.4556339
207	0x41defe4e	27.874172
208	0x3de2fad3	0.11082997
209	0x3fb389a4	1.402638
210	0x3df3ceed	0.11904702
211	0x3ffa501b	1.9555696
212	0x40b42098	5.6289787
213	0x4064aa00	3.572876
214	0x4183e5c8	16.487198
215	0x3c728aab	0.014803569
216	0x3a967af7	0.0011480738
217	0x40885399	4.260205
218	0xb8d8159c	-0.00010303708
219	0x3f692c7c	0.910835
220	0x3fa7c134	1.3105836
221	0xbe55a98f	-0.20865463
222	0x3dde7614	0.10862365
223	0xbf255140	-0.645771
224	0x3f6ad30d	0.9172829
225	0x3eeb8612	0.46000725
226	0x3bf0febc	0.0073545855
227	0x4121d381	10.114137
228	0xbf532ada	-0.8248726
229	0xc102769e	-8.153959
230	0xc1a02417	-20.017622
231	0x417f4abb	15.955745
232	0xbf26a981	-0.6510239
233	0xbf100020	-0.5625019
234	0xbf05ad2f	-0.5221738
235	0xbfa5b898	-1.2946959
236	0xbebdab65	-0.37044826
237	0xc11de969	-9.869485
238	0x3d6266f7	0.055273976
239	0x3f70a96c	0.9400852
240	0xbfa902e8	-1.3204012
241	0xbfa4c3a5	-1.2872206
242	0xbff9dfc9	-1.9521419
243	0xbea31db9	-0.31858614
244	0xbf1d53c9	-0.6145597
245	0xbf1f34cc	-0.62189937
246	0xbe966b51	-0.2937875
247	0x3f198bfc	0.59979224
248	0xbf948b66	-1.1605041
249	0x3e89081c	0.26764
250	0xbfec1929	-1.8445178
251	0xbfb53b4b	-1.415872
252	0x3e5e84cc	0.21730345
253	0x3f05b8cc	0.522351
254	0xbe1ca1ed	-0.15296145
255	0xbe3b1e6f	-0.18273328

fc3.bias f4 [32]
0	0xbfd76375	-1.6827227
1	0xc029ecf3	-2.6550872
2	0xbfceff7e	-1.617172
3	0xbff9e2c9	-1.9522334
4	0xc0283491	-2.6282084
5	0xc01b19d4	-2.4234514
6	0xbe846940	-0.2586155
7	0xbfd6e290	-1.6787891
8	0xc00c8c16	-2.1960502
9	0xbff37d74	-1.902266
10	0xbe203824	-0.15646416
11	0xbf371b8d	-0.71526414
12	0xbf962159	-1.1728927
13	0xbf9041de	-1.1270101
14	0xc0079a72	-2.1188016
15	0xbfa5efee	-1.2963846
16	0xbfdd7e77	-1.7304219
17	0xbfc22f01	-1.5170594
18	0xbf5d9e2d	-0.8656948
19	0xc00005c1	-2.0003512
20	0xbf990865	-1.1955687
21	0xbfa653e2	-1.2994349
22	0xbf97a3fe	-1.1846921
23	0xc02288a7	-2.5395906
24	0xbf8b7c7f	-1.0897368
25	0xbf2bb935	-0.6707948
26	0xbf7c7595	-0.98616916
27	0xbe58ca31	-0.2117088
28	0xc001c659	-2.0277312
29	0xbfcf8eb5	-1.6215426
30	0xbff423a0	-1.9073372
31	0xbe4e3689	-0.20137991

fc4.weight f4 [20, 32]
0	0x4062a23f	3.5411527
1	0x4031cb7b	2.7780445
2	0xbfefbe64	-1.8729978
3	0x40879f40	4.2381897
4	0x3fb87866	1.4411743
5	0x3fbe09f7	1.4846791
6	0x4088c318	4.273815
7	0xc10f3610	-8.950699
8	0x4052baa3	3.2926414
9	0x3fb90e7c	1.4457545
10	0xbff54715	-1.9162318
11	0xc09e6f64	-4.9510975
12	0xc11fae97	-9.980124
13	0x3e982c61	0.29721358
14	0xbfe2937b	-1.7701257
15	0xc0bc0737	-5.8758807
16	0xc01cf1ad	-2.4522507
17	0x4123b860	10.232513
18	0xc090d547	-4.526035
19	0x3f15bf86	0.58495367
20	0x409303f0	4.5942307
21	0xc0c6bb70	-6.2103806
22	0xc0e2cf38	-7.0877953
23	0x3fd3ae3a	1.6537545
24	0xc0fd9e53	-7.9255767
25	0xc0bf1fdf	-5.9726405
26	0xc0bc02a0	-5.8753204
27	0xc076708f	-3.85062
28	0x3febb326	1.8414047
29	0xc0dfebc4	-6.99753
30	0xc027f93d	-2.6245873
31	0x4017bd6d	2.3709366
32	0x407a6c7d	3.9128716
33	0x406bdd2f	3.685375
34	0xbfc2ca3e	-1.521797
35	0x3ff0f8ba	1.8825905
36	0x4011c931	2.2779047
37	0x3fb2b848	1.3962488
38	0xbf1524df	-0.58259386
39	0xc11affcd	-9.687451
40	0x401519e5	2.3297055
41	0x4005e67c	2.0921926
42	0x3e792381	0.2432995
43	0xc02db5f7	-2.7142313
44	0xc11fa61b	-9.978053
45	0x3feb2100	1.8369446
46	0x3fab7767	1.3395814
47	0xc0b10c90	-5.5327835
48	0xbfa27419	-1.269168
49	0xc0089185	-2.1338818
50	0xc0b5b10c	-5.677862
51	0x400d1cfa	2.2048936
52	0x406675d2	3.6009412
53	0x3f6b6a18	0.9195876
54	0xc122365c	-10.138271
55	0x407e8773	3.9770172
56	0x3fda00fc	1.703155
57	0x40260ec1	2.5946505
58	0xbfca5ee4	-1.5810208
59	0xc06b0aed	-3.6725419
60	0x402310ce	2.5479007
61	0xc12cbf85	-10.796758
62	0xc021be81	-2.5272524
63	0x400f53db	2.2394931
64	0x3faf0013	1.3671898
65	0x3fedaac2	1.8567736
66	0xbe35c8b6	-0.17752346
67	0x3f3ffdfb	0.7499692
68	0x3fc80432	1.562628
69	0xbec7d766	-0.39031523
70	0xc03ed171	-2.9815333
71	0xc04645cb	-3.0980098
72	0x3e21d2f7	0.15803133
73	0xbe1d04f8	-0.15333927
74	0x3fa7b381	1.3101655
75	0xc04d0896	-3.203649
76	0xbf84a215	-1.0361964
77	0x3c00c2d8	0.007858954
78	0x400e99c5	2.2281353
79	0xc0264f3c	-2.598586
80	0xbf48d333	-0.78447264
81	0xc102bddb	-8.171351
82	0xc065ffb8	-3.5937328
83	0x3fcefb74	1.6170487
84	0x3f35eddb	0.71066064
85	0x406ee4d4	3.7327166
86	0xc08447b1	-4.1337514
87	0x3f9ea813	1.2395042
88	0x40b48a7d	5.6419053
89	0x40a3230d	5.0980287
90	0x3fa8cb2b	1.3187002
91	0xbf78af9a	-0.97142947
92	0x3f14a0b2	0.580577
93	0xc0afa5c5	-5.4889855
94	0xc0032983	-2.0494087
95	0x3f1883e8	0.5957627
96	0xbf73a0d7	-0.951673
97	0xbfdd84a7	-1.7306107
98	0x3dd2ef7f	0.102995865
99	0xc005ec63	-2.092553
100	0xbd93c267	-0.07214814
101	0xbe170f90	-0.1475203
102	0xc01067d4	-2.2563372
103	0x401e9027	2.4775484
104	0xbf501355	-0.812795
105	0xbfd14f7d	-1.6352383
106	0x3f7f1616	0.99643075
107	0xbf9342e6	-1.1504791
108	0x4047f144	3.1241007
109	0xbf7c00de	-0.98438823
110	0x400031de	2.0030437
111	0x3fbacb72	1.4593337
112	0x3ea2c3ca	0.3179
113	0xc0ba48e1	-5.8213964
114	0xbefa9849	-0.4894431
115	0xbf7b8b12	-0.9825908
116	0xc0332017	-2.7988336
117	0x404e19cd	3.2203248
118	0x400a1137	2.1573007
119	0xbf650671	-0.89462954
120	0x40a91692	5.284005
121	0x409a5647	4.823032
122	0x4011eb1e	2.2799754
123	0x3fa20e3b	1.2660593
124	0xbf13daca	-0.5775572
125	0x404e34e8	3.2219791
126	0xbeb7b49c	-0.35879982
127	0xbf4b2c5e	-0.79364574
128	0xc02544e4	-2.5823298
129	0xbdf04b25	-0.11733083
130	0x3f0d3ae9	0.55168015
131	0xbe125ab1	-0.14292409
132	0xbdbad20a	-0.09122093
133	0x3ed643e8	0.41848683
134	0xbe75e492	-0.24012974
135	0x4080bf5f	4.0233607
136	0x3f87055d	1.0548512
137	0xbf2dc55c	-0.6787927
138	0x3de480e2	0.11157395
139	0x3c8144ba	0.015779842
140	0x4080178e	4.0028753
141	0x3e24c0a1	0.16089107
142	0xbf385540	-0.7200508
143	0x408946a6	4.289874
144	0x3e56a562	0.20961526
145	0xbe920550	-0.28519678
146	0x405b3dad	3.4256394
147	0xbf822001	-1.0166017
148	0xbfe2d075	-1.7719866
149	0x3fad88ed	1.3557411
150	0x4081ecca	4.060155
151	0xbff7582e	-1.9323785
152	0x3f9b2bef	1.2122782
153	0x3fa9e215	1.327212
154	0x3ff4e6fb	1.913299
155	0x3fd3dc24	1.6551557
156	0x3e3f6230	0.186898
157	0x40dee396	6.9652815
158	0x3f7b0a7c	0.9806287
159	0xbf83eff8	-1.0307608
160	0xbe65c3c6	-0.22437963
161	0xbfc343fa	-1.525512
162	0xbeb8d57a	-0.3610037
163	0xbd0a3c33	-0.033748817
164	0xbf1acf3c	-0.60472465
165	0x3da9ff3b	0.083006345
166	0x3f8b0bc2	1.0862963
167	0x4055d821	3.3413165
168	0xbfe47b95	-1.7850214
169	0xbf11b281	-0.56913
170	0xbef45925	-0.47724262
171	0x3e533dc6	0.20629033
172	0x3fddbc5d	1.7323109
173	0x3df659df	0.1202886
174	0x3dbd8d1f	0.09255432
175	0x40026d72	2.03793
176	0xbeac85af	-0.33695742
177	0x4057ddde	3.3729167
178	0xbdbacd28	-0.09121162
179	0xbf8ec2c0	-1.1153183
180	0xbf6b2797	-0.91857284
181	0xbf975b79	-1.182479
182	0x3fb8cc64	1.4437375
183	0x3f695c0e	0.9115609
184	0xbff86b55	-1.9407755
185	0xc01ff5a2	-2.4993672
186	0x3fae7282	1.3628695
187	0x3f378c9b	0.7169892
188	0xbfa1f270	-1.2652111
189	0x40505f92	3.2558331
190	0x3f1c89b8	0.6114764
191	0xbedce2b2	-0.43141705
192	0x3f7c64eb	0.9859149
193	0xbf332fe5	-0.69994956
194	0x3e5dede9	0.21672787
195	0x3f12e282	0.57376873
196	0xbeabc978	-0.33552146
197	0x3f74573c	0.9544561
198	0x3f8b7b4a	1.0897
199	0xbf6fafa8	-0.93627405
200	0xbe89f975	-0.26948133
201	0x3d628b22	0.05530847
202	0xbef783ea	-0.4834283
203	0xbf8bbdfa	-1.0917351
204	0xbf954f64	-1.1664853
205	0x3d4e375f	0.050345775
206	0x3d999729	0.07499535
207	0x3e93ab64	0.28841698
208	0x3d86b003	0.0657654
209	0x4039ec7b	2.9050586
210	0xbfb28fbf	-1.3950118
211	0x3e583201	0.21112825
212	0x40039dfa	2.0565171
213	0xbfd90c6b	-1.6956915
214	0xbfcb9bde	-1.5906942
215	0x3f5fef64	0.87474656
216	0xc015d740	-2.3412628
217	0xbfec1cf5	-1.8446337
218	0xbfb93f79	-1.4472495
219	0xbeb16a67	-0.3465149
220	0x3f853385	1.0406348
221	0x3fab2fa6	1.3373916
222	0xbee19ddb	-0.44065747
223	0x3e4c3b98	0.19944608
224	0x3e99ad08	0.30014825
225	0xbeda288e	-0.42609066
226	0xbed6bcd8	-0.4194095
227	0x3faf1915	1.367953
228	0x3e1b1de5	0.15148123
229	0xbe236dea	-0.15959898
230	0x3ea305b5	0.31840292
231	0xc0385c84	-2.8806467
232	0xbdc1cae5	-0.09462527
233	0x3fc15242	1.5103228
234	0xbe0f14c8	-0.13972771
235	0xbf91e77f	-1.1398772
236	0xc08a1377	-4.314876
237	0xbf5cd9b8	-0.8626971
238	0x3ed2cb5e	0.41170782
239	0xbf512190	-0.8169184
240	0xbf46c95b	-0.77650994
241	0x3f387197	0.72048324
242	0x405030a4	3.2529688
243	0xbeac55aa	-0.33659106
244	0x3ea9621b	0.3308266
245	0xc035e34c	-2.841998
246	0xc026fdcf	-2.6092412
247	0x3f3bdf37	0.73387474
248	0xbff3a4bc	-1.9034648
249	0xbf497cbb	-0.7870595
250	0xbe16b075	-0.1471575
251	0xbf34f2ab	-0.7068278
252	0xbfb9f114	-1.4526696
253	0x3fc48d4b	1.5355619
254	0xbe4a396a	-0.19748464
255	0x3ee08d30	0.43857718

fc4.bias f4 [20]
0	0xbf13ae87	-0.5768818
1	0x3f6f554b	0.9348952
2	0x3f92f30d	1.1480423
3	0x3eedef54	0.46471655
4	0xbe840eac	-0.25792444
5	0xbefb9a21	-0.4914103
6	0xbe8cc1eb	-0.27491698
7	0x3d24f4e6	0.040272616
8	0x3e4b419a	0.19849244
9	0x3e17b47c	0.14814943
10	0x3c8395fa	0.016062725
11	0xbd9596e1	-0.073041685
12	0xbd924486	-0.07141976
13	0xbca0f7de	-0.019649442
14	0x3cab5c38	0.020917997
15	0x3cf7b14c	0.030235909
16	0x3c6b675d	0.014367905
17	0xbbe3a6f6	-0.0069473935
18	0xbca5b630	-0.020228475
19	0xbc1322a1	-0.008980424
