transfer/dampedSpring/data/transfer_finetuning/k(0.9)_model_weights.pth (torch, 13651 bytes, 8 tensors)

fc1.weight f4 [32, 2]
000000 70 3a 06 3e 96 a1 21 40 52 d4 96 3e 37 46 b3 bd
       0.1310823 2.5254874 0.29458863 -0.08753627
000010 b6 a5 63 bc f6 59 e6 3e 1d e0 42 c0 a1 6b 4a be
       -0.013894489 0.4499051 -3.0449288 -0.1976762
000020 8c 66 e9 bd fa b9 42 c0 30 71 20 bf d9 6e 6c 3d
       -0.113965124 -3.042601 -0.6267271 0.0577229
000030 37 c2 db 3e dd 23 cb bd c9 a9 27 3e 8a 5a 56 40
       0.42921612 -0.0991895 0.16373362 3.349276
000040 ae d0 09 bf e8 50 05 3e c0 7f 2a c0 6e b7 42 be
       -0.53834045 0.13019145 -2.6640472 -0.19015285
000050 03 8e 0d 3f 82 8c 08 bd cb e4 88 bd fd 13 06 3f
       0.5529482 -0.033337124 -0.06684264 0.5237425
000060 18 3d f9 be f1 e8 d3 3d b4 10 00 bf a1 c5 2e 3e
       -0.48679423 0.103471644 -0.50025487 0.17067577
000070 dd f4 2d 40 77 43 01 3e 82 6d 25 40 4c 19 0a 3e
       2.7180703 0.12623392 2.5848088 0.13486212
000080 bb 64 99 bd 7a 97 e4 be 94 0b 62 3e 15 37 d6 be
       -0.07489916 -0.44646817 0.22074729 -0.418389
000090 ea d4 28 c0 98 96 bc bd d0 31 1e 3e 77 b3 32 40
       -2.6379952 -0.09208411 0.1544869 2.7922037
0000a0 28 39 66 bd ad ce 27 bf 94 8c 26 bf 65 e6 a6 3d
       -0.056206852 -0.6554974 -0.65058255 0.08149413
0000b0 a5 35 0a 3f 73 35 c5 3c ab 6e cf bd dc 60 e0 3d
       0.53988105 0.024073338 -0.1012853 0.109559745
0000c0 10 59 0d be fc 76 06 bf cb 4e 7a 3e 2c ef 79 3e
       -0.13803506 -0.52525306 0.2444412 0.24407643
0000d0 38 43 01 bc e6 0c 33 bf fb 2c 36 c0 5f 8b 39 be
       -0.007889561 -0.69941556 -2.8464954 -0.18119572
0000e0 b2 ba ec 3e 50 ff 06 bd c3 87 0c be 86 96 39 c0
       0.46236187 -0.03295833 -0.13723664 -2.8998122
0000f0 a9 2d 51 be 4d b1 77 c0 19 61 22 3e d4 79 10 40
       -0.20427574 -3.8701966 0.15857352 2.2574358

fc1.bias f4 [32]
000000 b3 fd 97 40 5a e9 57 c1 53 49 02 c1 54 3b 17 c0
       4.749719 -13.494471 -8.142901 -2.362996
000010 2f 3e 41 41 3f fc 5d c1 33 ca 5a c1 8d c2 b7 3f
       12.077682 -13.8740835 -13.674365 1.4356247
000020 f2 3c 5b c1 29 c7 6d 40 86 84 59 c1 8d cd 55 c1
       -13.702379 3.7152808 -13.594854 -13.362683
000030 ef 4d 59 c1 76 77 5b c1 74 d7 48 c1 28 1b cf 40
       -13.581527 -13.716665 -12.552601 6.472065
000040 b0 f9 61 c1 26 2a 5b c1 14 b5 4a c1 c9 40 2a 41
       -14.123459 -13.69779 -12.669209 10.640817
000050 13 d8 5f c1 1d f0 65 c1 da 41 51 c1 fa b7 58 c1
       -13.9902525 -14.371121 -13.078577 -13.544916
000060 cc d7 5d c1 19 43 5c c1 ba d5 5c c1 bd 57 03 41
       -13.865185 -13.766381 -13.802179 8.2089205
000070 7e 9e 5d c1 80 4b d3 40 d9 ee 65 40 80 96 32 c1
       -13.851194 6.6029663 3.592703 -11.161743

fc2.weight f4 [32, 32]
000000 4c ed 2f bd ea 5a f2 bf 8e 64 29 bf fa 34 a6 40
       -0.042950913 -1.8933995 -0.6616906 5.193967
000010 1b 9d 58 be d7 75 b4 40 b7 41 38 c0 4f ff 28 bc
       -0.21153681 5.6393847 -2.879011 -0.010314777
000020 14 79 0c 40 8f 3f b1 40 c4 14 89 c0 ff 8c bf be
       2.19489 5.5390086 -4.283785 -0.3741226
000030 6d b1 f5 3f ef 82 e6 3f 63 3b 48 c2 a1 ad 81 c0
       1.9194771 1.8008708 -50.057995 -4.052445
000040 7f 25 ca 3e bd 31 1d c0 2d c9 a5 41 8d a3 11 bd
       0.39481732 -2.4561608 20.72323 -0.035556365
000050 b1 75 72 be 83 87 0d 41 02 c1 be c0 71 3d cb 3e
       -0.23677708 8.845584 -5.9610605 0.39695314
000060 d4 23 8e 3f 40 75 03 c0 00 13 9a 3d 45 5e 6f 3f
       1.1104684 -2.0540314 0.07523155 0.9350322
000070 d6 db 0b c0 b7 7c 22 bd 3e 05 2a 3d 0c 04 da be
       -2.1852927 -0.03966972 0.041508906 -0.42581213
000080 51 42 46 3d e9 a7 f3 be 8c bb 31 3c 18 6c 9a 40
       0.048403088 -0.47589043 0.010847937 4.825695
000090 6b dd 54 bd 87 5b 2d 3f 26 dc 18 bf f8 85 93 3c
       -0.051968973 0.67717785 -0.5971092 0.018008217
0000a0 31 6a de 3e e8 4c 4f be 5d d4 21 c0 8c 6b 7b bc
       0.43440393 -0.20244181 -2.5285866 -0.015345465
0000b0 26 89 d7 3e 26 1c cc 3e 81 a7 0f c2 a2 06 66 c0
       0.42096823 0.39865226 -35.913578 -3.5941548
0000c0 99 07 e0 bb 6a 9a 5c bd a8 ae e9 41 da 19 01 bd
       -0.006836843 -0.0538582 29.210281 -0.031518795
0000d0 d3 e7 88 3d a3 43 e3 3f de 7f 7a c0 b6 25 0c bb
       0.06684842 1.7755016 -3.9140544 -0.0021384782
0000e0 9e 19 3b 3e 05 4b 09 c0 32 d4 21 3e 6a 45 98 bf
       0.18271491 -2.1452038 0.15803602 -1.1896183
0000f0 4b fc f6 be 1d 02 61 3c a6 10 9b bc 98 90 8b be
       -0.4823936 0.013733414 -0.018928837 -0.27258754
000100 fd a9 8d bf b4 9f 56 bf a7 3f 88 bf a9 a2 d5 bf
       -1.1067501 -0.8383744 -1.0644425 -1.6690265
000110 db 2f 1b c0 3b cf 40 bf f6 69 22 bf 68 25 20 bf
       -2.4247959 -0.7531621 -0.63442934 -0.6255708
000120 6f 54 35 bf 62 b1 82 c0 12 71 54 bf 3a c3 80 bf
       -0.7083196 -4.084153 -0.8298503 -1.0059578
000130 f4 e3 8b bf 3f ff 09 bf 56 70 f4 bf a3 19 24 c0
       -1.0928941 -0.539051 -1.9096782 -2.5640647
000140 c4 30 88 bf 8c f8 8f bf 8d b4 a4 be 9b c0 f4 bf
       -1.0639882 -1.1247725 -0.32169 -1.9121279
000150 f9 e4 3a bf 80 0b fd be 03 6a d3 bf bf bc 21 c0
       -0.73005635 -0.49422836 -1.6516727 -2.5271451
000160 02 bb 4e bf fa 47 29 3f db f4 a6 be db da bd c0
       -0.807541 0.6612545 -0.32608685 -5.9329658
000170 2a 00 a9 be 54 d4 a5 bf 8a 39 cc bf a1 be 03 be
       -0.33007938 -1.2955422 -1.595506 -0.12865688
000180 2e 9b 2e c2 9c 5b a3 be 20 83 8b c1 89 72 be 3b
       -43.651543 -0.3190583 -17.439026 0.0058119935
000190 4b 3e 78 be 34 16 5f bf ad 03 15 be 2c 0f b1 c1
       -0.24242513 -0.87143254 -0.14552183 -22.132408
0001a0 cf 14 13 bf a4 6d 3e bd 9c 80 62 bd 0f 84 50 c1
       -0.57453626 -0.04649128 -0.055298433 -13.032241
0001b0 50 1f 79 bf 17 ef 60 bf db 04 38 3c 09 d3 84 bd
       -0.97313404 -0.8786482 0.011231626 -0.06485564
0001c0 ea 2f b9 3f 46 b8 73 3d 67 35 c4 bd f4 26 89 c1
       1.4467747 0.05950191 -0.09580498 -17.14402
0001d0 45 f8 4c be d6 2d 3e bf 7f 2b af be b9 dc 9c c0
       -0.20016582 -0.7428869 -0.34212872 -4.9019437
0001e0 83 64 a0 be 56 62 ec c0 60 0f 64 be bd 3f 03 bb
       -0.31326684 -7.387004 -0.2227149 -0.0020027005
0001f0 38 ee 8a be 85 52 28 be 63 f3 19 be b7 c6 b2 c0
       -0.2713487 -0.16437729 -0.15034251 -5.586757
000200 c5 90 82 bc e8 11 23 bf c8 9a 1b be 8f 1a 35 42
       -0.015938172 -0.636992 -0.15195763 45.275936
000210 78 d6 d2 bd 28 a6 98 40 35 50 2c bf 8c 6c 3f bd
       -0.10294813 4.7702827 -0.67309886 -0.046734378
000220 d4 cf 03 be 4c 22 49 42 4c ee 35 bf 96 fc 6f be
       -0.12872249 50.283493 -0.7106674 -0.23436198
000230 41 cf 8f 3f cc 68 7d 3e 64 52 b6 c0 e4 96 22 3d
       1.1235124 0.24747008 -5.6975574 0.03969468
000240 29 12 e9 3f 9d ab eb be 36 ff 35 41 05 4b a7 bb
       1.8208667 -0.46029368 11.374807 -0.0051053786
000250 4e 65 f2 3e 61 37 4d 41 3e 23 a6 be 89 ff 2e c0
       0.47342914 12.82602 -0.32448763 -2.7343466
000260 0b 58 da be 42 8b f9 bf 76 ce 5d be 78 b1 c1 40
       -0.42645296 -1.9495623 -0.2166079 6.0529137
000270 b0 d6 4f bf 3a 86 6c 3c 04 d0 8f 3d b1 45 5f be
       -0.8118696 0.014436299 0.07022098 -0.21803929
000280 d8 58 6f 42 db f4 2b be 89 46 2f 42 5e 15 ea bc
       59.83676 -0.16792624 43.818882 -0.028574642
000290 68 fc 21 bf 84 dd a8 3d 3c 99 9b bd 12 14 de 41
       -0.63275766 0.08245376 -0.075975865 27.7598
0002a0 ff 07 44 3e 75 12 45 bd b3 10 20 bf a7 19 ac 41
       0.19143675 -0.048113305 -0.6252548 21.512526
0002b0 e3 ab d2 3d c8 37 a5 3e 72 5a f6 bc 60 18 c4 3c
       0.10286691 0.3226912 -0.030072425 0.023937404
0002c0 08 65 4b be 31 44 1e bf 94 cd d4 bc 84 7f b3 40
       -0.19862759 -0.618228 -0.025976934 5.609316
0002d0 d7 5a 5f bf 05 fa 26 3f 86 d8 a5 be 0a ff b4 3f
       -0.87247986 0.6522525 -0.32391757 1.4140332
0002e0 a2 f1 f1 be bb 04 be 40 99 59 24 bf 11 bd 66 3c
       -0.47254664 5.9380774 -0.64199215 0.014083163
0002f0 ad 25 b3 bd b0 ba a6 be 68 7e 4b bf 6d 6d 02 41
       -0.087474205 -0.32564306 -0.79489756 8.151715
000300 d9 c8 c5 40 f4 9b 16 be 4a ab 49 41 35 98 56 bb
       6.1807675 -0.14707929 12.604319 -0.003274453
000310 35 40 dc bf 53 e0 a7 bd 6e e8 0c be 2e 0f 49 42
       -1.7207094 -0.08197083 -0.1376054 50.264824
000320 ca ec 10 bd 94 6f 5c 3d 58 a6 d6 bd fa 49 15 41
       -0.03538207 0.053817347 -0.10480946 9.330561
000330 e9 8a 81 bd 73 d4 31 bd eb 14 b7 bd 85 3d 9a 3b
       -0.06325323 -0.043415498 -0.08939537 0.0047070407
000340 a0 a2 78 bf d5 80 9c be 1c 01 09 bd 41 00 cd 40
       -0.97123146 -0.3056704 -0.033448324 6.406281
000350 82 70 34 bf cd 04 0e bd ab e3 97 bc 09 74 0e 3f
       -0.70484173 -0.034672547 -0.018541178 0.55645806
000360 2f c8 02 bf a7 27 88 3e 31 1a 0b bf e1 04 02 3b
       -0.51086706 0.26592752 -0.5433684 0.0019839334
000370 6c ee 4c be 2d 5d c8 bf 96 98 ed bf 99 6e 5d 41
       -0.20012826 -1.5653435 -1.856219 13.839501
000380 2a 66 85 c2 bb 5d 15 bf ce 92 16 c2 04 25 06 3e
       -66.69954 -0.58346146 -37.643364 0.13100058
000390 d3 90 35 bf f7 bc 97 3d 33 9a 69 be 83 76 df c0
       -0.7092411 0.07409089 -0.22812729 -6.983217
0003a0 5c e7 2d be a5 45 92 be 5f 04 95 be 7d d9 ce c0
       -0.16982788 -0.2856876 -0.29104897 -6.464049
0003b0 fe 4d d6 bd 9c 06 2e 3d 9c 5b c1 be 90 0d 18 3f
       -0.104640946 0.042486772 -0.37765205 0.59395695
0003c0 be 2a b9 3f 83 20 95 3e 8f 5a 1e 3f d4 fe 40 c2
       1.4466169 0.29126367 0.6185693 -48.248856
0003d0 0a 38 41 3f ab d8 53 be 6b 15 14 bf 81 99 8d bf
       0.75476134 -0.20688121 -0.5784518 -1.1062471
0003e0 ed db aa 3e 79 af 64 be 03 8a 94 3e f1 62 6c 3e
       0.33370915 -0.22332563 0.29011545 0.23084618
0003f0 56 c1 0b bf 84 7f e0 be 07 d8 3d be 84 8a 41 bf
       -0.5459188 -0.43847287 -0.18539439 -0.75601983

fc2.bias f4 [32]
000000 c6 08 3e c0 9d 23 05 c0 cb ca 26 c0 4c 9e 96 bf
       -2.9692855 -2.0802987 -2.6061275 -1.1767058
000010 f4 64 9d 3f 8c 3b 07 3e 8d 53 93 bf b0 6d d4 be
       1.2296433 0.13206309 -1.1509873 -0.41489935
000020 1a bf 05 c0 12 6c 04 c0 b9 2b ef bf 28 f3 0c 40
       -2.089789 -2.069096 -1.8685218 2.202341
000030 a0 7c 1d bf 21 12 99 bf bf 59 11 c0 5a 56 8d c0
       -0.6151829 -1.1958658 -2.2711027 -4.416791
000040 1a 72 e6 bf 6c c4 19 3f ca 9a 13 40 d0 29 f8 bf
       -1.8003571 0.6006534 2.3063226 -1.938776
000050 32 cb 0b c0 71 6e 10 c0 04 c3 3c c0 c3 42 83 3f
       -2.184277 -2.2567408 -2.9494028 1.0254749
000060 b5 de cd 3d 80 b5 37 c0 73 58 00 bf 9e a4 c0 bf
       0.100522436 -2.870453 -0.5013496 -1.5050237
000070 09 0c 9e 3f 2f 93 22 c0 30 33 c0 bf 42 93 c0 bf
       1.2347423 -2.5402334 -1.5015621 -1.504494

fc3.weight f4 [32, 32]
000000 c4 61 2b c0 de 82 27 c0 90 97 cd bc 0b ff 80 bf
       -2.6778421 -2.6173625 -0.025096685 -1.0077833
000010 41 5e 57 bf 50 b0 c2 bf 31 58 e1 bf 62 1f 26 bf
       -0.84128195 -1.5210056 -1.7605039 -0.64891636
000020 e2 8e 81 40 b9 df 7a 3f 19 99 e6 3d 2e ce 0e c1
       4.0486917 0.97997624 0.1125967 -8.925337
000030 c9 f5 cd bd eb 63 41 bf 1a 09 40 bf 46 f2 24 be
       -0.100566454 -0.7554309 -0.7501389 -0.16108045
000040 9f e3 49 be a6 5b 55 bf 9f 98 81 bf 8a f4 15 bf
       -0.19715737 -0.8334297 -1.0124701 -0.5857626
000050 76 d5 03 be cb e7 ac be 76 e3 03 3e b5 50 15 c0
       -0.12874398 -0.33770594 0.12879738 -2.333051
000060 bd 06 ed bf 81 13 62 bf 43 12 0f be f9 c7 98 3f
       -1.8517681 -0.8831101 -0.1397181 1.1936027
000070 51 20 83 bf 30 47 6f bf b4 1e d3 3e 94 89 75 3e
       -1.0244237 -0.93468 0.41234362 0.23978263
000080 d0 e4 13 c0 9d da 26 c0 f5 0f 88 be cd e2 3e bf
       -2.3108406 -2.607093 -0.26574674 -0.7456482
000090 d9 ad 1f c0 75 84 14 c0 93 bb e8 bf f7 3b 93 be
       -2.4949858 -2.3205845 -1.8182243 -0.28756687
0000a0 2a 7c 81 3f a4 f4 d1 be 96 8e e9 3e 67 11 0c c1
       1.0116017 -0.41006958 0.45616597 -8.754249
0000b0 61 bc d9 3c 5d c8 c2 bf 0b c8 9a bf b7 82 b4 3c
       0.026579084 -1.5217396 -1.2092298 0.022034986
0000c0 8f 94 8c 3f 5c 1f cf bf 5d 6a 1e c0 4c ac b7 be
       1.0982836 -1.6181445 -2.475242 -0.3587364
0000d0 70 a9 16 be 4d aa 9d be ba a4 36 bd ba 61 27 c0
       -0.14713073 -0.30793992 -0.04459069 -2.6153398
0000e0 e2 b0 0b c0 a6 4c 03 be 7e 90 c5 bf b6 1f 07 3f
       -2.182671 -0.12822208 -1.543472 0.5278276
0000f0 dc 7e d1 bf 9f 30 ee bf d0 4b 34 be 74 6e 0d 3f
       -1.636684 -1.8608588 -0.17607045 0.55246663
000100 99 fd d9 bf 9b cc 8d bf 1a 94 85 3e 8e 6b c5 bf
       -1.7030517 -1.1078066 0.26089555 -1.5423448
000110 a8 6b cc bf 74 49 4a c0 0f d9 32 c0 2e d9 73 be
       -1.5970354 -3.1607332 -2.7944982 -0.23813316
000120 34 95 1c bf 84 94 eb be cb 2c 86 be 67 d9 e6 bf
       -0.61165166 -0.46011746 -0.2620605 -1.8035096
000130 18 f7 87 bd 67 a0 a6 bf 24 97 95 3f 87 9c f3 be
       -0.06638926 -1.3017701 1.168675 -0.47580358
000140 b0 c3 c9 bd 7d 93 38 bf 2f 2e 90 c0 db 30 ca 3e
       -0.098517776 -0.7210005 -4.5056376 0.394904
000150 17 fe bf be e4 74 8c be 81 a8 69 be 36 29 62 bf
       -0.37498543 -0.2743293 -0.22818185 -0.8834413
000160 5c 6d 8a bf 01 1f 10 3e b3 4b cb bf ce 23 e1 be
       -1.0814624 0.14074327 -1.5882477 -0.4397263
000170 23 f5 10 c0 d6 d4 e1 bf 76 9d d7 bb e5 70 c8 bd
       -2.264962 -1.7643077 -0.00658005 -0.09787158
000180 3e 89 52 c0 19 aa 53 c0 0f 83 74 bf 3c 87 b5 bd
       -3.2896266 -3.307257 -0.9551248 -0.088636845
000190 a9 7e 32 c0 68 78 9a bf 9d 49 b5 bf 88 b2 e0 be
       -2.7889807 -1.2067995 -1.416309 -0.4388621
0001a0 7c b6 30 3f 08 5f aa bf 6a 5a 3a bf 13 90 08 c1
       0.6902845 -1.3310251 -0.7279421 -8.535174
0001b0 a0 ee 43 bf fc 08 46 bf 7a 50 ae bf 56 d9 d2 be
       -0.7653599 -0.7735746 -1.361831 -0.4118144
0001c0 26 60 83 be f9 94 83 bf 38 bf bd bf dd f4 b0 be
       -0.25659293 -1.0279838 -1.482398 -0.34561816
0001d0 47 43 6c bf a6 1f 44 bf a0 06 d4 3d 3c 7d 23 c0
       -0.9229016 -0.7661079 0.10352826 -2.5545187
0001e0 a7 92 09 c0 0e f0 97 be 6f e0 36 bf 8c d5 82 be
       -2.149576 -0.29675335 -0.7143621 -0.25553548
0001f0 ca c5 78 bf cf 3f d3 bf c4 01 d6 be f7 f8 8e bf
       -0.971768 -1.6503848 -0.41798222 -1.1169728
000200 6b 7a c7 bf 22 09 cb bf 2c c9 01 bf 14 e8 c6 bf
       -1.5584234 -1.5862162 -0.5069759 -1.5539575
000210 4e c8 94 bf f8 4c 0f c0 7b 0d d1 bf 35 63 33 3e
       -1.1623628 -2.2390728 -1.6332239 0.17518313
000220 63 63 e5 3f 6e ea d8 bd 32 a0 88 3f c2 0a d9 c0
       1.7920955 -0.10591589 1.0673888 -6.782563
000230 fe de db 3c 4a c2 35 40 0d 00 59 bf a1 6d 16 bf
       0.02683973 2.8399835 -0.847657 -0.5876103
000240 01 9f 78 3f 83 59 24 bf 7b b4 0f c0 4f d4 00 be
       0.9711762 -0.64199084 -2.2453907 -0.1258099
000250 a2 d4 ce be e5 b1 45 bd fa ca 92 bf 08 31 40 c1
       -0.403966 -0.048265357 -1.1468194 -12.0119705
000260 e5 22 be c0 f0 76 a0 bf 28 d3 08 3d 96 45 bf 3f
       -5.9417596 -1.2536297 0.0334045 1.4943111
000270 95 93 0b c0 e2 dd 39 c0 d6 76 c3 3f bc ce 06 40
       -2.1808827 -2.9041677 1.5270641 2.106368
000280 bf b8 06 c0 c7 e3 10 c0 87 56 e5 be 8f 6b 80 bf
       -2.105026 -2.2639024 -0.44792578 -1.0032824
000290 b4 fa 06 c0 cd 15 16 c0 36 bf 14 c0 1c 03 65 3c
       -2.1090517 -2.3450806 -2.3241706 0.013977792
0002a0 dc 95 4b 3f 91 fa ba 3e 26 00 ae be 03 ea e2 c0
       0.7952554 0.36519292 -0.33984488 -7.091066
0002b0 b9 d4 08 bf cc c4 b3 bf d6 d4 36 bf cb 4f af be
       -0.5344959 -1.4044433 -0.7141851 -0.34240565
0002c0 95 78 53 be 4e ad 13 c0 7b ff 14 c0 79 16 95 be
       -0.20651467 -2.3074527 -2.3280933 -0.29118708
0002d0 c3 0a 46 be 36 3f 04 bf 8b 37 ff be 4c 2a fd bf
       -0.19340043 -0.5165895 -0.49847063 -1.9778533
0002e0 9f 79 ed bf 0f 80 e7 be 26 fd 5b bf c1 6f b6 3e
       -1.8552741 -0.45214888 -0.8593315 0.35632136
0002f0 0a d1 0b c0 c1 1b 4f bf d7 0c a6 be 47 e9 8b be
       -2.1846337 -0.80901724 -0.3243167 -0.27326414
000300 b1 62 99 bf 5e 78 0d c1 88 80 0b 40 89 fd 4b 3e
       -1.1983243 -8.8418865 2.17972 0.19920935
000310 f3 77 f4 bf e6 2d 26 bc 7b c5 eb bc e6 65 1e bf
       -1.9099106 -0.010142779 -0.02878069 -0.61874235
000320 0b 1b d6 3d 28 90 ae 40 9b d7 c6 be 0a be 11 3f
       0.10454377 5.455097 -0.3883637 0.569306
000330 12 29 94 3e 9c b0 b0 bd 1b 29 5d c0 4e fe de 41
       0.28937584 -0.086274356 -3.4556339 27.874172
000340 d3 fa e2 3d 9a 2e b5 3f 25 8d fc 3d 1b 50 fa 3f
       0.11082997 1.4154847 0.12331609 1.9555696
000350 98 20 b4 40 00 aa 64 40 c8 e5 83 41 b8 67 3f 3d
       5.6289787 3.572876 16.487198 0.046729773
000360 34 41 27 3d 99 53 88 40 30 eb 49 bc 7c 2c 69 3f
       0.040833667 4.260205 -0.0123241395 0.910835
000370 b8 63 a8 3f 8f a9 55 be 14 76 de 3d 40 51 25 bf
       1.3155432 -0.20865463 0.10862365 -0.645771
000380 4d 31 65 3f 2a 5c e1 3e bc fe f0 3b 81 d3 21 41
       0.8952835 0.44015628 0.0073545855 10.114137
000390 46 1a 59 bf 9e 76 02 c1 17 24 a0 c1 bb 4a 7f 41
       -0.84805715 -8.153959 -20.017622 15.955745
0003a0 81 a9 26 bf 20 00 10 bf 2f ad 05 bf 55 b0 a8 bf
       -0.6510239 -0.5625019 -0.5221738 -1.3178812
0003b0 65 ab bd be 69 e9 1d c1 f7 66 62 3d 6c a9 70 3f
       -0.37044826 -9.869485 0.055273976 0.9400852
0003c0 e8 02 a9 bf a5 c3 a4 bf d8 fe fb bf b9 1d a3 be
       -1.3204012 -1.2872206 -1.9687147 -0.31858614
0003d0 c9 53 1d bf cc 34 1f bf 51 6b 96 be 59 77 15 3f
       -0.6145597 -0.62189937 -0.2937875 0.58385235
0003e0 2d c4 96 bf 1c 08 89 3e 29 19 ec bf 4b 3b b5 bf
       -1.1778618 0.26764 -1.8445178 -1.415872
0003f0 b8 53 61 3e cc b8 05 3f ed a1 1c be 6f 1e 3b be
       0.22004592 0.522351 -0.15296145 -0.18273328

fc3.bias f4 [32]
000000 75 63 d7 bf f3 ec 29 c0 7e ff ce bf c9 e2 f9 bf
       -1.6827227 -2.6550872 -1.617172 -1.9522334
000010 91 34 28 c0 d4 19 1b c0 f2 de 81 be 4d da d9 bf
       -2.6282084 -2.4234514 -0.25365406 -1.7019745
000020 16 8c 0c c0 74 7d f3 bf 71 84 0e be 8d 1b 37 bf
       -2.1960502 -1.902266 -0.1391771 -0.71526414
000030 59 21 96 bf de 41 90 bf 72 9a 07 c0 ee ef a5 bf
       -1.1728927 -1.1270101 -2.1188016 -1.2963846
000040 77 7e dd bf 29 2f c2 bf 2d 9e 5d bf c1 05 00 c0
       -1.7304219 -1.5170642 -0.8656948 -2.0003512
000050 4e 9f 98 bf e2 53 a6 bf fe a3 97 bf a7 88 22 c0
       -1.1923616 -1.2994349 -1.1846921 -2.5395906
000060 7f 7c 8b bf 35 b9 2b bf 95 75 7c bf 74 bb 47 be
       -1.0897368 -0.6707948 -0.98616916 -0.19505101
000070 59 c6 01 c0 b5 8e cf bf a0 23 f4 bf 2e 0d 43 be
       -2.0277312 -1.6215426 -1.9073372 -0.19047996

fc4.weight f4 [20, 32]
000000 3f a2 62 40 7b cb 31 40 64 be ef bf 40 9f 87 40
       3.5411527 2.7780445 -1.8729978 4.2381897
000010 66 78 b8 3f f7 09 be 3f 48 d8 88 40 10 36 0f c1
       1.4411743 1.4846791 4.2764015 -8.950699
000020 a3 ba 52 40 7c 0e b9 3f 64 df f2 bf 64 6f 9e c0
       3.2926414 1.4457545 -1.8974423 -4.9510975
000030 97 ae 1f c1 61 2c 98 3e 7b 93 e2 bf 37 07 bc c0
       -9.980124 0.29721358 -1.7701257 -5.8758807
000040 ad f1 1c c0 60 b8 23 41 47 d5 90 c0 86 bf 15 3f
       -2.4522507 10.232513 -4.526035 0.58495367
000050 f0 03 93 40 70 bb c6 c0 38 cf e2 c0 3a ae d3 3f
       4.5942307 -6.2103806 -7.0877953 1.6537545
000060 53 9e fd c0 df 1f bf c0 a0 02 bc c0 d5 74 7e c0
       -7.9255767 -5.9726405 -5.8753204 -3.9758809
000070 26 b3 eb 3f c4 eb df c0 3d f9 27 c0 8f d5 21 40
       1.8414047 -6.99753 -2.6245873 2.5286596
000080 7d 6c 7a 40 2f dd 6b 40 3e ca c2 bf ba f8 f0 3f
       3.9128716 3.685375 -1.521797 1.8825905
000090 31 c9 11 40 48 b8 b2 3f ce 63 85 be cd ff 1a c1
       2.2779047 1.3962488 -0.26052707 -9.687451
0000a0 e5 19 15 40 7c e6 05 40 b3 76 18 3e f7 b5 2d c0
       2.3297055 2.0921926 0.1488903 -2.7142313
0000b0 1b a6 1f c1 00 21 eb 3f 67 77 ab 3f 90 0c b1 c0
       -9.978053 1.8369446 1.3395814 -5.5327835
0000c0 19 74 a2 bf 85 91 08 c0 0c b1 b5 c0 fa 1c 0d 40
       -1.269168 -2.1338818 -5.677862 2.2048936
0000d0 d2 75 66 40 18 6a 6b 3f 5c 36 22 c1 73 87 7e 40
       3.6009412 0.9195876 -10.138271 3.9770172
0000e0 fc 00 da 3f c1 0e 26 40 e4 5e ca bf 60 00 7b c0
       1.703155 2.5946505 -1.5810208 -3.921898
0000f0 ce 10 23 40 85 bf 2c c1 81 be 21 c0 07 cc 21 40
       2.5479007 -10.796758 -2.5272524 2.5280778
000100 13 00 af 3f c2 aa ed 3f b6 c8 35 be fb fd 3f 3f
       1.3671898 1.8567736 -0.17752346 0.7499692
000110 32 04 c8 3f 66 d7 c7 be 17 77 36 c0 cb 45 46 c0
       1.562628 -0.39031523 -2.8510187 -3.0980098
000120 f7 d2 21 3e f8 04 1d be ff 74 a2 3f 96 08 4d c0
       0.15803133 -0.15333927 1.2691954 -3.203649
000130 15 a2 84 bf d8 c2 00 3c c5 99 0e 40 3c 4f 26 c0
       -1.0361964 0.007858954 2.2281353 -2.598586
000140 33 d3 48 bf db bd 02 c1 b8 ff 65 c0 74 fb ce 3f
       -0.78447264 -8.171351 -3.5937328 1.6170487
000150 db ed 35 3f d4 e4 6e 40 b1 47 84 c0 13 a8 9e 3f
       0.71066064 3.7327166 -4.1337514 1.2395042
000160 7d 8a b4 40 0d 23 a3 40 2b cb a8 3f 79 33 a7 bf
       5.6419053 5.0980287 1.3187002 -1.3062583
000170 b2 a0 14 3f c5 a5 af c0 83 29 03 c0 4d be 5e 3f
       0.580577 -5.4889855 -2.0494087 0.87009126
000180 d7 a0 73 bf a7 84 dd bf 7f ef d2 3d 63 ec 05 c0
       -0.951673 -1.7306107 0.102995865 -2.092553
000190 67 c2 93 bd 90 0f 17 be 2f 69 22 c0 27 90 1e 40
       -0.07214814 -0.1475203 -2.53767 2.4775484
0001a0 55 13 50 bf 7d 4f d1 bf da 8f 91 3f e6 42 93 bf
       -0.812795 -1.6352383 1.1372025 -1.1504791
0001b0 44 f1 47 40 de 00 7c bf de 31 00 40 72 cb ba 3f
       3.1241007 -0.98438823 2.0030437 1.4593337
0001c0 ca c3 a2 3e e1 48 ba c0 49 98 fa be 12 8b 7b bf
       0.3179 -5.8213964 -0.4894431 -0.9825908
0001d0 17 20 33 c0 cd 19 4e 40 37 11 0a 40 71 06 65 bf
       -2.7988336 3.2203248 2.1573007 -0.89462954
0001e0 92 16 a9 40 47 56 9a 40 1e eb 11 40 9c 53 90 3f
       5.284005 4.823032 2.2799754 1.1275516
0001f0 ca da 13 bf e8 34 4e 40 9c b4 b7 be 43 30 34 bf
       -0.5775572 3.2219791 -0.35879982 -0.7038614
000200 e4 44 25 c0 25 4b f0 bd e9 3a 0d 3f b1 5a 12 be
       -2.5823298 -0.11733083 0.55168015 -0.14292409
000210 0a d2 ba bd e8 43 d6 3e 34 31 31 bf 5f bf 80 40
       -0.09122093 0.41848683 -0.69215703 4.0233607
000220 5d 05 87 3f 5c c5 2d bf 61 35 98 3e ba 44 81 3c
       1.0548512 -0.6787927 0.29728225 0.015779842
000230 8e 17 80 40 a1 c0 24 3e 40 55 38 bf a6 46 89 40
       4.0028753 0.16089107 -0.7200508 4.289874
000240 62 a5 56 3e 50 05 92 be ad 3d 5b 40 01 20 82 bf
       0.20961526 -0.28519678 3.4256394 -1.0166017
000250 75 d0 e2 bf ed 88 ad 3f ca ec 81 40 2e 58 f7 bf
       -1.7719866 1.3557411 4.060155 -1.9323785
000260 ef 2b 9b 3f 15 e2 a9 3f fb e6 f4 3f 55 b8 ee 3f
       1.2122782 1.327212 1.913299 1.8650004
000270 30 62 3f 3e 96 e3 de 40 7c 0a 7b 3f f4 60 9a bf
       0.186898 6.9652815 0.9806287 -1.2060838
000280 c6 c3 65 be fa 43 c3 bf 7a d5 b8 be 33 3c 0a bd
       -0.22437963 -1.525512 -0.3610037 -0.033748817
000290 3c cf 1a bf 3b ff a9 3d 61 c7 60 3f 21 d8 55 40
       -0.60472465 0.083006345 0.8780423 3.3413165
0002a0 95 7b e4 bf 81 b2 11 bf 2f 5d d2 be c6 3d 53 3e
       -1.7850214 -0.56913 -0.41086718 0.20629033
0002b0 5d bc dd 3f df 59 f6 3d 1f 8d bd 3d 72 6d 02 40
       1.7323109 0.1202886 0.09255432 2.03793
0002c0 af 85 ac be de dd 57 40 28 cd ba bd c0 c2 8e bf
       -0.33695742 3.3729167 -0.09121162 -1.1153183
0002d0 97 27 6b bf 79 5b 97 bf 64 cc b8 3f 0e 5c 69 3f
       -0.91857284 -1.182479 1.4437375 0.9115609
0002e0 55 6b f8 bf a2 f5 1f c0 82 72 ae 3f 20 aa 8b 3f
       -1.9407755 -2.4993672 1.3628695 1.0911293
0002f0 70 f2 a1 bf 92 5f 50 40 b8 89 1c 3f 2e 43 32 bf
       -1.2652111 3.2558331 0.6114764 -0.6963376
000300 eb 64 7c 3f e5 2f 33 bf e9 ed 5d 3e 82 e2 12 3f
       0.9859149 -0.69994956 0.21672787 0.57376873
000310 78 c9 ab be 3c 57 74 3f 99 2c a2 3f a8 af 6f bf
       -0.33552146 0.9544561 1.266986 -0.93627405
000320 75 f9 89 be 22 8b 62 3d 18 0f 0b bf fa bd 8b bf
       -0.26948133 0.05530847 -0.54319906 -1.0917351
000330 64 4f 95 bf 5f 37 4e 3d 29 97 99 3d 64 ab 93 3e
       -1.1664853 0.050345775 0.07499535 0.28841698
000340 03 b0 86 3d 7b ec 39 40 bf 8f b2 bf 01 32 58 3e
       0.0657654 2.9050586 -1.3950118 0.21112825
000350 fa 9d 03 40 6b 0c d9 bf de 9b cb bf 64 ef 5f 3f
       2.0565171 -1.6956915 -1.5906942 0.87474656
000360 40 d7 15 c0 f5 1c ec bf 79 3f b9 bf 23 6e cf bd
       -2.3412628 -1.8446337 -1.4472495 -0.10128429
000370 85 33 85 3f a6 2f ab 3f db 9d e1 be 26 d9 63 3d
       1.0406348 1.3373916 -0.44065747 0.05562701
000380 08 ad 99 3e 8e 28 da be d8 bc d6 be 15 19 af 3f
       0.30014825 -0.42609066 -0.4194095 1.367953
000390 e5 1d 1b 3e ea 6d 23 be d6 c2 28 3f 84 5c 38 c0
       0.15148123 -0.15959898 0.65922296 -2.8806467
0003a0 e5 ca c1 bd 42 52 c1 3f 1e 52 93 be 7f e7 91 bf
       -0.09462527 1.5103228 -0.28773588 -1.1398772
0003b0 77 13 8a c0 b8 d9 5c bf 5e cb d2 3e 90 21 51 bf
       -4.314876 -0.8626971 0.41170782 -0.8169184
0003c0 5b c9 46 bf 97 71 38 3f a4 30 50 40 aa 55 ac be
       -0.77650994 0.72048324 3.2529688 -0.33659106
0003d0 1b 62 a9 3e 4c e3 35 c0 cf fd 26 c0 37 df 3b 3f
       0.3308266 -2.841998 -2.6092412 0.73387474
0003e0 bc a4 f3 bf bb 7c 49 bf 75 b0 16 be b1 80 40 bf
       -1.9034648 -0.7870595 -0.1471575 -0.7519637
0003f0 14 f1 b9 bf 4b 8d c4 3f 6a 39 4a be b3 ab f8 3e
       -1.4526696 1.5355619 -0.19748464 0.48568496

fc4.bias f4 [20]
000000 21 9d 04 bf 51 69 62 3f 7c 52 94 3f 5c ab 0f 3f
       -0.5180226 0.8844195 1.1587672 0.5612085
000010 c7 88 28 be 10 fd fe be 86 88 c1 be a9 05 52 bd
       -0.16458426 -0.49802446 -0.37799472 -0.05127493
000020 a5 34 30 3e d7 48 4e 3e 14 bc a7 3d be 24 2b bd
       0.17207582 0.20144974 0.0819017 -0.041783087
000030 a2 ac c2 bd a1 8d 7d bd e8 00 b5 3a 12 9b 0c 3d
       -0.09505583 -0.061902646 0.0013809474 0.034327574
000040 4b 37 05 3d 08 4f 4d 3c 43 fd 32 bc c5 d8 4f bc
       0.032523435 0.01253105 -0.01092464 -0.012685959
