transfer/dampedSpring/data/transfer_finetuning/k(1.1)_model_weights.pth (torch, 13651 bytes, 8 tensors)

fc1.weight f4 [32, 2]
-0.023359198 2.4142034 0.37054187 0.0023236147 -0.3082229 0.19042642 -3.0395486 -0.3827496
0.013103165 -3.0489118 -0.7098286 -0.08562274 0.48171937 -0.014902809 -0.044620052 3.237406
-0.56203324 0.07122678 -2.6402214 -0.32669443 0.6741903 -0.020385412 -0.32525882 0.4098758
-0.5348609 -0.008468232 -0.5565946 0.101900436 2.7771666 0.424248 2.5791626 0.368591
0.12182809 -0.35263202 0.51542425 -0.52193624 -2.62107 -0.36382198 -0.056191474 2.6526308
0.17468528 -0.643997 -0.7635291 -0.112616815 0.59113955 0.110432684 -0.26273116 -0.06366359
-0.038598053 -0.45922208 0.46205756 0.5579673 0.26662663 -0.729079 -2.881368 -0.363928
0.60453063 0.16367993 0.06477719 -2.9138725 0.1401133 -3.8749268 -0.14260374 2.2030747
00000000: ca5b bfbc 4f82 1a40 aab7 bd3e c947 183b
00000010: 64cf 9dbe 25ff 423e f787 42c0 c1f7 c3be
00000020: a8ae 563c 5f21 43c0 54b7 35bf fa5a afbd
00000030: eca3 f63e e92a 74bc 84c3 36bd a931 4f40
00000040: 69e1 0fbf 59df 913d 63f9 28c0 7e44 a7be
00000050: bc97 2c3f 4fff a6bc 5388 a6be 3edb d13e
00000060: a5ec 08bf 57be 0abc fc7c 0ebf 2db1 d03d
00000070: 19bd 3140 0937 d93e 0011 2540 f6b7 bc3e
00000080: 0181 f93d 2f8c b4be d8f2 033f 9d9d 05bf
00000090: 9cbf 27c0 e046 babe 0829 66bd b4c4 2940
000000a0: b3e0 323e fddc 24bf a576 43bf a5a3 e6bd
000000b0: ec54 173f 882a e23d b384 86be 0e62 82bd
000000c0: fe18 1ebd 281f ebbe cf92 ec3e f2d6 0e3f
000000d0: 4983 883e eca4 3abf 5568 38c0 c554 babe
000000e0: 85c2 1a3f b69b 273e e7a9 843d e37c 3ac0
000000f0: dc79 0f3e cdfe 77c0 b706 12be 2dff 0c40

fc1.bias f4 [32]
4.7992644 -13.45454 -7.880562 -2.334989 12.032534 -13.836633 -13.642574 1.5098605
-13.688712 3.6445994 -13.522849 -13.222804 -13.557161 -13.68705 -12.548679 6.5090117
-14.112829 -13.578801 -12.670961 10.745483 -13.995136 -14.315864 -13.03199 -13.431227
-13.907038 -13.562777 -13.799774 8.134926 -13.753017 6.535453 3.5067012 -11.192703
00000000: 9393 9940 cc45 57c1 902d fcc0 7670 15c0
00000010: 4285 4041 d962 5dc1 fc47 5ac1 1c43 c13f
00000020: f704 5bc1 1e41 6940 975d 58c1 9b90 53c1
00000030: 22ea 58c1 28fe 5ac1 64c7 48c1 d349 d040
00000040: 26ce 61c1 c542 59c1 42bc 4ac1 80ed 2b41
00000050: 14ec 5fc1 c70d 65c1 0883 50c1 4ee6 56c1
00000060: 3a83 5ec1 2201 59c1 e0cb 5cc1 a828 0241
00000070: 5c0c 5cc1 6e22 d140 cb6d 6040 5015 33c1

fc2.weight f4 [32, 32]
-0.0028561999 -1.8899266 -0.65502274 5.198672 -0.2146609 5.636793 -2.8751824 0.024208551
2.19171 5.4812083 -4.280621 -0.37926877 1.9160614 1.7970948 -50.041378 -4.0703845
0.39891756 -2.4492183 20.697506 0.006873396 -0.23450866 8.843422 -5.9595046 0.39291048
1.1143643 -2.0492392 0.076858975 0.92577225 -2.182894 0.047550693 0.016645143 -0.35266712
-0.07603536 -0.46667412 0.0016304376 4.8724995 -0.0681988 0.66871536 -0.58793056 -0.0039837672
0.42596757 -0.18185051 -2.5227008 -0.027821567 0.41016456 0.38991672 -35.915268 -3.5765448
0.025441905 -0.015562971 29.267841 -0.0037113328 0.112869665 1.7626232 -3.913723 -0.015924819
0.2224419 -2.1657643 0.20941332 -1.1746815 -0.47872052 0.06960786 0.040955946 -0.20157404
-0.94239515 -0.8383744 -1.0636067 -1.6689225 -2.2649856 -0.7531621 -0.6344293 -0.48535427
-0.7083196 -4.0731006 -0.829849 -1.0059571 -1.0928941 -0.539051 -1.9036738 -2.402427
-1.0639882 -1.1247708 -0.3216914 -1.7438165 -0.7300555 -0.49422836 -1.6516677 -2.5271451
-0.807541 0.66126174 -0.32608518 -5.800373 -0.33007753 -1.2982424 -1.5847468 -0.12575686
-43.69895 -0.32038915 -17.501413 -0.14968176 -0.31025705 -0.8877305 -0.14598621 -22.134966
-0.58392245 -0.15255436 -0.054722983 -13.03298 -0.9841377 -0.88634634 0.032544907 -0.006085405
1.439063 0.054196835 -0.121062614 -17.210232 -0.2168088 -0.7568059 -0.34155396 -4.905777
-0.32877716 -7.387197 -0.24178642 -0.077497154 -0.27135795 -0.23204379 -0.21801738 -5.586757
-0.03473258 -0.6341637 -0.19680011 45.274334 -0.059982806 4.770068 -0.6671233 -0.05002391
-0.12949239 50.26184 -0.7104845 -0.25319266 1.1227584 0.24636391 -5.7084165 0.031378962
1.8307505 -0.44648463 11.374807 -0.01611412 0.48550445 12.825897 -0.337603 -2.7378309
-0.41720098 -1.9866472 -0.20460671 6.0287085 -0.81189954 0.012516573 0.038819354 -0.21870843
59.815285 -0.17705505 43.897396 0.11248295 -0.58406866 0.10920566 -0.09304023 27.762295
0.2119573 0.09910471 -0.6551074 21.515186 0.12644993 0.3405715 -0.11360728 -0.04758459
-0.19156076 -0.6621076 -0.029268557 5.603304 -0.86424065 0.6752896 -0.35269415 1.4247699
-0.44349122 5.936861 -0.6418713 0.10339238 -0.10216418 -0.27695155 -0.74620855 8.151715
6.21507 -0.15083349 12.604105 -0.011706925 -1.7099469 -0.07923037 -0.14140679 50.271534
-0.027973238 0.005950235 -0.101476364 9.33382 -0.057397872 -0.035726465 0.08174177 -0.010790753
-0.9655437 -0.29312733 -0.019154489 6.464582 -0.6960041 -0.033482704 -0.01752376 0.5594674
-0.50825685 0.2643485 -0.5317825 -0.017509555 -0.20312229 -1.5456637 -1.8386327 13.83963
-66.72588 -0.5837301 -37.65938 0.0929633 -0.7574547 0.07105348 -0.2284208 -6.98331
-0.17111288 -0.32435444 -0.29151645 -6.4641223 -0.10626726 0.04146485 -0.39401162 0.5614757
1.4456098 0.28913343 0.61654466 -48.287884 0.7517845 -0.20946954 -0.57883024 -1.1066875
0.33148596 -0.22335291 0.2859783 0.18998103 -0.5461086 -0.48669112 -0.23361033 -0.75601983
00000000: 152f 3bbb 1de9 f1bf 92af 27bf 855b a640
00000010: 11d0 5bbe 9c60 b440 fd02 38c0 0351 c63c
00000020: fa44 0c40 0f66 af40 d9fa 88c0 842f c2be
00000030: 8041 f53f 3407 e63f 5f2a 48c2 9740 82c0
00000040: ec3e cc3e febf 1cc0 7e94 a541 3a3a e13b
00000050: 0a23 70be a87e 0d41 43b4 bec0 902b c93e
00000060: 7da3 8e3f bc26 03c0 3d68 9d3d 69ff 6c3f
00000070: 89b4 0bc0 84c4 423d 655b 883c c990 b4be
00000080: 6db8 9bbd e9ef eebe 68b4 d53a 84eb 9b40
00000090: d0ab 8bbd ee30 2b3f 9e82 16bf 438a 82bb
000000a0: 6c18 da3e 0537 3abe ee73 21c0 0eea e3bc
000000b0: 1701 d23e 2aa3 c73e 3ca9 0fc2 1ce6 64c0
000000c0: 8b6b d03c d5fb 7ebc 8a24 ea41 d539 73bb
000000d0: 3628 e73d a39d e13f 707a 7ac0 c474 82bc
000000e0: cfc7 633e e29b 0ac0 7270 563e f75b 96bf
000000f0: db1a f5be 918e 8e3d 6cc1 273d 6d69 4ebe
00000100: cf40 71bf b49f 56bf 4424 88bf 419f d5bf
00000110: 86f5 10c0 3bcf 40bf f569 22bf 5b80 f8be
00000120: 6f54 35bf d756 82c0 fc70 54bf 34c3 80bf
00000130: f4e3 8bbf 3fff 09bf 95ab f3bf 5dc1 19c0
00000140: c430 88bf 7df8 8fbf bcb4 a4be 6135 dfbf
00000150: ebe4 3abf 800b fdbe d969 d3bf bfbc 21c0
00000160: 02bb 4ebf 7348 293f a3f4 a6be a89c b9c0
00000170: ecff a8be cf2c a6bf fcd8 cabf 68c6 00be
00000180: bacb 2ec2 0c0a a4be e502 8cc1 2d46 19be
00000190: 03da 9ebe 4e42 63bf 697d 15be 6914 b1c1
000001a0: f17b 15bf 3637 1cbe 3525 60bd 1687 50c1
000001b0: 73f0 7bbf 98e7 62bf cf4d 053d 1468 c7bb
000001c0: 3733 b83f 80fd 5d3d adef f7bd 8eae 89c1
000001d0: 2003 5ebe 08be 41bf 29e0 aebe 20fc 9cc0
000001e0: 7b55 a8be eb63 ecc0 dc96 77be d4b6 9ebd
000001f0: 6eef 8abe e39c 6dbe f33f 5fbe b7c6 b2c0
00000200: c043 0ebd 8d58 22bf f885 49be eb18 3542
00000210: 88b0 75bd 66a4 9840 98c8 2abf dfe5 4cbd
00000220: a799 04be 200c 4942 50e2 35bf 78a2 81be
00000230: 8cb6 8f3f d246 7c3e 59ab b6c0 3a87 003d
00000240: 0856 ea3f a299 e4be 36ff 3541 c201 84bc
00000250: 0a94 f83e e036 4d41 4dda acbe 9f38 2fc0
00000260: 5e9b d5be 754a febf 6c84 51be 2eeb c040
00000270: a6d8 4fbf 5012 4d3c 0b01 1f3d 1af5 5fbe
00000280: da42 6f42 eb4d 35be ef96 2f42 765d e63d
00000290: 8685 15bf 38a7 df3d e08b bebd 2e19 de41
000002a0: 560b 593e 69f7 ca3d 1eb5 27bf 1a1f ac41
000002b0: 177c 013e 635f ae3e efaa e8bd 0fe8 42bd
000002c0: 8128 44be e27f 29bf 9dc4 efbc 444e b340
000002d0: e03e 5dbf c7df 2c3f 5494 b4be dc5e b63f
000002e0: 4811 e3be c4fa bd40 ad51 24bf 62bf d33d
000002f0: 743b d1bd 98cc 8dbe 8607 3fbf 6d6d 0241
00000300: dae1 c640 1874 1abe 6aaa 4941 67ce 3fbc
00000310: 8adf dabf 8843 a2bd f1cc 10be 0d16 4942
00000320: 2228 e5bc 30fa c23b d7d2 cfbd 5457 1541
00000330: 081a 6bbd ea55 12bd 3b68 a73d b3cb 30bc
00000340: df2d 77bf c914 96be e0e9 9cbc dbdd ce40
00000350: 532d 32bf 2925 09bd fd8d 8fbc 4139 0f3f
00000360: 1f1d 02bf b058 873e e622 08bf 3370 8fbc
00000370: 4aff 4fbe 4fd8 c5bf 5158 ebbf 206f 5d41
00000380: a773 85c2 566f 15bf 35a3 16c2 8b63 be3d
00000390: 8de8 41bf 7d84 913d 24e7 69be 4777 dfc0
000003a0: 3738 2fbe c911 a6be a541 95be 17da cec0
000003b0: a6a2 d9bd 0cd7 293d e4bb c9be dfbc 0f3f
000003c0: be09 b93f 4c09 943e dfd5 1d3f cb26 41c2
000003d0: f374 403f 2f7f 56be 382e 14bf f0a7 8dbf
000003e0: 87b8 a93e a0b6 64be bf6b 923e 638a 423e
000003f0: c6cd 0bbf 942f f9be 8c37 6fbe 848a 41bf

fc2.bias f4 [32]
-2.9673262 -2.065189 -2.4272182 -1.2445349 1.2126043 0.1807542 -1.1402247 -0.4631176
-2.1288283 -2.0467691 -1.8754117 2.1320837 -0.80322 -1.217895 -2.219461 -4.4081383
-1.792177 0.60812765 2.3258913 -2.0756106 -2.2570283 -2.3894181 -2.9378295 1.0299685
0.09013577 -2.6369483 -0.52191454 -1.6224236 1.2304307 -2.7512348 -1.4995261 -1.4518594
00000000: ace8 3dc0 0e2c 04c0 8b57 1bc0 eb4c 9fbf
00000010: 9e36 9b3f a117 393e e2f2 91bf c01d edbe
00000020: b93e 08c0 44fe 02c0 7e0d f0bf 0f74 0840
00000030: d39f 4dbf fce3 9bbf a60b 0ec0 780f 8dc0
00000040: 0e66 e5bf 41ae 1b3f 67db 1440 ced6 04c0
00000050: 2773 10c0 3aec 18c0 6605 3cc0 02d6 833f
00000060: 1a99 b83d c3c3 28c0 319c 05bf 94ab cfbf
00000070: c17e 9d3f 3b14 30c0 79f0 bfbf 87d6 b9bf

fc3.weight f4 [32, 32]
-2.677422 -2.617102 -0.025096685 -1.0077819 -0.8609599 -1.5575984 -1.7942827 -0.6489163
4.048681 0.97997606 0.112596534 -8.961914 -0.10056652 -0.7558005 -0.7501388 -0.1618848
-0.19715755 -0.8532402 -1.0490657 -0.585763 -0.12874605 -0.33770657 0.12877087 -2.3339703
-1.8554934 -0.8831101 -0.14672147 1.1936018 -1.0608563 -0.93468 0.4123432 0.2397813
-2.3108406 -2.607093 -0.26574674 -0.7456482 -2.4949996 -2.320682 -1.8183357 -0.28756687
1.0116017 -0.41006958 0.45616597 -8.754269 0.026579084 -1.5217396 -1.2092298 0.022032458
1.0982836 -1.6182028 -2.475339 -0.3587364 -0.14713073 -0.30793992 -0.044590693 -2.6153398
-2.182671 -0.12822208 -1.5434802 0.5278276 -1.636792 -1.8608588 -0.17607045 0.55246663
-1.7197655 -1.1204228 0.26089555 -1.5424402 -1.6105056 -3.1524072 -2.785462 -0.23815383
-0.61165106 -0.46011746 -0.2620605 -1.8053986 -0.06638967 -1.3017495 1.1683677 -0.47563007
-0.098517776 -0.70958686 -4.5075617 0.394904 -0.3749854 -0.2743293 -0.22817749 -0.8913468
-1.0885321 0.14074327 -1.587438 -0.4397263 -2.2548892 -1.7643209 -0.00658005 -0.09787158
-3.2895758 -3.307257 -0.9551248 -0.088636845 -2.7901862 -1.2151344 -1.4240717 -0.4388621
0.69028246 -1.3310251 -0.7279421 -8.543696 -0.7653599 -0.7736346 -1.361831 -0.41224876
-0.25659293 -1.0335435 -1.4908911 -0.34561816 -0.92290187 -0.7661079 0.10351953 -2.5546677
-2.150135 -0.29675335 -0.7155509 -0.25553557 -0.98003334 -1.6503848 -0.41798222 -1.1169728
-1.5585618 -1.5862061 -0.5069759 -1.5539575 -1.1643968 -2.2428386 -1.6369815 0.17518313
1.7920933 -0.10591589 1.0673888 -6.7863584 0.02683973 2.8399217 -0.847657 -0.587678
0.9711762 -0.6438694 -2.2491565 -0.1258099 -0.40396625 -0.048265412 -1.1468209 -12.0119705
-5.941761 -1.2536297 0.031944945 1.4943111 -2.1846333 -2.9041677 1.5270641 2.106368
-2.105026 -2.2639024 -0.44792578 -1.0032824 -2.109053 -2.3450806 -2.3241706 0.013977792
0.7952554 0.36519292 -0.33984488 -7.091066 -0.5344959 -1.4044433 -0.7141851 -0.3424053
-0.20651467 -2.3074527 -2.328095 -0.29118708 -0.19340043 -0.5165895 -0.49847063 -1.9778551
-1.8552761 -0.45214888 -0.8593325 0.35632136 -2.1846354 -0.80901724 -0.3243167 -0.27326414
-1.1819772 -8.820711 2.3378685 0.21173824 -1.9206809 0.022045849 0.046018254 -0.60912687
0.03179103 5.45484 -0.4118167 0.57497305 0.24842764 -0.118158065 -3.4987094 27.92365
0.083639614 1.4301631 0.12931614 1.9989566 5.6457386 3.6100998 16.531221 -0.0403165
-0.04534989 4.394655 0.07201325 0.8966716 1.320886 -0.18044561 0.08152932 -0.6475951
0.8634783 0.41838026 0.0073473193 10.08897 -0.88526887 -8.223462 -20.072893 15.941737
-0.6510239 -0.5625019 -0.5221738 -1.355323 -0.37928376 -9.869485 0.031851184 0.94060785
-1.3204012 -1.3124676 -2.0127177 -0.31858614 -0.6145597 -0.62189937 -0.29377466 0.5396419
-1.2210573 0.26763508 -1.8445178 -1.415872 0.1478249 0.5074261 -0.15296145 -0.18273328
00000000: e25a 2bc0 997e 27c0 9097 cdbc fffe 80bf
00000010: de67 5cbf 625f c7bf 0eab e5bf 611f 26bf
00000020: cb8e 8140 b6df 7a3f 0399 e63d 0064 0fc1
00000030: d2f5 cdbd 247c 41bf 1909 40bf 21c5 25be
00000040: abe3 49be f36d 5abf c947 86bf 90f4 15bf
00000050: 01d6 03be e0e7 acbe 83dc 033e c55f 15c0
00000060: cf80 edbf 8113 62bf 273e 16be f2c7 983f
00000070: 24ca 87bf 3047 6fbf a61e d33e 3b89 753e
00000080: d0e4 13c0 9dda 26c0 f50f 88be cde2 3ebf
00000090: 13ae 1fc0 0e86 14c0 39bf e8bf f73b 93be
000000a0: 2a7c 813f a4f4 d1be 968e e93e 7c11 0cc1
000000b0: 61bc d93c 5dc8 c2bf 0bc8 9abf 6a7d b43c
000000c0: 8f94 8c3f 4521 cfbf f46b 1ec0 4cac b7be
000000d0: 70a9 16be 4daa 9dbe bba4 36bd ba61 27c0
000000e0: e2b0 0bc0 a64c 03be c290 c5bf b61f 073f
000000f0: 6682 d1bf 9f30 eebf d04b 34be 746e 0d3f
00000100: 4721 dcbf 046a 8fbf 1a94 853e ae6e c5bf
00000110: 0c25 cebf 0ac1 49c0 0245 32c0 99de 73be
00000120: 2a95 1cbf 8494 ebbe cb2c 86be 4d17 e7bf
00000130: 4ff7 87bd ba9f a6bf 138d 953f c985 f3be
00000140: b0c3 c9bd 7ca7 35bf f23d 90c0 db30 ca3e
00000150: 16fe bfbe e474 8cbe 5ca7 69be 4e2f 64bf
00000160: 0555 8bbf 011f 103e 2b31 cbbf ce23 e1be
00000170: 1b50 10c0 44d5 e1bf 769d d7bb e570 c8bd
00000180: 6988 52c0 19aa 53c0 0f83 74bf 3c87 b5bd
00000190: 6992 32c0 8689 9bbf fb47 b6bf 88b2 e0be
000001a0: 5ab6 303f 085f aabf 6a5a 3abf fbb2 08c1
000001b0: a0ee 43bf eb0c 46bf 7a50 aebf 4512 d3be
000001c0: 2660 83be 274b 84bf 85d5 bebf ddf4 b0be
000001d0: 4c43 6cbf a61f 44bf 0c02 d43d ad7f 23c0
000001e0: d09b 09c0 0ef0 97be 582e 37bf 8fd5 82be
000001f0: 77e3 7abf cf3f d3bf c401 d6be f7f8 8ebf
00000200: f47e c7bf cd08 cbbf 2cc9 01bf 14e8 c6bf
00000210: f40a 95bf ab8a 0fc0 9c88 d1bf 3563 333e
00000220: 5063 e53f 6eea d8bd 32a0 883f d929 d9c0
00000230: fede db3c 47c1 3540 0d00 59bf 1172 16bf
00000240: 019f 783f a0d4 24bf 2ef2 0fc0 4fd4 00be
00000250: aad4 cebe f4b1 45bd 07cb 92bf 0831 40c1
00000260: e822 bec0 f076 a0bf b4d8 023d 9645 bf3f
00000270: 08d1 0bc0 e2dd 39c0 d676 c33f bcce 0640
00000280: bfb8 06c0 c7e3 10c0 8756 e5be 8f6b 80bf
00000290: b9fa 06c0 cd15 16c0 36bf 14c0 1c03 653c
000002a0: dc95 4b3f 91fa ba3e 2600 aebe 03ea e2c0
000002b0: b9d4 08bf ccc4 b3bf d6d4 36bf bf4f afbe
000002c0: 9578 53be 4ead 13c0 82ff 14c0 7916 95be
000002d0: c30a 46be 363f 04bf 8b37 ffbe 5b2a fdbf
000002e0: b079 edbf 0f80 e7be 37fd 5bbf c16f b63e
000002f0: 11d1 0bc0 c11b 4fbf d70c a6be 47e9 8bbe
00000300: 074b 97bf a221 0dc1 a39f 1540 e9d1 583e
00000310: dfd8 f5bf 7f99 b43c a37d 3c3d bdef 1bbf
00000320: 5037 023d 0d8e ae40 a3d9 d2be 6f31 133f
00000330: d163 7e3e dbfc f1bd dbea 5fc0 a363 df41
00000340: 3f4b ab3d 960f b73f 736b 043e cfdd ff3f
00000350: e4a9 b440 e00b 6740 f13f 8441 ea22 25bd
00000360: cec0 39bd 04a1 8c40 af7b 933d 458c 653f
00000370: cb12 a93f bcc6 38be d8f8 a63d cbc8 25bf
00000380: ea0c 5d3f f035 d63e c8c1 f03b 6c6c 2141
00000390: fba0 62bf 4d93 03c1 4995 a0c1 5b11 7f41
000003a0: 81a9 26bf 2000 10bf 2fad 05bf 397b adbf
000003b0: 7b31 c2be 69e9 1dc1 6376 023d adcb 703f
000003c0: e802 a9bf f0fe a7bf 5ed0 00c0 b91d a3be
000003d0: c953 1dbf cc34 1fbf a269 96be f925 0a3f
000003e0: 9b4b 9cbf 7707 893e 2919 ecbf 4b3b b5bf
000003f0: 695f 173e ade6 013f eda1 1cbe 6f1e 3bbe

fc3.bias f4 [32]
-1.7193159 -2.6551843 -1.6190611 -1.9607265 -2.6319742 -2.423453 -0.24833865 -1.7394162
-2.1960924 -1.908293 -0.14661147 -0.8016418 -1.3162528 -1.1859485 -2.1158092 -1.4350946
-1.7335093 -1.4797128 -1.0877714 -2.0045226 -1.3143761 -1.3364136 -1.2799939 -2.5397205
-1.039327 -0.5283087 -1.1444567 -0.2158753 -2.0292342 -1.7307959 -1.924601 -0.20508376
00000000: 8b12 dcbf 8aee 29c0 653d cfbf 16f9 fabf
00000010: 4472 28c0 db19 1bc0 7d4c 7ebe 31a5 debf
00000020: c78c 0cc0 f242 f4bf 5121 16be 6638 4dbf
00000030: f97a a8bf 29cd 97bf 6b69 07c0 2eb1 b7bf
00000040: a2e3 ddbf 3b67 bdbf 183c 8bbf 194a 00c0
00000050: 7a3d a8bf 9a0f abbf d7d6 a3bf c88a 22c0
00000060: ab08 85bf 3d3f 07bf 8f7d 92bf 6a0e 5dbe
00000070: f9de 01c0 b88a ddbf 5359 f6bf 7a01 52be

fc4.weight f4 [20, 32]
3.5397384 2.7780445 -1.8657053 4.237908 1.4409984 1.4846779 4.1833606 -8.907733
3.2926414 1.4454027 -1.9256585 -4.841568 -9.928922 0.26455453 -1.7699195 -5.808707
-2.4497406 10.237976 -4.4307756 0.58472806 4.643645 -6.18862 -7.041793 1.6537545
-7.9443545 -6.0579762 -5.8094926 -3.63984 1.8412445 -6.9582486 -2.6230874 2.2569811
3.9091275 3.685375 -1.5171998 1.881315 2.277433 1.3962351 -0.7726685 -9.616415
2.3297055 2.0914574 0.38944075 -2.5588377 -9.885384 1.8206027 1.3405693 -5.4391356
-1.2684948 -2.1763146 -5.490952 2.2045045 3.6153147 0.96444046 -10.06315 3.977017
1.7298998 2.6648004 -1.505723 -3.6100383 2.547377 -10.737722 -2.5245755 2.2335896
1.3628342 1.8567724 -0.16915323 0.7480326 1.5619555 -0.39033854 -3.171131 -3.1049275
0.15802251 -0.15435325 1.4920775 -3.168573 -1.0398273 -0.057674833 2.228745 -2.5793056
-0.78187954 -8.216408 -3.568286 1.6164155 0.62989575 3.785756 -4.159904 1.2395023
5.688298 5.229081 1.3590955 -0.7543758 0.5799062 -5.4761667 -2.04792 0.44866368
-0.95067835 -1.7306107 0.11594195 -2.0916955 -0.07218748 -0.147506 -2.11636 2.4441607
-0.812795 -1.63491 0.9823818 -1.2468358 3.0680263 -0.9816165 2.0029526 1.4192578
0.3234254 -5.707654 -0.5585552 -0.98247963 -2.6691658 3.161258 2.1806846 -0.8946294
5.2592325 4.7644196 2.2041402 1.5757846 -0.57719624 3.1903927 -0.35901842 -0.9794324
-2.5758572 -0.117311485 0.55885464 -0.13923855 -0.09044026 0.41853023 0.19136854 3.9568932
1.0548526 -0.677084 -0.10267956 -0.25699872 3.9136362 0.24469253 -0.7206918 4.1966295
0.21385576 -0.11035151 3.1961362 -1.0156989 -1.4364296 1.2723192 4.081197 -1.9323741
1.15729 1.1792643 1.8175279 1.7392888 0.18823746 6.8914003 0.97802347 -1.0763491
-0.2178958 -1.525511 -0.3696527 -0.031259235 -0.6038228 0.08304436 1.4382023 3.3417952
-1.7850206 -0.5674965 -0.6746062 0.025834017 1.7030455 0.22193603 0.09164969 1.984764
-0.338997 3.4056597 -0.13128649 -1.1142703 -0.91284275 -1.2607918 1.4586204 0.91157013
-1.9991964 -2.6571176 1.2855396 0.45894474 -1.2642771 3.2502685 0.6091588 -0.28750932
0.98668975 -0.69994956 0.20639175 0.57372785 -0.3353218 0.95445555 1.0693257 -0.9714718
-0.26948154 0.05564283 -0.48861963 -1.2544882 -1.205454 0.11387497 0.07454132 0.23596723
0.061968032 2.8300831 -1.4567356 0.21155559 1.9029485 -1.7567564 -1.5885997 0.87474656
-2.390146 -1.9791855 -1.5133777 -0.6764585 1.0406634 1.3097069 -0.4415004 0.41233656
0.29538977 -0.42609668 -0.4279072 1.3652784 0.15092792 -0.15962915 -0.010147829 -2.9160938
-0.094637156 1.5091702 0.002558324 -1.2049607 -4.3194046 -0.9261315 0.41156587 -0.83073527
-0.78042436 0.5391178 3.214866 -0.337143 -0.012287597 -2.8200054 -2.6908054 0.73386985
-1.8901682 -0.7581281 -0.12081696 -0.82621694 -1.4535857 1.5238647 -0.1969041 0.51924896
00000000: 138b 6240 7bcb 3140 6ecf eebf f19c 8740
00000010: a372 b83f ed09 be3f 17de 8540 1386 0ec1
00000020: a3ba 5240 f502 b93f fa7b f6bf 20ee 9ac0
00000030: dddc 1ec1 b173 873e b98c e2bf eee0 b9c0
00000040: 8dc8 1cc0 c0ce 2341 eac8 8dc0 bdb0 153f
00000050: bd98 9440 2d09 c6c0 5e56 e1c0 3aae d33f
00000060: 2738 fec0 f1da c1c0 5de7 b9c0 23f3 68c0
00000070: e6ad eb3f f9a9 dec0 aae0 27c0 6172 1040
00000080: 252f 7a40 2fdd 6b40 9a33 c2bf eece f03f
00000090: 76c1 1140 d5b7 b23f 9acd 45bf d6dc 19c1
000000a0: e519 1540 70da 0540 c764 c73e ffc3 23c0
000000b0: 882a 1ec1 8209 e93f c697 ab3f 660d aec0
000000c0: 0a5e a2bf bd48 0bc0 e1b5 afc0 9a16 0d40
000000d0: 5161 6740 92e5 763f aa02 21c1 7287 7e40
000000e0: 5b6d dd3f 178c 2a40 88bb c0bf de0a 67c0
000000f0: 3a08 2340 b6cd 2bc1 a592 21c0 22f3 0e40
00000100: 5a71 ae3f b8aa ed3f 8136 2dbe 117f 3f3f
00000110: 28ee c73f 74da c7be cff3 4ac0 22b7 46c0
00000120: a7d0 213e c70e 1ebe 65fc be3f e6c9 4ac0
00000130: 1019 85bf 723c 6cbd c2a3 0e40 5813 25c0
00000140: 4229 48bf 6876 03c1 cc5e 64c0 b4e6 ce3f
00000150: d940 213f d449 7240 ef1d 85c0 03a8 9e3f
00000160: 8a06 b640 a254 a740 d7f6 ad3f c61e 41bf
00000170: bc74 143f c23c afc0 1f11 03c0 3fb7 e53e
00000180: a85f 73bf a784 ddbf f972 ed3d 57de 05c0
00000190: 08d7 93bd d00b 17be 7172 07c0 216d 1c40
000001a0: 5513 50bf bb44 d1bf 607d 7b3f 5198 9fbf
000001b0: 8b5a 4440 384b 7bbf 6030 0040 3daa b53f
000001c0: 0498 a53e 1aa5 b6c0 79fd 0ebf c983 7bbf
000001d0: 9dd3 2ac0 0d52 4a40 5690 0b40 6f06 65bf
000001e0: a24b a840 2076 9840 a210 0d40 4fb3 c93f
000001f0: 22c3 13bf 652f 4c40 43d1 b7be 15bc 7abf
00000200: d8da 24c0 0141 f0bd 1911 0f3f 8d94 0ebe
00000210: be38 b9bd 9849 d63e 1df6 433e bd3d 7d40
00000220: 6905 873f 6155 2dbf a949 d2bd 5695 83be
00000230: 0479 7a40 ae90 7a3e 427f 38bf ca4a 8640
00000240: 01fd 5a3e f9ff e1bd 7f8d 4c40 6c02 82bf
00000250: eddc b7bf 5bdb a23f 2a99 8240 0958 f7bf
00000260: 1422 943f 22f2 963f c1a4 e83f 04a1 de3f
00000270: 52c1 403e 5a86 dc40 bf5f 7a3f cfc5 89bf
00000280: 1420 5fbe f243 c3bf 1e43 bdbe af09 00bd
00000290: 2294 1abf 2913 aa3d 0317 b83f f9df 5540
000002a0: 8e7b e4bf 7347 11bf feb2 2cbf dca1 d33c
000002b0: 65fd d93f 3343 633e d5b2 bb3d bf0c fe3f
000002c0: 0491 adbe 54f6 5940 f76f 06be 69a0 8ebf
000002d0: 10b0 69bf a061 a1bf 13b4 ba3f a95c 693f
000002e0: abe5 ffbf 370e 2ac0 908c a43f cefa ea3e
000002f0: d5d3 a1bf 6604 5040 d5f1 1b3f 6c34 93be
00000300: b397 7c3f e52f 33bf 5c58 533e d4df 123f
00000310: 4daf abbe 3357 743f aadf 883f 60b2 78bf
00000320: 7cf9 89be bce9 633d 5a2c fabe 1293 a0bf
00000330: 514c 9abf 4837 e93d 1fa9 983d 65a1 713e
00000340: 31d2 7d3d 1520 3540 5076 babf 07a2 583e
00000350: d193 f33f 65dd e0bf 3c57 cbbf 64ef 5f3f
00000360: 27f8 18c0 f355 fdbf 5cb6 c1bf 622c 2dbf
00000370: 7534 853f 7aa4 a73f 570c e2be c71d d33e
00000380: 543d 973e 5829 dabe a716 dbbe 71c1 ae3f
00000390: d98c 1a3e d375 23be 1443 26bc 48a1 3ac0
000003a0: 20d1 c1bd 7d2c c13f 8ea9 273b 273c 9abf
000003b0: 9038 8ac0 f416 6dbf c3b8 d23e 11ab 54bf
000003c0: e4c9 47bf a003 0a3f 5dc0 4d40 029e acbe
000003d0: eb51 49bc f87a 34c0 2836 2cc0 e5de 3b3f
000003e0: 08f1 f1bf af14 42bf e26e f7bd f482 53bf
000003f0: 190f babf 000e c33f 3aa1 49be 80ed 043f

fc4.bias f4 [20]
-0.65440315 0.9211483 1.1544739 0.3800209 -0.38624197 -0.5433097 -0.21644834 0.15666467
0.25403744 0.11691196 -0.0638908 -0.121815085 -0.05970384 0.023905978 0.06244374 0.027849587
-0.012522663 -0.027907833 -0.018291924 -0.0012867437
00000000: f786 27bf 60d0 6b3f cdc5 933f 1992 c23e
00000010: 82c1 c5be 5816 0bbf a2a4 5dbe b46c 203e
00000020: 3211 823e 8a6f ef3d 2ed9 82bd 307a f9bd
00000030: 048c 74bd 78d6 c33c 02c5 7f3d d124 e43c
00000040: db2b 4dbc f89e e4bc f2d8 95bc f4a7 a8ba
