transfer/dampedSpring/data/transfer_finetuning/m(0.9)_model_weights.pth (torch, 13651 bytes, 8 tensors)

fc1.weight f4 [32, 2]
000000 01 b3 e6 3c 1a e3 18 40 93 99 d3 3e 5f 0f 85 bc
       0.028161528 2.3888612 0.41328105 -0.016242681
000010 9f 79 a3 be 18 ca a4 3d 07 47 3e c0 4e 72 dd be
       -0.31928727 0.08046359 -2.9730852 -0.4325127
000020 77 c4 64 bb 6f 45 3e c0 41 fd 24 bf 4c aa 89 bd
       -0.0034907141 -2.972988 -0.64448935 -0.06721935
000030 07 11 05 3f cb f8 0d bd 6d 32 b9 bb 7d 5a 55 40
       0.51979107 -0.034661096 -0.005651763 3.333648
000040 cb 26 0d bf 31 40 1e 3d 72 42 26 c0 e4 83 b7 be
       -0.5513732 0.038635436 -2.5978055 -0.35842812
000050 c0 7f 12 3f 52 61 98 3d 74 78 aa be 74 4d 8e 3e
       0.5722618 0.074404374 -0.33295023 0.27793467
000060 8f 52 01 bf 57 4c 1b bb 97 1c 05 bf 73 54 68 3d
       -0.505166 -0.0023696625 -0.5199675 0.056721162
000070 08 ad 29 40 06 66 d8 3e d1 83 22 40 10 43 d0 3e
       2.651186 0.42265338 2.5392954 0.40676165
000080 96 fa b2 3d 74 7e 8b be 5b 1c d4 3e 3f 44 be be
       0.08739202 -0.27244914 0.41427884 -0.37161443
000090 ab 66 25 c0 63 20 c9 be b5 b6 b1 bb e8 4d 26 40
       -2.5843914 -0.39282522 -0.0054233917 2.598505
0000a0 d7 22 d0 3d 69 59 ef be 0c 66 3d bf c3 ec 01 be
       0.10162895 -0.46747902 -0.73983836 -0.12687974
0000b0 49 ba 02 3f cc 48 32 3e a9 f6 61 be 6e e8 3b be
       0.510655 0.17410582 -0.2206675 -0.18350384
0000c0 7a 97 df bb 7c 5b c3 be 6e fa de 3e 78 d0 f0 3e
       -0.0068234773 -0.38155735 0.43550438 0.4703405
0000d0 13 c3 22 3e c2 17 0b bf ab c8 33 c0 3d 24 c7 be
       0.15894727 -0.54333127 -2.8091228 -0.38894835
0000e0 eb b8 26 3f b3 72 57 3e c2 88 d4 3c 2f 9a 38 c0
       0.6512591 0.21039848 0.025944117 -2.8844106
0000f0 c8 8d a0 3d bc a4 73 c0 91 a7 de bd 4c c4 08 40
       0.078395426 -3.8069296 -0.108718045 2.136981

fc1.bias f4 [32]
000000 e2 34 9a 40 22 fa 56 c1 b0 d4 f9 c0 48 d0 17 c0
       4.8189554 -13.436068 -7.807213 -2.3720875
000010 f1 7c 41 41 0f e2 5d c1 ca 0d 5a c1 a9 2f c4 3f
       12.093003 -13.86769 -13.628366 1.5327045
000020 1a 1d 5b c1 c9 1b 69 40 a5 2d 59 c1 7b 2d 53 c1
       -13.694605 3.6423209 -13.573644 -13.198604
000030 48 ff 58 c1 1c 43 5b c1 7c e0 4a c1 b8 32 d1 40
       -13.562325 -13.703884 -12.679806 6.5374413
000040 1b 30 62 c1 11 66 5a c1 4c f0 4a c1 01 ac 2c 41
       -14.1367445 -13.649919 -12.683666 10.791993
000050 c8 19 61 c1 7f 72 65 c1 0b ed 50 c1 52 ad 56 c1
       -14.068794 -14.340453 -13.057872 -13.417315
000060 9c e5 5e c1 55 52 59 c1 60 40 5e c1 71 fb 02 41
       -13.931057 -13.582601 -13.890717 8.186387
000070 f9 b7 5b c1 fb 33 d2 40 45 24 68 40 a3 f8 33 c1
       -13.732415 6.5688453 3.6272137 -11.248202

fc2.weight f4 [32, 32]
000000 cb ed 03 3c ff 1e f2 bf 98 b5 27 bf e6 e7 a6 40
       0.0080523 -1.8915709 -0.65511465 5.215808
000010 17 d5 67 be 83 6d b4 40 42 23 38 c0 b4 17 ad 3b
       -0.22639881 5.638368 -2.877152 0.0052823666
000020 44 59 0c 40 81 a5 af 40 a2 07 89 c0 a1 07 c3 be
       2.1929483 5.488953 -4.2821817 -0.38091758
000030 ae 76 f5 3f 07 38 e6 3f d8 24 48 c2 d3 26 82 c0
       1.9176843 1.7985848 -50.03598 -4.0672393
000040 6d f9 ca 3e 76 24 1d c0 bf b7 a5 41 17 50 05 3d
       0.39643422 -2.4553504 20.71472 0.032547083
000050 a4 c2 73 be df 83 0d 41 9c b3 be c0 47 70 c9 3e
       -0.23804718 8.844695 -5.959425 0.39343473
000060 fd 35 8e 3f a8 44 03 c0 58 5b 92 3d 97 ab 6e 3f
       1.1110226 -2.0510654 0.07146329 0.93230575
000070 2c c6 0b c0 68 4c a6 3d 27 23 d4 bc 31 0f b7 be
       -2.1839705 0.08120042 -0.025895668 -0.35753778
000080 8b e8 db bc f6 ee f1 be d6 17 9c bc 84 4d 9b 40
       -0.026844284 -0.47252625 -0.019054335 4.8532124
000090 e5 99 b7 bc c8 27 28 3f 82 79 17 bf a7 d1 c3 3c
       -0.02241225 0.656857 -0.5916978 0.023903681
0000a0 4a 4e d5 3e b2 5f 54 be 9e ae 21 c0 22 a2 3f bd
       0.41661292 -0.2073963 -2.5262828 -0.04678548
0000b0 13 21 cd 3e d7 fb c1 3e 56 bc 0f c2 65 2f 64 c0
       0.40064296 0.3788745 -35.93392 -3.5653927
0000c0 78 79 63 3c 32 b8 c1 bc ab 3d ea 41 ea 63 93 bc
       0.013883941 -0.023647401 29.280111 -0.017991979
0000d0 17 d7 d5 3d 81 a7 e0 3f 35 d6 7a c0 a6 27 eb bc
       0.10441416 1.7551118 -3.9193242 -0.02870543
0000e0 d9 b0 55 3e f8 4e 0b c0 a1 90 4f 3e 34 d8 99 bf
       0.20868243 -2.1766949 0.20270015 -1.2019105
0000f0 70 d9 f6 be 4d 90 3f 3d 58 b5 3a 3d 77 51 49 be
       -0.48212767 0.046768475 0.0455831 -0.19659983
000100 6d 7a a6 bf b4 9f 56 bf ed 42 88 bf d5 a1 d5 bf
       -1.3006111 -0.8383744 -1.0645424 -1.6690012
000110 2c 49 1e c0 3b cf 40 bf f6 69 22 bf 75 34 49 bf
       -2.473216 -0.7531621 -0.63442934 -0.7859567
000120 6f 54 35 bf 57 b2 82 c0 12 71 54 bf 3a c3 80 bf
       -0.7083196 -4.08427 -0.8298503 -1.0059578
000130 f4 e3 8b bf 3f ff 09 bf 0e 26 fc bf 58 49 31 c0
       -1.0928941 -0.539051 -1.9699113 -2.7701015
000140 c4 30 88 bf 8c f8 8f bf 96 b4 a4 be ae 6a 08 c0
       -1.0639882 -1.1247725 -0.32169026 -2.1315112
000150 f9 e4 3a bf 80 0b fd be 02 6a d3 bf bf bc 21 c0
       -0.73005635 -0.49422836 -1.6516726 -2.5271451
000160 02 bb 4e bf c7 47 29 3f db f4 a6 be d1 a6 be c0
       -0.807541 0.6612515 -0.32608685 -5.9578633
000170 2a 00 a9 be 86 65 aa bf 51 3d d0 bf 43 5c 2d be
       -0.33007938 -1.3312232 -1.6268712 -0.16929726
000180 54 16 2f c2 ff 99 a5 be 35 03 8c c1 29 72 d2 bd
       -43.771805 -0.32344052 -17.501566 -0.102756806
000190 73 56 b4 be 66 39 61 bf c8 d7 19 be 02 14 b1 c1
       -0.35222206 -0.8797821 -0.1502372 -22.13477
0001a0 8c 99 14 bf 55 a4 3e be c4 fc 73 bd 5f 86 50 c1
       -0.58046794 -0.18617375 -0.059567228 -13.032805
0001b0 6f d9 7a bf 8e 1d 62 bf 3e 7a 01 bd bc 08 a3 bd
       -0.9798803 -0.88326347 -0.03161072 -0.0796065
0001c0 15 08 b8 3f 91 80 42 3d 2d f8 b8 bd 5f 4a 8a c1
       1.4377466 0.04748589 -0.09031711 -17.286314
0001d0 a9 51 5f be e3 aa 3f bf bc 6a b1 be cb fb 9c c0
       -0.21808495 -0.7487013 -0.34651744 -4.9057364
0001e0 e0 f3 a7 be 23 66 ec c0 bb 80 79 be bc a5 e0 bd
       -0.3280325 -7.387468 -0.24365513 -0.10969111
0001f0 0b 7a 8c be f6 51 8c be 3f 1b 85 be b7 c6 b2 c0
       -0.2743686 -0.2740628 -0.2599735 -5.586757
000200 37 a5 e1 3c d7 49 21 bf a0 07 26 be a6 1b 35 42
       0.0275446 -0.63003296 -0.16213846 45.277
000210 58 b2 f8 bd 0a a7 98 40 c9 0d 2a bf f2 b6 d6 bc
       -0.12143391 4.7703905 -0.66427284 -0.026210282
000220 00 be 03 be 7c 0b 49 42 da dd 32 bf 29 54 73 be
       -0.12865448 50.261215 -0.6986977 -0.23762573
000230 89 d6 8f 3f 94 64 7d 3e 40 c5 b5 c0 6c 2b 38 3d
       1.1237346 0.24745399 -5.6803284 0.044963285
000240 46 b2 e9 3f d7 79 eb be 36 ff 35 41 a1 87 ee 3a
       1.825753 -0.45991394 11.374807 0.001819838
000250 18 df f4 3e 87 37 4d 41 5d 76 a2 be 64 f6 2e c0
       0.47826457 12.8260565 -0.3173093 -2.7337885
000260 85 b1 d7 be 19 4d f9 bf 1f 8c 5a be 52 65 c0 40
       -0.42127624 -1.9476653 -0.21342514 6.012368
000270 8a dd 4c bf 1b e9 84 bc 5d 44 4c 3d 52 72 e3 bd
       -0.8002554 -0.016224435 0.049869884 -0.11105789
000280 f2 3c 6f 42 57 31 22 be db ad 2f 42 c1 55 59 3d
       59.809517 -0.15839134 43.91978 0.053060297
000290 1b a1 0d bf f5 c6 ef 3d be c7 89 bd da 24 de 41
       -0.5532395 0.1170787 -0.06727551 27.767994
0002a0 86 3e 5e 3e f9 e1 69 3d 18 1d 1e bf 77 22 ac 41
       0.21703538 0.05710027 -0.61763144 21.516829
0002b0 ea 2d 07 3e 5e fb af 3e eb 7c a7 ba f9 a0 cf bc
       0.13201109 0.34371465 -0.0012778317 -0.025345312
0002c0 22 9b 33 be ba 76 18 bf 16 77 8d 3a 55 79 b3 40
       -0.17539647 -0.5955616 0.0010792937 5.608561
0002d0 0b 94 55 bf 64 30 2e 3f f6 b1 a1 be 7d 17 b7 3f
       -0.8342902 0.6804259 -0.31581086 1.4304043
0002e0 16 c3 de be f3 12 be 40 ee 3f 19 bf 6d e5 ae 3d
       -0.43508214 5.939813 -0.59863174 0.08539853
0002f0 cb 14 a6 bd aa 06 7c be 1b 23 37 bf 6d 6d 02 41
       -0.08109435 -0.24611917 -0.7153794 8.151715
000300 78 ce c6 40 6b f3 18 be 90 48 49 41 f2 6e 15 bd
       6.2127037 -0.14936607 12.580215 -0.03648276
000310 48 b8 da bf 99 21 ac bd a9 5f 12 be 8f 08 49 42
       -1.7087488 -0.08404846 -0.14294304 50.258358
000320 79 08 0e bd aa b8 3b 3c cc 06 e7 bd 23 49 15 41
       -0.03467605 0.011457602 -0.11280593 9.330356
000330 88 73 81 bd 84 6e 2d bd 1a 49 ee 3c 11 4e 1e bd
       -0.06320864 -0.042341724 0.029087592 -0.03864867
000340 55 fe 77 bf 1f d2 9d be bb 7c 2e bd dd 1d cf 40
       -0.96872455 -0.30824372 -0.04259942 6.4723954
000350 24 3c 34 bf eb 6c 19 bd f9 eb d9 bc a7 09 0e 3f
       -0.7040427 -0.037457388 -0.026601778 0.5548348
000360 26 52 02 bf c8 2d 88 3e 66 18 0b bf fa 31 51 3c
       -0.509066 0.26597428 -0.54334104 0.012768263
000370 e7 a4 51 be 0f b1 c5 bf 0f 31 eb bf ce 6e 5d 41
       -0.20473062 -1.5444659 -1.8374346 13.839552
000380 3b 70 85 c2 b3 6f 15 bf 74 98 16 c2 20 44 08 3e
       -66.7192 -0.58373564 -37.64888 0.13307238
000390 03 1f 3f bf 67 f7 96 3d f3 e6 69 be a1 76 df c0
       -0.74656695 0.07371407 -0.22842006 -6.983231
0003a0 68 22 2e be 07 a7 ac be e5 27 95 be 7d d9 ce c0
       -0.17005312 -0.33721182 -0.29132 -6.464049
0003b0 54 db d6 bd 8c 53 2d 3d da c6 c8 be 1a 17 0d 3f
       -0.10491052 0.042316005 -0.39214212 0.55113375
0003c0 e1 12 b9 3f f8 9d 94 3e 4c 87 29 3f 30 21 41 c2
       1.4458886 0.2902677 0.6622207 -48.28241
0003d0 00 b4 40 3f 5a 03 54 be c9 29 14 bf dd 9d 8d bf
       0.7527466 -0.20704404 -0.5787626 -1.1063801
0003e0 ac 1a aa 3e e8 af 64 be ec 36 93 3e c4 df 3f 3e
       0.33223474 -0.22332728 0.2875284 0.18737704
0003f0 cb cb 0b bf 19 9c f3 be 14 11 64 be 84 8a 41 bf
       -0.5460784 -0.4758003 -0.2227214 -0.75601983

fc2.bias f4 [32]
000000 5c c3 3d c0 0b 0d 06 c0 cc df 35 c0 fc ab a4 bf
       -2.9650488 -2.094546 -2.8417845 -1.2864985
000010 67 f3 9c 3f 10 aa 58 3e a0 cb 91 bf 45 8a e7 be
       1.226178 0.21158624 -1.1390266 -0.4522268
000020 b0 65 0b c0 20 40 07 c0 28 b7 01 c0 27 33 12 40
       -2.1780815 -2.1132889 -2.026804 2.284372
000030 30 99 82 bf 42 7a 9d bf 36 a3 10 c0 62 ff 8d c0
       -1.0202999 -1.2302935 -2.2599616 -4.4374247
000040 30 5b f8 bf 78 71 1a 3f 9b 4c 16 40 5d 57 07 c0
       -1.9402828 0.6032939 2.3484256 -2.1147072
000050 ab 71 12 c0 ec c4 18 c0 16 a0 3a c0 10 63 84 3f
       -2.2881877 -2.3870192 -2.9160209 1.0342731
000060 ca 72 bb 3d 1b 2a 42 c0 68 50 00 bf cb 8e d9 bf
       0.09152754 -3.03382 -0.5012269 -1.6996702
000070 9f a2 9a 3f 99 12 2f c0 3f ca d1 bf 23 f4 cd bf
       1.2080878 -2.73551 -1.6389846 -1.609013

fc3.weight f4 [32, 32]
000000 1c 62 2b c0 26 82 27 c0 90 97 cd bc 0b ff 80 bf
       -2.6778631 -2.6173186 -0.025096685 -1.0077833
000010 8c 3f 5b bf b5 dc c6 bf b5 60 e5 bf 62 1f 26 bf
       -0.8564384 -1.5536104 -1.7920138 -0.64891636
000020 d8 8e 81 40 b9 df 7a 3f 19 99 e6 3d 68 51 0f c1
       4.048687 0.97997624 0.1125967 -8.957375
000030 c9 f5 cd bd b8 74 41 bf 1a 09 40 bf 16 66 25 be
       -0.100566454 -0.75568724 -0.7501389 -0.16152224
000040 9f e3 49 be 2d c4 59 bf 91 af 85 bf 8a f4 15 bf
       -0.19715737 -0.85064965 -1.0444204 -0.5857626
000050 76 d5 03 be cb e7 ac be 78 e2 03 3e 66 37 15 c0
       -0.12874398 -0.33770594 0.1287936 -2.3315063
000060 e3 15 ed bf 81 13 62 bf 00 33 16 be f9 c7 98 3f
       -1.8522304 -0.8831101 -0.14667892 1.1936027
000070 df 35 87 bf 30 47 6f bf b4 1e d3 3e 94 89 75 3e
       -1.0563315 -0.93468 0.41234362 0.23978263
000080 d0 e4 13 c0 9d da 26 c0 f5 0f 88 be cd e2 3e bf
       -2.3108406 -2.607093 -0.26574674 -0.7456482
000090 e3 ad 1f c0 8c 84 14 c0 bc bb e8 bf f7 3b 93 be
       -2.4949882 -2.32059 -1.8182292 -0.28756687
0000a0 2a 7c 81 3f a4 f4 d1 be 96 8e e9 3e 6b 11 0c c1
       1.0116017 -0.41006958 0.45616597 -8.754252
0000b0 61 bc d9 3c 5d c8 c2 bf 0b c8 9a bf b7 82 b4 3c
       0.026579084 -1.5217396 -1.2092298 0.022034986
0000c0 8f 94 8c 3f 62 1f cf bf 71 6a 1e c0 4c ac b7 be
       1.0982836 -1.6181452 -2.4752467 -0.3587364
0000d0 70 a9 16 be 4d aa 9d be ba a4 36 bd ba 61 27 c0
       -0.14713073 -0.30793992 -0.04459069 -2.6153398
0000e0 e2 b0 0b c0 a6 4c 03 be 7e 90 c5 bf b6 1f 07 3f
       -2.182671 -0.12822208 -1.543472 0.5278276
0000f0 02 7f d1 bf 9f 30 ee bf d0 4b 34 be 74 6e 0d 3f
       -1.6366885 -1.8608588 -0.17607045 0.55246663
000100 ae 43 db bf bc 47 8e bf 1a 94 85 3e ae 6c c5 bf
       -1.7130029 -1.1115642 0.26089555 -1.5423791
000110 e4 92 cf bf 3a ce 4a c0 55 68 32 c0 2e d9 73 be
       -1.6216702 -3.168837 -2.787618 -0.23813316
000120 34 95 1c bf 84 94 eb be cb 2c 86 be e1 e1 e9 bf
       -0.61165166 -0.46011746 -0.2620605 -1.8272058
000130 18 f7 87 bd 5a a0 a6 bf 23 96 95 3f 3a 91 f3 be
       -0.06638926 -1.3017685 1.1686443 -0.47571737
000140 b0 c3 c9 bd bc 18 39 bf 68 f0 90 c0 db 30 ca 3e
       -0.098517776 -0.72303367 -4.5293465 0.394904
000150 17 fe bf be e4 74 8c be 81 a8 69 be 69 4a 67 bf
       -0.37498543 -0.2743293 -0.22818185 -0.90347916
000160 e6 06 8d bf 01 1f 10 3e 7e 38 cb bf ce 23 e1 be
       -1.101773 0.14074327 -1.5876615 -0.4397263
000170 c7 4a 12 c0 d6 d4 e1 bf 76 9d d7 bb e5 70 c8 bd
       -2.285814 -1.7643077 -0.00658005 -0.09787158
000180 81 88 52 c0 19 aa 53 c0 0f 83 74 bf 3c 87 b5 bd
       -3.2895815 -3.307257 -0.9551248 -0.088636845
000190 33 97 32 c0 a8 cc 9a bf 6f 9c b5 bf 88 b2 e0 be
       -2.7904785 -1.2093706 -1.4188365 -0.4388621
0001a0 7c b6 30 3f 08 5f aa bf 6a 5a 3a bf c9 9a 08 c1
       0.6902845 -1.3310251 -0.7279421 -8.537789
0001b0 a0 ee 43 bf 9a 09 46 bf 7a 50 ae bf 58 df d2 be
       -0.7653599 -0.773584 -1.361831 -0.41186023
0001c0 26 60 83 be 6a bd 83 bf 1c 12 be bf dd f4 b0 be
       -0.25659293 -1.029218 -1.4849277 -0.34561816
0001d0 47 43 6c bf a6 1f 44 bf e1 06 d4 3d f4 7d 23 c0
       -0.9229016 -0.7661079 0.103528745 -2.5545626
0001e0 52 9b 09 c0 0e f0 97 be 08 f6 36 bf 8c d5 82 be
       -2.150105 -0.29675335 -0.71469164 -0.25553548
0001f0 3e 6d 79 bf cf 3f d3 bf c4 01 d6 be f7 f8 8e bf
       -0.97432315 -1.6503848 -0.41798222 -1.1169728
000200 37 7e c7 bf d5 09 cb bf 2c c9 01 bf 14 e8 c6 bf
       -1.5585393 -1.5862375 -0.5069759 -1.5539575
000210 c3 e8 94 bf 1f 74 0f c0 33 5b d1 bf 35 63 33 3e
       -1.1633533 -2.2414625 -1.6355957 0.17518313
000220 63 63 e5 3f 6e ea d8 bd 32 a0 88 3f 6b 1e d9 c0
       1.7920955 -0.10591589 1.0673888 -6.784963
000230 fe de db 3c cc c1 35 40 0d 00 59 bf 53 6f 16 bf
       0.02683973 2.8399534 -0.847657 -0.5876362
000240 01 9f 78 3f 43 a5 24 bf a2 db 0f c0 4f d4 00 be
       0.9711762 -0.6431467 -2.2477803 -0.1258099
000250 a2 d4 ce be e5 b1 45 bd fa ca 92 bf 08 31 40 c1
       -0.403966 -0.048265357 -1.1468194 -12.0119705
000260 e9 22 be c0 f0 76 a0 bf ed 83 04 3d 96 45 bf 3f
       -5.9417615 -1.2536297 0.032352377 1.4943111
000270 95 ba 0b c0 e2 dd 39 c0 d6 76 c3 3f bc ce 06 40
       -2.183263 -2.9041677 1.5270641 2.106368
000280 bf b8 06 c0 c7 e3 10 c0 87 56 e5 be 8f 6b 80 bf
       -2.105026 -2.2639024 -0.44792578 -1.0032824
000290 9e fa 06 c0 a9 15 16 c0 12 bf 14 c0 1c 03 65 3c
       -2.1090465 -2.345072 -2.324162 0.013977792
0002a0 dc 95 4b 3f 91 fa ba 3e 26 00 ae be 05 ea e2 c0
       0.7952554 0.36519292 -0.33984488 -7.091067
0002b0 b9 d4 08 bf cc c4 b3 bf d6 d4 36 bf cb 4f af be
       -0.5344959 -1.4044433 -0.7141851 -0.34240565
0002c0 95 78 53 be 45 ad 13 c0 52 ff 14 c0 79 16 95 be
       -0.20651467 -2.3074505 -2.3280835 -0.29118708
0002d0 c3 0a 46 be 36 3f 04 bf 8b 37 ff be 49 2a fd bf
       -0.19340043 -0.5165895 -0.49847063 -1.977853
0002e0 96 79 ed bf 0f 80 e7 be 28 fd 5b bf c1 6f b6 3e
       -1.855273 -0.45214888 -0.8593316 0.35632136
0002f0 e2 d0 0b c0 c1 1b 4f bf d7 0c a6 be 47 e9 8b be
       -2.1846242 -0.80901724 -0.3243167 -0.27326414
000300 db 9d 93 bf ac 83 0e c1 e8 87 06 40 2a c7 2e 3e
       -1.1532549 -8.907146 2.102045 0.17068163
000310 d1 7d f6 bf ce 23 83 3c 7c 5b 0c 3d e4 88 25 bf
       -1.9257146 0.016008284 0.034266934 -0.64662004
000320 6d 2c 2c 3d d2 7c ad 40 6e 66 c6 be 65 1e 10 3f
       0.042034555 5.421487 -0.38750023 0.5629638
000330 4a 73 45 3e c9 7a 9f bd 72 e6 5d c0 8c e4 de 41
       0.1928226 -0.07787091 -3.4671903 27.861595
000340 01 d2 00 3e 7b d8 b2 3f 2b 7a f0 3d 35 0a f4 3f
       0.1258011 1.3972315 0.11742052 1.9065615
000350 78 b5 b2 40 7e 7b 62 40 fb 41 84 41 44 a3 fd bc
       5.584652 3.5387874 16.532217 -0.03096164
000360 8c b1 06 bd 23 24 86 40 03 f4 60 3d bc 02 66 3f
       -0.032884166 4.191911 0.054920208 0.8984792
000370 15 85 a7 3f e4 2c 64 be 18 bb 00 3e fa 95 24 bf
       1.3087488 -0.2228275 0.1257137 -0.64291346
000380 bc e5 61 3f 71 96 e3 3e bc fe f0 3b 9b 89 21 41
       0.8824117 0.44450715 0.0073545855 10.096095
000390 98 42 64 bf 24 bc 03 c1 77 8b a0 c1 a8 33 7f 41
       -0.89164114 -8.233433 -20.068098 15.950111
0003a0 81 a9 26 bf 20 00 10 bf 2f ad 05 bf 4b 57 ae bf
       -0.6510239 -0.5625019 -0.5221738 -1.362039
0003b0 13 2d c2 be 69 e9 1d c1 84 d5 cc 3c ee a1 70 3f
       -0.37925014 -9.869485 0.025004156 0.93997085
0003c0 e8 02 a9 bf df 6d a7 bf 98 3f 01 c0 b9 1d a3 be
       -1.3204012 -1.3080405 -2.0195065 -0.31858614
0003d0 c9 53 1d bf cc 34 1f bf fe 6d 96 be 15 6a 08 3f
       -0.6145597 -0.62189937 -0.29380792 0.5328687
0003e0 da 26 9d bf 1c 08 89 3e 29 19 ec bf 4b 3b b5 bf
       -1.2277482 0.26764 -1.8445178 -1.415872
0003f0 c3 e6 11 3e 4c df 02 3f ed a1 1c be 6f 1e 3b be
       0.14248185 0.51121974 -0.15296145 -0.18273328

fc3.bias f4 [32]
000000 de 7b db bf 07 ed 29 c0 d5 07 d2 bf cd 35 fa bf
       -1.7147176 -2.655092 -1.640864 -1.9547669
000010 b8 5b 28 c0 ab 19 1b c0 ef 4b 85 be 43 81 df bf
       -2.630598 -2.4234416 -0.26034495 -1.7461323
000020 15 8c 0c c0 a8 27 f4 bf 72 0b 28 be 1e 34 5d bf
       -2.19605 -1.9074602 -0.16410616 -0.8640765
000030 26 7f a0 bf f5 16 90 bf 5a 59 07 c0 d7 66 b5 bf
       -1.2538803 -1.1257006 -2.1148286 -1.4172009
000040 73 c2 de bf ec c9 be bf 4f 1f 77 bf 5e 49 00 c0
       -1.7403091 -1.4905372 -0.9653215 -2.004478
000050 79 cd a6 bf ee 79 98 bf 2a c5 a2 bf 29 89 22 c0
       -1.3031455 -1.191221 -1.271642 -2.5396216
000060 38 79 84 bf 81 91 0c bf f4 0b 5a bf 21 3d 69 be
       -1.0349493 -0.5490952 -0.8517449 -0.22777225
000070 08 af 01 c0 03 e4 d5 bf f6 c5 f4 bf 7a ad 69 be
       -2.026308 -1.6710209 -1.9122913 -0.22820082

fc4.weight f4 [20, 32]
000000 9b b0 62 40 7b cb 31 40 20 dd ee bf 88 a5 87 40
       3.5420291 2.7780445 -1.8661232 4.2389565
000010 22 7b b8 3f fa 09 be 3f ad 50 8b 40 25 0a 0f c1
       1.4412577 1.4846795 4.353598 -8.939977
000020 a3 ba 52 40 1e 18 b9 3f ea 63 fb bf b4 75 a1 c0
       3.2926414 1.4460485 -1.9639866 -5.045618
000030 17 11 1f c1 77 7e a5 3e b8 94 e2 bf 40 ea bb c0
       -9.941672 0.32323048 -1.7701635 -5.872345
000040 7b c5 1c c0 a6 fb 23 41 c7 b4 8d c0 2b c7 15 3f
       -2.4495533 10.248938 -4.4283175 0.5850703
000050 71 7e 98 40 8f d1 c7 c0 fc a6 e1 c0 3a ae d3 3f
       4.7654347 -6.244331 -7.051634 1.6537545
000060 d0 d3 fe c0 aa c8 c0 c0 1b db bd c0 a6 62 6a c0
       -7.963356 -6.024495 -5.9329963 -3.662271
000070 09 ba eb 3f 96 64 df c0 1b fb 27 c0 a8 5d 11 40
       1.8416148 -6.9810286 -2.6247013 2.2713413
000080 d2 33 7a 40 2f dd 6b 40 63 5f c1 bf 77 d9 f0 3f
       3.9094129 3.685375 -1.5107235 1.8816365
000090 28 c3 11 40 45 b8 b2 3f fb c8 3b bf f4 2a 1a c1
       2.2775364 1.3962485 -0.73353547 -9.635487
0000a0 e5 19 15 40 33 db 05 40 ea 73 b1 3e ab 60 22 c0
       2.3297055 2.0915039 0.34658748 -2.5371501
0000b0 23 b5 1e c1 69 3f e2 3f 9d 82 ab 3f 7f 8f af c0
       -9.919223 1.7675601 1.3399235 -5.4862666
0000c0 37 17 a2 bf 50 52 08 c0 28 b5 b3 c0 31 17 0d 40
       -1.2663335 -2.130024 -5.615864 2.2045405
0000d0 72 7f 6a 40 1e 8e 7c 3f df 16 21 c1 73 87 7e 40
       3.6640286 0.98654354 -10.068084 3.9770172
0000e0 bc 95 e4 3f cb 25 2c 40 d8 a3 c2 bf b6 4c 65 c0
       1.7858195 2.6898067 -1.5206251 -3.582807
0000f0 1f 0c 23 40 7a 69 2c c1 10 bb 21 c0 a3 5f 0d 40
       2.5476148 -10.775751 -2.5270424 2.2089622
000100 0e ed ae 3f c2 aa ed 3f d4 74 27 be 66 eb 3f 3f
       1.3666093 1.8567736 -0.1635316 0.74968565
000110 5d fc c7 3f 5d d7 c7 be 8b ca 44 c0 d8 16 40 c0
       1.562389 -0.39031497 -3.0748622 -3.0013943
000120 f7 d2 21 3e d3 e4 1c be a1 0f b5 3f 22 64 39 c0
       0.15803133 -0.15321665 1.4145395 -2.8967366
000130 5e 55 78 bf 15 a1 50 3d a3 a2 0e 40 ef cd 21 c0
       -0.9700526 0.05093487 2.2286766 -2.5281942
000140 f8 e0 47 bf f2 ee 03 c1 dc b8 5c c0 be 01 cf 3f
       -0.7807765 -8.245836 -3.448783 1.6172407
000150 6f 54 a6 3e cb 3d 73 40 d9 90 81 c0 13 a8 9e 3f
       0.32486293 3.8006465 -4.0489316 1.2395042
000160 36 b7 b6 40 d5 8f a5 40 38 43 b4 3f 19 28 44 bf
       5.7098646 5.1738076 1.4083014 -0.76623684
000170 b0 a1 14 3f 26 1b ae c0 89 24 03 c0 02 03 e6 3e
       0.58059216 -5.440814 -2.049105 0.4492417
000180 2a 57 73 bf a7 84 dd bf f0 26 d1 3d 79 db 05 c0
       -0.95054877 -1.7306107 0.10212505 -2.0915205
000190 8b a6 93 bd 1f 10 17 be a2 45 02 c0 29 b5 16 40
       -0.072095 -0.14752243 -2.0355 2.3548071
0001a0 55 13 50 bf d1 4a d1 bf 7a d8 67 3f 25 0b ac bf
       -0.812795 -1.6350957 0.9056469 -1.3440901
0001b0 95 17 42 40 8e 20 83 bf bb 2e 00 40 15 bd b4 3f
       3.0326893 -1.024431 2.0028522 1.4120203
0001c0 a8 ec a2 3e 8d 97 b7 c0 fc 33 2b bf 16 9a 7b bf
       0.3182118 -5.73725 -0.66876197 -0.9828199
0001d0 b0 85 23 c0 7a 4e 4b 40 a3 1a 02 40 71 06 65 bf
       -2.5550346 3.1766648 2.0328758 -0.89462954
0001e0 fc 6b a7 40 ee 7f 98 40 da b4 0e 40 a3 02 bb 3f
       5.2319317 4.7656164 2.2297883 1.461018
0001f0 f6 cb 13 bf ce 92 4a 40 44 ba b7 be 0c a9 66 bf
       -0.57733095 3.1652102 -0.35884297 -0.90101695
000200 1e d5 24 c0 28 4b f0 bd 8a 86 0c 3f 7c f8 0f be
       -2.5755076 -0.11733085 0.5489279 -0.14059633
000210 95 47 b9 bd 2e 44 d6 3e bc a7 1a 3e 05 fc 7d 40
       -0.09046856 0.41848892 0.15103048 3.968507
000220 5d 05 87 3f 27 62 2d bf d6 e0 84 bd c4 d8 56 be
       1.0548512 -0.67727894 -0.064881966 -0.20981127
000230 a3 e4 7c 40 fe 57 9e 3e 17 57 38 bf 62 d2 87 40
       3.9514549 0.30926508 -0.7200789 4.2444315
000240 6e 9d 56 3e f4 d3 03 be 16 70 51 40 f2 02 82 bf
       0.20958492 -0.12873822 3.2724662 -1.0157149
000250 58 f4 9f bf 1f 71 a8 3f 33 d2 82 40 2e 58 f7 bf
       -1.2496443 1.3159522 4.088159 -1.9323785
000260 cc be 96 3f 67 12 a4 3f 61 36 ec 3f a9 e6 cb 3f
       1.1776977 1.2818116 1.8454095 1.5929767
000270 8b 2c 40 3e 56 77 dd 40 09 ef 7a 3f e5 f9 7b bf
       0.18766992 6.9208174 0.9802099 -0.98428184
000280 68 36 61 be fa 43 c3 bf 6d 55 bd be 63 52 05 bd
       -0.2199341 -1.525512 -0.36979237 -0.032549273
000290 3b ac 1a bf 93 ff a9 3d 9e 59 a3 3f 1f 55 56 40
       -0.6041905 0.083007 1.2761724 3.3489454
0002a0 95 7b e4 bf 1e 73 11 bf 65 45 17 bf 7b 6b 6a 3d
       -1.7850214 -0.5681628 -0.5909026 0.057231408
0002b0 23 2d de 3f c2 ec 88 3e 44 51 bd 3d 25 e3 00 40
       1.7357525 0.26743132 0.09244016 2.0138638
0002c0 e7 9f ad be f2 64 56 40 35 9c 8b bd 68 ae 8e bf
       -0.33911058 3.3499112 -0.068169035 -1.1146975
0002d0 4b f7 4b bf b4 cd a0 bf d7 a9 bc 3f 0e 5c 69 3f
       -0.79674214 -1.2562776 1.4739331 0.9115609
0002e0 85 5f 01 c0 5f 94 25 c0 7c 5a a6 3f 37 a6 e2 3e
       -2.021455 -2.5871809 1.2996364 0.44267437
0002f0 67 e7 a1 bf 1a 9f 50 40 c5 82 1c 3f ed f4 86 be
       -1.2648743 3.2597108 0.6113704 -0.2635874
000300 c3 51 7c 3f e5 2f 33 bf a0 f5 59 3e bb ca 12 3f
       0.9856226 -0.69994956 0.21285105 0.5734059
000310 9f c9 ab be 3e 57 74 3f 48 44 6f 3f f7 a3 72 bf
       -0.33552262 0.9544562 0.93463564 -0.9478144
000320 75 f9 89 be 14 9e 63 3d 81 48 da be 08 85 a5 bf
       -0.26948133 0.055570677 -0.4263344 -1.2931223
000330 da 35 95 bf 28 ab 0f 3e 94 79 99 3d 10 17 86 3e
       -1.1657059 0.14030135 0.07493892 0.2618947
000340 52 8c 84 3d 6e 8c 36 40 9c 8e af bf ca 9f 58 3e
       0.064720765 2.8523211 -1.3715396 0.21154705
000350 59 dd ce 3f ae bd de bf 49 c4 c5 bf 64 ef 5f 3f
       1.61613 -1.7401636 -1.5450526 0.87474656
000360 f9 22 18 c0 e6 1b f2 bf 23 1a c3 bf 0e 54 0f bf
       -2.3771346 -1.8914764 -1.5242351 -0.5598763
000370 21 33 85 3f 58 e1 ab 3f 14 a1 e1 be 9a d8 ba 3e
       1.0406228 1.3428144 -0.44068205 0.3649338
000380 c9 2b 97 3e 8e 28 da be 61 ec d6 be f3 ed ae 3f
       0.29525593 -0.42609066 -0.41977218 1.3666366
000390 e5 a6 1a 3e 5c 6e 23 be 7a bb 24 3c e7 93 3a c0
       0.15102728 -0.15960068 0.0100544635 -2.9152772
0003a0 e6 ca c1 bd 45 32 c1 3f 09 71 61 bb 78 3b 9e bf
       -0.09462528 1.5093466 -0.003439965 -1.2361898
0003b0 f3 16 8a c0 f8 07 74 bf 0f bb d2 3e 3f 43 4f bf
       -4.3153014 -0.9532466 0.4115834 -0.80961984
0003c0 fb de 46 bf 70 ba 20 3f 3e 8d 4c 40 05 99 ac be
       -0.7768399 0.6278448 3.1961207 -0.33710495
0003d0 3e 9f 7b 3d 65 40 38 c0 67 c3 25 c0 37 df 3b 3f
       0.061431162 -2.8789303 -2.5900514 0.73387474
0003e0 aa 5f fb bf 99 6a 5a bf ef 7c 2e be 19 94 31 bf
       -1.9638569 -0.85318905 -0.17039846 -0.69366604
0003f0 61 fe b9 bf 0e 3d c2 3f cb 1e 4a be 48 0e e1 3e
       -1.4530755 1.5174882 -0.19738309 0.43956208

fc4.bias f4 [20]
000000 41 23 28 bf 36 ae 6a 3f 1d 0a 8e 3f 5c 63 b6 3e
       -0.65678793 0.91672075 1.1096836 0.3562268
000010 0c 43 b5 be 68 cf f7 be d3 62 3e be f6 c2 02 3e
       -0.35402715 -0.48400426 -0.18592386 0.12769684
000020 63 7c 57 3e 78 35 b8 3d f1 33 3b bd 05 ef b4 bd
       0.21043544 0.08994573 -0.045703832 -0.08834652
000030 aa b9 2e bd 74 97 87 3c 2d 65 1e 3d c8 b6 bc 3c
       -0.04265753 0.01655171 0.038670707 0.023036376
000040 48 e2 91 bb 67 ea 9a bc 67 82 2d bc 96 c9 61 3b
       -0.0044520237 -0.0189106 -0.010590172 0.003445243
