transfer/dampedSpring/data/transfer_finetuning/m(1.1)_model_weights.pth (torch, 13651 bytes, 8 tensors)

fc1.weight f4 [32, 2]
000000 80 ce 41 3d 5a 35 1c 40 c9 d4 96 3e 23 46 b3 bd
       0.047316074 2.4407563 0.29459217 -0.08753612
000010 45 1c 97 bc ec c3 e7 3e 62 68 43 c0 4f 16 90 be
       -0.018446097 0.45266664 -3.053246 -0.2814202
000020 4e 9f 98 bd 77 fa 43 c0 b7 70 20 bf 3a 78 6c 3d
       -0.0745226 -3.0621622 -0.6267199 0.057731844
000030 d3 c2 db 3e 5a 27 cb bd c2 ff 86 3d da c8 50 40
       0.42922077 -0.09919615 0.06591751 3.262259
000040 4f d1 09 bf e6 51 05 3e df 5d 29 c0 3d 18 7b be
       -0.53835005 0.13019523 -2.6463544 -0.24520965
000050 35 8e 0d 3f da 96 08 bd ab 10 89 bd 07 14 06 3f
       0.55295116 -0.03334699 -0.06692632 0.5237431
000060 f2 3d f9 be 38 ea d3 3d 83 11 00 bf 11 c6 2e 3e
       -0.48680073 0.10347408 -0.5002672 0.17067744
000070 13 4c 30 40 06 99 7d 3e 50 d4 26 40 16 40 74 3e
       2.7546432 0.24765405 2.6067085 0.23852572
000080 06 51 99 bd c4 91 e4 be 51 0d 62 3e 00 36 d6 be
       -0.07486157 -0.4464246 0.22075392 -0.41838074
000090 af 56 2a c0 60 3b 77 be bf 14 64 3d b0 bb 2e 40
       -2.6615407 -0.24143744 0.055683848 2.7302055
0000a0 61 bd 65 bd d4 c7 27 bf 11 8e 26 bf 89 f3 a6 3d
       -0.05608881 -0.6553929 -0.65060526 0.081519194
0000b0 cd 36 0a 3f c0 31 c5 3c 80 71 cf bd be 5d e0 3d
       0.5398987 0.024071574 -0.1012907 0.1095538
0000c0 f9 4d 0d be 79 74 06 bf fa 50 7a 3e 63 f5 79 3e
       -0.13799275 -0.52521473 0.24444953 0.24410014
0000d0 d7 85 00 bc 69 08 33 bf 03 eb 37 c0 46 de 87 be
       -0.00784441 -0.6993471 -2.873719 -0.2653677
0000e0 c9 bb ec 3e 00 01 07 bd d6 b5 80 bd 3d 63 3b c0
       0.4623702 -0.032959938 -0.062846825 -2.927932
0000f0 e0 90 a8 bd 53 d2 78 c0 3f 28 fb 3c c6 0c 12 40
       -0.08230758 -3.8878372 0.03065884 2.2820296

fc1.bias f4 [32]
000000 b9 e5 97 40 5a e9 57 c1 11 61 02 c1 01 8b 15 c0
       4.7467923 -13.494471 -8.148698 -2.3366091
000010 3b fc 3f 41 3f fc 5d c1 33 ca 5a c1 84 eb c4 3f
       11.99908 -13.8740835 -13.674365 1.5384374
000020 f2 3c 5b c1 f3 c6 68 40 86 84 59 c1 8d cd 55 c1
       -13.702379 3.637143 -13.594854 -13.362683
000030 ef 4d 59 c1 76 77 5b c1 79 0f 4a c1 22 e4 cf 40
       -13.581527 -13.716665 -12.6287775 6.4965982
000040 ba f9 61 c1 26 2a 5b c1 ca 44 4a c1 42 95 29 41
       -14.123468 -13.69779 -12.641794 10.59894
000050 2c d8 5f c1 18 f0 65 c1 d3 41 51 c1 fa b7 58 c1
       -13.990276 -14.371117 -13.07857 -13.544916
000060 d6 d7 5d c1 19 43 5c c1 ca d5 5c c1 af 89 02 41
       -13.865194 -13.766381 -13.802195 8.158614
000070 7e 9e 5d c1 5e 29 d1 40 63 bc 62 40 4f 99 30 c1
       -13.851194 6.5362997 3.5427482 -11.037429

fc2.weight f4 [32, 32]
000000 ea 47 a6 bc ea 5a f2 bf 9b 6d 29 bf dc 92 a6 40
       -0.020297963 -1.8933995 -0.6618287 5.205427
000010 d1 3a 39 be d7 75 b4 40 b7 41 38 c0 1d 91 76 3c
       -0.18088843 5.6393847 -2.879011 0.015049246
000020 14 79 0c 40 c4 f7 af 40 c4 14 89 c0 47 8d bf be
       2.19489 5.498995 -4.283785 -0.37412474
000030 6d b1 f5 3f ef 82 e6 3f 53 3b 48 c2 21 59 82 c0
       1.9194771 1.8008708 -50.057934 -4.07338
000040 7f 25 ca 3e bd 31 1d c0 37 c9 a5 41 d4 a2 91 3b
       0.39481732 -2.4561608 20.72325 0.0044444595
000050 a4 75 72 be 83 87 0d 41 02 c1 be c0 71 3d cb 3e
       -0.23677689 8.845584 -5.9610605 0.39695314
000060 d4 23 8e 3f 40 75 03 c0 0d 13 9a 3d bf 4a 6b 3f
       1.1104684 -2.0540314 0.07523165 0.9191093
000070 d6 db 0b c0 f6 ac cf ba 6b 22 69 3a 64 4e d5 be
       -2.1852927 -0.0015844393 0.00088933733 -0.4166137
000080 8c 1e 6f 3c e5 a7 f3 be e8 82 3d 3c 29 37 9c 40
       0.014594685 -0.4758903 0.011566855 4.8817334
000090 f4 17 a1 bd 8a 5b 2d 3f 25 dc 18 bf 83 e2 e8 ba
       -0.07865897 0.677178 -0.59710914 -0.0017767701
0000a0 86 6a de 3e 29 cf 3f be 5d d4 21 c0 80 88 7b bc
       0.43440646 -0.18731369 -2.5285866 -0.015352368
0000b0 5a 89 d7 3e 8f 1c cc 3e f3 a7 0f c2 50 17 66 c0
       0.42096978 0.39865538 -35.914013 -3.595173
0000c0 8f 04 e0 bb cf 98 5c bd a8 a6 e9 41 f4 51 0c b9
       -0.006836481 -0.053856667 29.206375 -0.0001338197
0000d0 71 e8 88 3d a6 43 e3 3f de 7f 7a c0 6f 27 0c bb
       0.0668496 1.775502 -3.9140544 -0.002138581
0000e0 8b 19 3b 3e 05 4b 09 c0 e3 d4 21 3e 0f dd 96 bf
       0.18271463 -2.1452038 0.15803866 -1.1786212
0000f0 4b fc f6 be 85 ae 5c 3c cf ee 9d bb 00 43 2f be
       -0.4823936 0.013469343 -0.004819728 -0.17115402
000100 14 a9 8d bf b4 9f 56 bf a7 3f 88 bf a9 a2 d5 bf
       -1.1067224 -0.8383744 -1.0644425 -1.6690265
000110 cd 2f 1b c0 3b cf 40 bf f6 69 22 bf 7f 23 20 bf
       -2.4247925 -0.7531621 -0.63442934 -0.6255416
000120 6f 54 35 bf 62 b1 82 c0 12 71 54 bf 3a c3 80 bf
       -0.7083196 -4.084153 -0.8298503 -1.0059578
000130 f4 e3 8b bf 3f ff 09 bf 3e 70 f4 bf 57 19 24 c0
       -1.0928941 -0.539051 -1.9096754 -2.5640466
000140 c4 30 88 bf 8c f8 8f bf 8d b4 a4 be a8 bf f4 bf
       -1.0639882 -1.1247725 -0.32169 -1.9120989
000150 f9 e4 3a bf 80 0b fd be 03 6a d3 bf bf bc 21 c0
       -0.73005635 -0.49422836 -1.6516727 -2.5271451
000160 02 bb 4e bf fa 47 29 3f db f4 a6 be d8 da bd c0
       -0.807541 0.6612545 -0.32608685 -5.9329643
000170 2a 00 a9 be ad d4 a5 bf e6 39 cc bf 57 bf 03 be
       -0.33007938 -1.2955528 -1.5955169 -0.12865959
000180 ee 9c 2e c2 9c 5b a3 be 1f 83 8b c1 e6 40 b1 bd
       -43.65325 -0.3190583 -17.439024 -0.086549565
000190 43 c1 66 be 4e 16 5f bf ac 03 15 be 4e 0f b1 c1
       -0.22534661 -0.8714341 -0.14552182 -22.132473
0001a0 db 14 13 bf 00 45 46 bd ab 80 62 bd 0f 84 50 c1
       -0.574537 -0.048405647 -0.05529849 -13.032241
0001b0 5c 1f 79 bf 1c ef 60 bf 10 71 14 3c d6 36 13 3d
       -0.97313476 -0.8786485 0.009060159 0.035940968
0001c0 e5 2f b9 3f a2 b8 73 3d 70 c1 f0 bb 9b 34 89 c1
       1.4467741 0.05950225 -0.0073472783 -17.150686
0001d0 1e f9 4c be e5 2d 3e bf 7f 2b af be b9 dc 9c c0
       -0.20016906 -0.7428878 -0.34212872 -4.9019437
0001e0 f4 64 a0 be 56 62 ec c0 3a 10 64 be 5f d5 fc 3b
       -0.3132702 -7.387004 -0.22271815 0.0077158655
0001f0 38 ee 8a be 63 d5 16 be f1 75 08 be b7 c6 b2 c0
       -0.2713487 -0.14729838 -0.13326241 -5.586757
000200 83 35 0b 3c e9 11 23 bf d0 6a 1b be 8f 1a 35 42
       0.008496645 -0.63699204 -0.15177464 45.275936
000210 61 46 be bd 28 a6 98 40 3c 50 2c bf 7d ab 99 bc
       -0.092907675 4.7702827 -0.6730993 -0.01875853
000220 d4 cf 03 be 2d 23 49 42 58 ee 35 bf 5e fc 6f be
       -0.12872249 50.28435 -0.7106681 -0.23436114
000230 41 cf 8f 3f cc 68 7d 3e 33 3a b6 c0 9e b7 2c 3d
       1.1235124 0.24747008 -5.6946044 0.0421673
000240 2a 12 e9 3f 89 ab eb be 36 ff 35 41 10 b5 73 3b
       1.8208668 -0.46029308 11.374807 0.003718678
000250 8e 65 f2 3e 61 37 4d 41 4b 23 a6 be 89 ff 2e c0
       0.47343105 12.82602 -0.324488 -2.7343466
000260 f1 57 da be 42 8b f9 bf a0 cd 5d be bc f6 c1 40
       -0.4264522 -1.9495623 -0.21660471 6.061369
000270 b1 d6 4f bf 90 59 e6 bc 52 21 92 3c 73 d8 19 be
       -0.8118697 -0.028118879 0.017838154 -0.15023975
000280 c5 5b 6f 42 d9 f4 2b be 80 46 2f 42 b1 36 47 bc
       59.83962 -0.1679262 43.818848 -0.012159036
000290 06 61 1c bf a3 e1 a8 3d 0a 99 9b bd f6 14 de 41
       -0.61085546 0.08246162 -0.07597549 27.760235
0002a0 1d 09 44 3e a6 32 c5 bc a9 10 20 bf a7 19 ac 41
       0.19144101 -0.024072003 -0.6252542 21.512526
0002b0 f9 ad d2 3d 27 38 a5 3e 19 30 f3 bc 90 3a ac bc
       0.10287089 0.32269403 -0.02968602 -0.021024019
0002c0 99 64 4b be 0f 44 1e bf 78 a0 40 bd 24 c1 b2 40
       -0.19862594 -0.618226 -0.047028035 5.5860767
0002d0 75 5a 5f bf 57 fa 26 3f 7b d8 a5 be 0a ff b4 3f
       -0.872474 0.6522574 -0.32391724 1.4140332
0002e0 f5 f0 f1 be bb 04 be 40 0d 59 24 bf 17 5e 0e 3c
       -0.47254148 5.9380774 -0.6419838 0.008689425
0002f0 94 25 b3 bd ea 83 9b be 07 e3 45 bf 6d 6d 02 41
       -0.08747402 -0.3037408 -0.7729954 8.151715
000300 49 71 c5 40 0c 9c 16 be c7 aa 49 41 4a d6 cc bb
       6.1700788 -0.14707965 12.604194 -0.006251131
000310 0d 40 d7 bf f6 d9 a7 bd 85 e8 0c be 04 15 49 42
       -1.6816422 -0.081958696 -0.13760574 50.270523
000320 41 e6 10 bd c6 02 fa 3b 7c a6 d6 bd fa 49 15 41
       -0.035375837 0.007629725 -0.10480973 9.330561
000330 e1 87 81 bd 32 d0 31 bd 02 ce 15 ba 31 e4 0e bc
       -0.06324745 -0.04341144 -0.00057145965 -0.008721397
000340 69 a2 78 bf c5 80 9c be cd b3 1e bd 16 1f cb 40
       -0.9712282 -0.30566993 -0.03874569 6.3475447
000350 e6 6f 34 bf d9 fc 0d bd 6a e4 97 bc 09 74 0e 3f
       -0.70483243 -0.034664962 -0.018541533 0.55645806
000360 90 c7 02 bf 9f 27 88 3e 7b 19 0b bf 97 e2 04 bc
       -0.5108576 0.26592728 -0.54335755 -0.008110664
000370 79 ee 4c be 7f 38 c2 bf 87 b8 e7 bf 99 6e 5d 41
       -0.20012845 -1.5173491 -1.8103188 13.839501
000380 36 66 85 c2 bb 5d 15 bf ce 92 16 c2 d5 41 3f 3e
       -66.69963 -0.58346146 -37.643364 0.18677457
000390 7b 80 2a bf 5b bd 97 3d 33 9a 69 be 83 76 df c0
       -0.66602296 0.074091636 -0.22812729 -6.983217
0003a0 40 e7 2d be 2e 15 6e be 5f 04 95 be 7d d9 ce c0
       -0.16982746 -0.23250267 -0.29104897 -6.464049
0003b0 c6 4d d6 bd e8 06 2e 3d 32 ca c0 be 27 d7 12 3f
       -0.10464053 0.042487055 -0.37654263 0.57359546
0003c0 c0 2a b9 3f 85 20 95 3e d7 10 2f 3f cb fd 40 c2
       1.4466171 0.29126373 0.6838507 -48.247845
0003d0 1f 38 41 3f 8c d8 53 be 6b 15 14 bf 81 99 8d bf
       0.7547626 -0.20688075 -0.5784518 -1.1062471
0003e0 18 dc aa 3e 79 af 64 be 35 8a 94 3e 3a 19 8b 3e
       0.33371043 -0.22332563 0.29011694 0.27167684
0003f0 56 c1 0b bf bd 5e ca be 87 96 11 be 84 8a 41 bf
       -0.5459188 -0.39525405 -0.14217578 -0.75601983

fc2.bias f4 [32]
000000 ed 1a 3e c0 e4 47 05 c0 7f ca 26 c0 14 6f 94 bf
       -2.9703934 -2.0825129 -2.6061094 -1.1596398
000010 21 98 9c 3f 3a a9 1d 3e a2 53 8e bf d6 4c be be
       1.2233926 0.15396586 -1.1119273 -0.37167996
000020 9e 3f 07 c0 25 70 04 c0 94 4d ef bf b4 01 0d 40
       -2.113258 -2.0693448 -1.869555 2.203229
000030 d0 a4 1f bf 36 ce 97 bf 7d 2f 10 c0 db 24 8d c0
       -0.6236086 -1.1859806 -2.2528985 -4.410749
000040 94 90 e6 bf db ee 18 3f c2 93 13 40 bd 26 f8 bf
       -1.8012872 0.59739465 2.3058934 -1.9386822
000050 90 c7 0b c0 ce 6d 10 c0 55 d5 3c c0 cd 1e 79 3f
       -2.1840553 -2.256702 -2.9505208 0.97312623
000060 06 44 96 3d 8d b5 37 c0 4f a1 02 bf 9c 78 c0 bf
       0.07337193 -2.870456 -0.5102739 -1.5036807
000070 fd d6 9b 3f dc 2c 23 c0 c5 69 c0 bf 59 da be bf
       1.2174984 -2.549613 -1.5032278 -1.4910384

fc3.weight f4 [32, 32]
000000 c4 61 2b c0 de 82 27 c0 90 97 cd bc 0b ff 80 bf
       -2.6778421 -2.6173625 -0.025096685 -1.0077833
000010 4e 5e 57 bf 50 b0 c2 bf 31 58 e1 bf 62 1f 26 bf
       -0.8412827 -1.5210056 -1.7605039 -0.64891636
000020 e2 8e 81 40 b9 df 7a 3f 19 99 e6 3d 2e ce 0e c1
       4.0486917 0.97997624 0.1125967 -8.925337
000030 c9 f5 cd bd eb 63 41 bf 1a 09 40 bf 43 f2 24 be
       -0.100566454 -0.7554309 -0.7501389 -0.1610804
000040 9f e3 49 be a3 5b 55 bf 9f 98 81 bf 8a f4 15 bf
       -0.19715737 -0.8334295 -1.0124701 -0.5857626
000050 76 d5 03 be cb e7 ac be 76 e3 03 3e b5 50 15 c0
       -0.12874398 -0.33770594 0.12879738 -2.333051
000060 bd 06 ed bf 81 13 62 bf 31 12 0f be f9 c7 98 3f
       -1.8517681 -0.8831101 -0.13971783 1.1936027
000070 51 20 83 bf 30 47 6f bf b4 1e d3 3e 94 89 75 3e
       -1.0244237 -0.93468 0.41234362 0.23978263
000080 d0 e4 13 c0 9d da 26 c0 f5 0f 88 be cd e2 3e bf
       -2.3108406 -2.607093 -0.26574674 -0.7456482
000090 d9 ad 1f c0 75 84 14 c0 93 bb e8 bf f7 3b 93 be
       -2.4949858 -2.3205845 -1.8182243 -0.28756687
0000a0 2a 7c 81 3f a4 f4 d1 be 96 8e e9 3e 67 11 0c c1
       1.0116017 -0.41006958 0.45616597 -8.754249
0000b0 61 bc d9 3c 5d c8 c2 bf 0b c8 9a bf b7 82 b4 3c
       0.026579084 -1.5217396 -1.2092298 0.022034986
0000c0 8f 94 8c 3f 5c 1f cf bf 5d 6a 1e c0 4c ac b7 be
       1.0982836 -1.6181445 -2.475242 -0.3587364
0000d0 70 a9 16 be 4d aa 9d be ba a4 36 bd ba 61 27 c0
       -0.14713073 -0.30793992 -0.04459069 -2.6153398
0000e0 e2 b0 0b c0 a6 4c 03 be 7e 90 c5 bf b6 1f 07 3f
       -2.182671 -0.12822208 -1.543472 0.5278276
0000f0 dc 7e d1 bf 9f 30 ee bf d0 4b 34 be 74 6e 0d 3f
       -1.636684 -1.8608588 -0.17607045 0.55246663
000100 94 fd d9 bf 96 cc 8d bf 1a 94 85 3e 8e 6b c5 bf
       -1.7030511 -1.107806 0.26089555 -1.5423448
000110 af 6b cc bf 74 49 4a c0 0f d9 32 c0 2e d9 73 be
       -1.5970362 -3.1607332 -2.7944982 -0.23813316
000120 34 95 1c bf 84 94 eb be cb 2c 86 be 6b d9 e6 bf
       -0.61165166 -0.46011746 -0.2620605 -1.8035101
000130 18 f7 87 bd 67 a0 a6 bf 24 97 95 3f 87 9c f3 be
       -0.06638926 -1.3017701 1.168675 -0.47580358
000140 b0 c3 c9 bd 7e 93 38 bf 2f 2e 90 c0 db 30 ca 3e
       -0.098517776 -0.72100055 -4.5056376 0.394904
000150 17 fe bf be e4 74 8c be 81 a8 69 be 3f 29 62 bf
       -0.37498543 -0.2743293 -0.22818185 -0.88344187
000160 61 6d 8a bf 01 1f 10 3e b3 4b cb bf ce 23 e1 be
       -1.081463 0.14074327 -1.5882477 -0.4397263
000170 26 f5 10 c0 d6 d4 e1 bf 76 9d d7 bb e5 70 c8 bd
       -2.2649627 -1.7643077 -0.00658005 -0.09787158
000180 3e 89 52 c0 19 aa 53 c0 0f 83 74 bf 3c 87 b5 bd
       -3.2896266 -3.307257 -0.9551248 -0.088636845
000190 a9 7e 32 c0 68 78 9a bf 9d 49 b5 bf 88 b2 e0 be
       -2.7889807 -1.2067995 -1.416309 -0.4388621
0001a0 7c b6 30 3f 08 5f aa bf 6a 5a 3a bf 13 90 08 c1
       0.6902845 -1.3310251 -0.7279421 -8.535174
0001b0 a0 ee 43 bf fc 08 46 bf 7a 50 ae bf 56 d9 d2 be
       -0.7653599 -0.7735746 -1.361831 -0.4118144
0001c0 26 60 83 be f8 94 83 bf 38 bf bd bf dd f4 b0 be
       -0.25659293 -1.0279837 -1.482398 -0.34561816
0001d0 47 43 6c bf a6 1f 44 bf a0 06 d4 3d 3c 7d 23 c0
       -0.9229016 -0.7661079 0.10352826 -2.5545187
0001e0 a7 92 09 c0 0e f0 97 be 6f e0 36 bf 8c d5 82 be
       -2.149576 -0.29675335 -0.7143621 -0.25553548
0001f0 c7 c5 78 bf cf 3f d3 bf c4 01 d6 be f7 f8 8e bf
       -0.97176784 -1.6503848 -0.41798222 -1.1169728
000200 6b 7a c7 bf 22 09 cb bf 2c c9 01 bf 14 e8 c6 bf
       -1.5584234 -1.5862162 -0.5069759 -1.5539575
000210 4e c8 94 bf f8 4c 0f c0 7b 0d d1 bf 35 63 33 3e
       -1.1623628 -2.2390728 -1.6332239 0.17518313
000220 63 63 e5 3f 6e ea d8 bd 32 a0 88 3f c2 0a d9 c0
       1.7920955 -0.10591589 1.0673888 -6.782563
000230 fe de db 3c 4a c2 35 40 0d 00 59 bf a1 6d 16 bf
       0.02683973 2.8399835 -0.847657 -0.5876103
000240 01 9f 78 3f 83 59 24 bf 7b b4 0f c0 4f d4 00 be
       0.9711762 -0.64199084 -2.2453907 -0.1258099
000250 a2 d4 ce be e5 b1 45 bd fa ca 92 bf 08 31 40 c1
       -0.403966 -0.048265357 -1.1468194 -12.0119705
000260 e5 22 be c0 f0 76 a0 bf 2e d3 08 3d 96 45 bf 3f
       -5.9417596 -1.2536297 0.03340452 1.4943111
000270 95 93 0b c0 e2 dd 39 c0 d6 76 c3 3f bc ce 06 40
       -2.1808827 -2.9041677 1.5270641 2.106368
000280 bf b8 06 c0 c7 e3 10 c0 87 56 e5 be 8f 6b 80 bf
       -2.105026 -2.2639024 -0.44792578 -1.0032824
000290 b4 fa 06 c0 cd 15 16 c0 36 bf 14 c0 1c 03 65 3c
       -2.1090517 -2.3450806 -2.3241706 0.013977792
0002a0 dc 95 4b 3f 91 fa ba 3e 26 00 ae be 03 ea e2 c0
       0.7952554 0.36519292 -0.33984488 -7.091066
0002b0 b9 d4 08 bf cc c4 b3 bf d6 d4 36 bf cb 4f af be
       -0.5344959 -1.4044433 -0.7141851 -0.34240565
0002c0 95 78 53 be 4e ad 13 c0 7b ff 14 c0 79 16 95 be
       -0.20651467 -2.3074527 -2.3280933 -0.29118708
0002d0 c3 0a 46 be 36 3f 04 bf 8b 37 ff be 4c 2a fd bf
       -0.19340043 -0.5165895 -0.49847063 -1.9778533
0002e0 9f 79 ed bf 0f 80 e7 be 26 fd 5b bf c1 6f b6 3e
       -1.8552741 -0.45214888 -0.8593315 0.35632136
0002f0 0a d1 0b c0 c1 1b 4f bf d7 0c a6 be 47 e9 8b be
       -2.1846337 -0.80901724 -0.3243167 -0.27326414
000300 47 a7 96 bf 50 f3 0c c1 8d 80 0b 40 fa 76 5b 3e
       -1.1769799 -8.809402 2.179721 0.21432105
000310 f6 0f f6 bf 49 94 3b ba ed be c9 ba a7 53 19 bf
       -1.9223621 -0.000715558 -0.0015391983 -0.5989327
000320 38 d6 b9 3c cd 8f ae 40 9d f2 c6 be 0b 1b 13 3f
       0.022685155 5.455054 -0.38856974 0.5746314
000330 77 a0 93 3e 78 f1 c6 bd 1b 29 5d c0 92 fb de 41
       0.28833362 -0.09714025 -3.4556339 27.872837
000340 89 f8 e1 3d 58 a0 b7 3f 55 59 02 3e bb 4d fa 3f
       0.110337324 1.4345808 0.1272939 1.9554971
000350 f9 1f b4 40 6d a9 64 40 5f e6 83 41 71 a0 a0 3b
       5.628903 3.572841 16.487486 0.0049019386
000360 ff 10 90 3b 96 53 88 40 85 95 23 3c 7d 3b 69 3f
       0.0043965573 4.2602034 0.009984379 0.91106397
000370 12 14 a9 3f 91 b5 6b be 91 8e dc 3d a8 b2 26 bf
       1.320925 -0.23018481 0.1076938 -0.6511636
000380 4e 74 81 3f 19 a9 0c 3f bc fe f0 3b 87 ed 21 41
       1.0113618 0.5494552 0.0073545855 10.12049
000390 5f e3 3b bf 1a 12 02 c1 75 23 a0 c1 58 55 7f 41
       -0.73393816 -8.129419 -20.017313 15.958336
0003a0 81 a9 26 bf 20 00 10 bf 2f ad 05 bf 9b ff 99 bf
       -0.6510239 -0.5625019 -0.5221738 -1.203113
0003b0 f9 a2 bd be 69 e9 1d c1 36 4c 71 3d 6c a9 70 3f
       -0.370384 -9.869485 0.05891057 0.9400852
0003c0 e8 02 a9 bf 23 c0 a4 bf 1f 2a ee bf b9 1d a3 be
       -1.3204012 -1.2871135 -1.8606604 -0.31858614
0003d0 c9 53 1d bf cc 34 1f bf 51 6b 96 be 3c e7 30 3f
       -0.6145597 -0.62189937 -0.2937875 0.69102836
0003e0 74 d2 88 bf 1c 08 89 3e 29 19 ec bf 4b 3b b5 bf
       -1.0689225 0.26764 -1.8445178 -1.415872
0003f0 c9 9a 73 3e 45 ff 05 3f ed a1 1c be 6f 1e 3b be
       0.23789515 0.52342635 -0.15296145 -0.18273328

fc3.bias f4 [32]
000000 75 63 d7 bf f3 ec 29 c0 82 ff ce bf c9 e2 f9 bf
       -1.6827227 -2.6550872 -1.6171725 -1.9522334
000010 91 34 28 c0 d4 19 1b c0 04 89 7d be ac 29 cb bf
       -2.6282084 -2.4234514 -0.24759299 -1.5872092
000020 16 8c 0c c0 74 7d f3 bf 6d d2 11 be 45 a6 35 bf
       -2.1960502 -1.902266 -0.14240427 -0.7095683
000030 be 6f 95 bf 7e 41 90 bf 72 9a 07 c0 c5 9c a5 bf
       -1.1674726 -1.1269987 -2.1188016 -1.2938467
000040 77 7e dd bf 05 3f be bf 5a ce 5b bf c1 05 00 c0
       -1.7304219 -1.4862982 -0.8586174 -2.0003512
000050 d9 45 99 bf 30 49 a6 bf d2 1d 99 bf a7 88 22 c0
       -1.1974441 -1.2991085 -1.1962225 -2.5395906
000060 40 70 8b bf 99 fc 2c bf 76 53 7c bf 8c 70 3e be
       -1.0893631 -0.67572933 -0.9856485 -0.1859762
000070 59 c6 01 c0 57 9c cd bf 99 23 f4 bf ab 72 43 be
       -2.0277312 -1.6063336 -1.9073364 -0.19086711

fc4.weight f4 [20, 32]
000000 3f a2 62 40 7b cb 31 40 64 be ef bf 40 9f 87 40
       3.5411527 2.7780445 -1.8729978 4.2381897
000010 66 78 b8 3f f7 09 be 3f 3b d6 85 40 c9 35 0f c1
       1.4411743 1.4846791 4.182401 -8.950631
000020 a3 ba 52 40 7c 0e b9 3f 5e 81 f1 bf 7e 71 9e c0
       3.2926414 1.4457545 -1.8867605 -4.951354
000030 bb ad 1f c1 c8 2c 98 3e 7b 93 e2 bf fb 06 bc c0
       -9.979915 0.29721665 -1.7701257 -5.875852
000040 ad f1 1c c0 ba de 23 41 a6 d2 90 c0 86 bf 15 3f
       -2.4522507 10.241877 -4.525714 0.58495367
000050 30 08 93 40 d3 bb c6 c0 49 c7 e2 c0 3a ae d3 3f
       4.5947495 -6.2104278 -7.086827 1.6537545
000060 d3 a0 fd c0 8f 24 bf c0 cf 02 bc c0 5e ba 70 c0
       -7.925882 -5.9732127 -5.875343 -3.761375
000070 26 b3 eb 3f 98 ea df c0 3d f9 27 c0 51 17 16 40
       1.8414047 -6.997387 -2.6245873 2.3451731
000080 7d 6c 7a 40 2f dd 6b 40 3e ca c2 bf ba f8 f0 3f
       3.9128716 3.685375 -1.521797 1.8825905
000090 31 c9 11 40 48 b8 b2 3f 20 1e 15 bf 8e 0c 1b c1
       2.2779047 1.3962488 -0.5824909 -9.690565
0000a0 e5 19 15 40 7c e6 05 40 a6 6f 83 3e 17 5f 2d c0
       2.3297055 2.0921926 0.25671118 -2.7089288
0000b0 c2 a6 1f c1 04 21 eb 3f 67 77 ab 3f 67 0d b1 c0
       -9.978212 1.836945 1.3395814 -5.532886
0000c0 19 74 a2 bf 81 f9 06 c0 6f b2 b5 c0 fa 1c 0d 40
       -1.269168 -2.1089785 -5.6780314 2.2048936
0000d0 1e 2e 66 40 71 62 6b 3f ef 33 22 c1 73 87 7e 40
       3.5965648 0.91947085 -10.137679 3.9770172
0000e0 81 e7 d9 3f 66 f7 25 40 cf 60 ca bf 47 7e 6a c0
       1.7023774 2.593225 -1.5810794 -3.6639574
0000f0 ce 10 23 40 e5 c0 2c c1 81 be 21 c0 74 7b 12 40
       2.5479007 -10.797093 -2.5272524 2.288785
000100 13 00 af 3f c2 aa ed 3f c9 c8 35 be fb fd 3f 3f
       1.3671898 1.8567736 -0.17752375 0.7499692
000110 32 04 c8 3f 66 d7 c7 be ec 30 43 c0 98 87 46 c0
       1.562628 -0.39031523 -3.049861 -3.102026
000120 f7 d2 21 3e f8 04 1d be c8 a0 af 3f 47 f6 4c c0
       0.15803133 -0.15333927 1.3720942 -3.2025316
000130 6e b9 84 bf 30 b4 00 3c c5 99 0e 40 34 52 26 c0
       -1.0369089 0.00785546 2.2281353 -2.5987673
000140 33 d3 48 bf 0f a9 02 c1 2b 0e 66 c0 74 fb ce 3f
       -0.78447264 -8.166274 -3.5946147 1.6170487
000150 60 22 33 3f 5e e3 6e 40 4a 4c 84 c0 13 a8 9e 3f
       0.6997433 3.7326274 -4.1343126 1.2395042
000160 a9 85 b4 40 33 1a a3 40 90 c9 a8 3f 30 1c 74 bf
       5.641316 5.096948 1.3186512 -0.9535551
000170 b2 a0 14 3f ba aa af c0 83 29 03 c0 a1 c1 19 3f
       0.580577 -5.4895906 -2.0494087 0.6006108
000180 d7 a0 73 bf a7 84 dd bf 5a ef d2 3d 63 ec 05 c0
       -0.951673 -1.7306107 0.10299559 -2.092553
000190 67 c2 93 bd 90 0f 17 be dd cf 15 c0 08 92 1e 40
       -0.07214814 -0.1475203 -2.340812 2.477663
0001a0 55 13 50 bf 7d 4f d1 bf 7e 46 87 3f e2 98 93 bf
       -0.812795 -1.6352383 1.0568388 -1.1531031
0001b0 b4 ee 47 40 fe 00 7c bf de 31 00 40 51 cb ba 3f
       3.1239443 -0.98439014 2.0030437 1.4593297
0001c0 c6 c3 a2 3e 85 a7 ba c0 06 b0 fa be 12 8b 7b bf
       0.31789988 -5.832949 -0.4896242 -0.9825908
0001d0 12 3a 33 c0 73 1a 4e 40 b1 05 0a 40 71 06 65 bf
       -2.8004193 3.2203643 2.1565974 -0.89462954
0001e0 c6 18 a9 40 5c 5a 9a 40 64 eb 11 40 78 99 b0 3f
       5.284274 4.82353 2.279992 1.3796835
0001f0 ca da 13 bf 51 35 4e 40 9c b4 b7 be f5 a8 5b bf
       -0.5775572 3.2220042 -0.35879982 -0.8580468
000200 e4 44 25 c0 25 4b f0 bd eb 3a 0d 3f b1 5a 12 be
       -2.5823298 -0.11733083 0.55168027 -0.14292409
000210 0a d2 ba bd e8 43 d6 3e e4 6c 5e be 52 e6 80 40
       -0.09122093 0.41848683 -0.21721226 4.0281153
000220 5d 05 87 3f 5c c5 2d bf cc 0e cd 3d 00 51 3c 3c
       1.0548512 -0.6787927 0.10012588 0.011493921
000230 e8 1c 80 40 50 c1 24 3e 40 55 38 bf 4e 48 89 40
       4.0035286 0.16089368 -0.7200508 4.2900763
000240 62 a5 56 3e be b8 9f be c3 4a 5b 40 01 20 82 bf
       0.20961526 -0.31195635 3.426438 -1.0166017
000250 26 ae e2 bf 0b 8d ad 3f 3a ed 81 40 2e 58 f7 bf
       -1.7709396 1.3558668 4.0602083 -1.9323785
000260 5c 47 9b 3f 87 14 aa 3f 22 e9 f4 3f c6 0a e6 3f
       1.2131152 1.3287514 1.9133646 1.7972038
000270 30 62 3f 3e e0 e9 de 40 7e 0a 7b 3f 40 7e 8f bf
       0.186898 6.966049 0.98062885 -1.1210403
000280 ca c3 65 be fa 43 c3 bf 78 d5 b8 be 3d 3c 0a bd
       -0.22437969 -1.525512 -0.36100364 -0.033748854
000290 3c cf 1a bf 3b ff a9 3d 77 0b 9d 3f 4f 20 56 40
       -0.60472465 0.083006345 1.2269124 3.345722
0002a0 95 7b e4 bf 81 b2 11 bf 3c f7 0c bf d2 8a 4e 3e
       -1.7850214 -0.56913 -0.5506475 0.20170143
0002b0 c3 c6 dd 3f 7a 58 f6 3d 1f 8d bd 3d f4 6f 02 40
       1.7326282 0.12028594 0.09255432 2.038083
0002c0 ae 85 ac be ae 57 57 40 e8 33 ba bd c0 c2 8e bf
       -0.3369574 3.3647265 -0.090919316 -1.1153183
0002d0 9c f7 68 bf 10 58 97 bf b2 d5 b8 3f 0e 5c 69 3f
       -0.9100282 -1.182375 1.4440215 0.9115609
0002e0 9c 54 f8 bf c2 e0 1f c0 49 74 ae 3f 1c 28 40 3f
       -1.9400821 -2.4980931 1.3629237 0.750612
0002f0 70 f2 a1 bf 5d 69 50 40 b9 89 1c 3f 4b f7 f0 be
       -1.2652111 3.2564309 0.6114765 -0.4706367
000300 eb 64 7c 3f e5 2f 33 bf fa ed 5d 3e 82 e2 12 3f
       0.9859149 -0.69994956 0.21672812 0.57376873
000310 78 c9 ab be 3c 57 74 3f d9 90 9b 3f 52 4a 6f bf
       -0.33552146 0.9544561 1.2153579 -0.9347278
000320 75 f9 89 be 22 8b 62 3d 0a 41 0c bf 6d e0 8b bf
       -0.26948133 0.05530847 -0.5478674 -1.0927864
000330 6b 47 95 bf 43 3b 4e 3d 29 97 99 3d 68 b2 93 3e
       -1.166242 0.050349485 0.07499535 0.2884705
000340 13 b0 86 3d bf 33 3a 40 3b 87 b2 bf 01 32 58 3e
       0.06576552 2.9094083 -1.3947519 0.21112825
000350 c2 bc 03 40 46 0c d9 bf 76 89 cb bf 64 ef 5f 3f
       2.0583959 -1.695687 -1.5901325 0.87474656
000360 db d6 15 c0 d9 1b ec bf 5a 3f b9 bf 4b 92 da be
       -2.3412387 -1.8445998 -1.4472458 -0.42689738
000370 85 33 85 3f 6d 37 ab 3f db 9d e1 be 18 42 87 3e
       1.0406348 1.337629 -0.44065747 0.26417613
000380 08 ad 99 3e 8e 28 da be d5 bc d6 be 15 19 af 3f
       0.30014825 -0.42609066 -0.41940942 1.367953
000390 e5 1d 1b 3e ea 6d 23 be bd 1a a9 3e 03 83 38 c0
       0.15148123 -0.15959898 0.33028212 -2.8829963
0003a0 e5 ca c1 bd 42 52 c1 3f a0 b8 19 be be a7 91 bf
       -0.09462527 1.5103228 -0.15011835 -1.1379316
0003b0 25 15 8a c0 dd d9 5c bf 5e cb d2 3e 7a 27 51 bf
       -4.315081 -0.86269933 0.41170782 -0.8170086
0003c0 5b c9 46 bf ca cc 38 3f ac 2d 50 40 aa 55 ac be
       -0.77650994 0.72187483 3.2527876 -0.33659106
0003d0 13 93 a4 3e 95 e4 35 c0 dc fa 26 c0 37 df 3b 3f
       0.3214346 -2.8420765 -2.6090612 0.73387474
0003e0 f8 b5 f3 bf 91 bc 49 bf d8 ba 16 be 5e cb 54 bf
       -1.9039907 -0.78803355 -0.14719713 -0.83122814
0003f0 14 f1 b9 bf 38 82 c4 3f 71 39 4a be 6e 29 05 3f
       -1.4526696 1.535224 -0.19748475 0.5201634

fc4.bias f4 [20]
000000 e6 3d 10 bf 38 8f 6b 3f c2 90 93 3f c6 e9 eb 3e
       -0.5634445 0.9201541 1.1528552 0.46076792
000010 fd d3 95 be 94 a9 09 bf ce 0c 98 be e1 45 81 3d
       -0.29263297 -0.5377438 -0.2969727 0.063121565
000020 14 6a 72 3e f9 ee 2d 3e 06 a3 d8 3b 48 64 c7 bd
       0.23673278 0.16985692 0.006611231 -0.09735924
000030 ea b2 b7 bd c6 c5 a7 bc c2 35 16 3d ed 1d 37 3d
       -0.08969672 -0.020480048 0.03667236 0.044706274
000040 82 66 90 3c 46 22 41 bc b5 e5 a7 bc c6 37 3f bc
       0.017627005 -0.011787957 -0.020495275 -0.011671012
