transfer/dampedSpring/data/transfer_finetuning/u(-1.0)_model_weights.pth (torch, 13651 bytes, 8 tensors)

fc1.weight f4 [32, 2]
0.17582235 2.599942 0.006096483 -0.13939907 0.40484282 0.54800427 -2.029932 -0.19574529
-0.16432019 -3.1086094 -1.2968931 0.42944047 0.1968787 -0.03293698 0.23613904 3.1236296
-1.1387954 0.5478668 -2.4213736 -0.23173559 1.9865912 -0.23751652 0.0134163685 0.3046465
-1.0580328 0.26542038 -1.1027219 0.6071682 2.9247007 0.24413002 1.9964157 0.17438681
0.08331196 -0.43330076 0.87639123 -0.7758716 -2.1762183 -0.18190864 0.19801897 2.8742366
0.7593233 -1.3784842 -0.8627875 0.13647737 0.36434862 1.4770682 -0.14054942 0.007826733
0.123982534 -0.48371634 0.24847576 0.44893825 0.029789537 -2.1180112 -2.8756409 -0.2509866
0.30065778 0.06075324 -0.25496423 -2.4964097 -0.26090038 -3.4103367 0.20339704 2.1476507
00000000: c60a 343e 7365 2640 02c5 c73b a1be 0ebe
00000010: 8f47 cf3e 024a 0c3f 68ea 01c0 7471 48be
00000020: 8d43 28be 75f3 46c0 9800 a6bf 9fdf db3e
00000030: 929a 493e ede8 06bd 6fce 713e 8ce9 4740
00000040: 0cc4 91bf 0041 0c3f c9f7 1ac0 184c 6dbe
00000050: 9f48 fe3f 8837 73be 54d0 5b3c a0fa 9b3e
00000060: 9e6d 87bf 2ee5 873e fe25 8dbf 606f 1b3f
00000070: 4c2e 3b40 38fd 793e 8d8a ff3f 7592 323e
00000080: 769f aa3d 99d9 ddbe 2d5b 603f 859f 46bf
00000090: 2947 0bc0 4246 3abe 7cc5 4a3e 7ef3 3740
000000a0: 0363 423f 2c72 b0bf a4df 5cbf b9c0 0b3e
000000b0: e78b ba3e 9210 bd3f 30ec 0fbe b33b 003c
000000c0: 8eea fd3d aba9 f7be 6e70 7e3e 3cdb e53e
000000d0: 3009 f43c 7f8d 07c0 800a 38c0 5181 80be
000000e0: d1ef 993e 64d8 783d ac8a 82be 2dc5 1fc0
000000f0: bc94 85be f542 5ac0 5047 503e 1c73 0940

fc1.bias f4 [32]
4.7263584 -13.3823805 -8.117865 -3.0742435 11.972537 -13.5660515 -13.60834 1.4091287
-13.37116 3.1861362 -12.462539 -13.509321 -13.369895 -13.3704405 -12.5197115 6.99485
-14.284746 -13.49072 -13.162345 10.544598 -13.322434 -14.530492 -11.969361 -13.396812
-14.061256 -13.383177 -12.860506 8.1357975 -13.744064 6.833158 3.3977244 -11.218558
00000000: 543e 9740 3b1e 56c1 c6e2 01c1 68c0 44c0
00000010: 838f 3f41 8c0e 59c1 c3bb 59c1 545e b43f
00000020: 45f0 55c1 a8e9 4b40 8f66 47c1 2e26 58c1
00000030: 17eb 55c1 53ed 55c1 bd50 48c1 d0d5 df40
00000040: 528e 64c1 fdd9 57c1 f798 52c1 acb6 2841
00000050: b128 55c1 e57c 68c1 8182 3fc1 5859 56c1
00000060: e8fa 60c1 7e21 56c1 a2c4 4dc1 3a2c 0241
00000070: b0e7 5bc1 3ba9 da40 5174 5940 377f 33c1

fc2.weight f4 [32, 32]
0.092939615 -1.9188617 -1.6426449 4.3793473 -0.12691991 5.991443 -2.9728842 -0.0514556
2.682044 5.49237 -5.083757 -0.27201608 2.1073802 2.3130312 -50.97335 -4.1702037
0.39972895 -2.0195105 20.809088 0.002679102 0.5532585 8.797806 -7.5101314 0.15040192
1.0607785 -3.1274998 0.65962386 0.7843926 -2.630653 0.01473847 0.08819838 -0.7880768
0.041349042 -0.4891141 -0.52349865 4.7751436 0.016355388 0.75386393 -0.6119121 0.07576323
0.5439854 -0.369513 -2.144615 -0.19851977 0.43293464 0.52124256 -37.27959 -2.8668008
-0.3859701 -0.6742342 28.768848 -0.050102286 -1.9320645 1.5974036 -4.2246947 -0.0012483363
-0.5765762 -1.9228342 -1.967625 -1.3574498 -0.39151153 0.0018239699 0.038847756 -0.36778256
-0.17179427 -0.83831936 -1.2453173 -1.7505509 -0.8242837 -0.7531387 -0.6346418 0.30971825
-0.7082933 -4.759365 -1.0768234 -1.0066205 -1.0928551 -0.53901637 -3.8462906 -1.7570357
-1.0639615 -1.1430641 -0.3222315 -1.1021518 -0.636207 -0.49421814 -2.095488 -2.5269783
-0.80764246 0.6431234 -0.29637212 -4.212776 -0.3321941 -1.0554663 -2.0400138 -0.58797985
-43.814163 -0.31182626 -17.250648 -0.07418065 -0.2682175 -1.1473522 -0.11213225 -22.121649
-0.72045547 -0.28720966 -0.04485877 -13.037362 -1.1352001 -0.98442096 -0.40855363 0.41374117
1.388882 0.33659774 -1.6615099 -16.869635 0.10579562 -0.84229577 -0.35425678 -4.9043546
-0.428162 -7.3850036 -0.37095731 -0.6605055 -0.22971085 -0.19037922 -0.17262685 -5.5867844
-0.10072353 -0.77727157 -0.18678503 45.270493 -0.062496934 4.7644877 -0.8646742 0.121696115
-0.13941917 50.081818 -1.0788087 -0.316348 1.1100839 0.23430477 -5.8858137 0.09564539
1.8062127 -0.41716304 11.374807 0.041194435 0.2712149 12.822849 -0.2604187 -2.8823304
-0.4118468 -2.0560267 -0.23763813 5.815068 -1.0744004 -0.034353513 -0.14512406 -0.19592902
59.493515 -0.15395595 43.760334 -0.10387116 -0.583455 -0.072884835 -0.06477963 27.630114
0.1036591 -0.11284434 -0.83153605 21.512186 -0.0011348192 0.2573506 -0.09629805 -0.02240665
-0.17994949 -0.6074526 -0.18904024 5.3489685 -0.99509674 0.6233594 -0.30613104 1.4122808
-0.41093007 5.938258 -0.5285137 -0.005508456 -0.10093325 -0.27633816 -0.7455956 8.15172
6.003145 -0.14285447 12.541591 -0.13881637 -1.6819302 -0.08393588 -0.15136018 50.248287
-0.051500145 0.017785693 -0.5436182 9.3302555 -0.0714256 -0.059420593 -0.028559607 -0.042957596
-0.94263554 -0.032115847 -0.42206496 6.5198927 -0.25295573 -0.038075164 -0.017743004 0.5504641
-0.47359326 0.25309962 -0.4452991 -0.13488431 -0.26972982 -1.5176471 -1.8106158 13.840381
-66.80306 -0.59826916 -37.70224 0.09378657 -0.73305297 -0.043116506 -0.230968 -6.9949503
-0.24775963 -0.2764062 -0.27396208 -6.467688 -0.18502711 -0.018797938 -0.31125912 0.5528703
1.381106 0.3504063 0.19337076 -48.254272 0.8444045 -0.27384254 -0.58117294 -1.1142446
0.2063457 -0.22372358 0.12365892 0.16974092 -0.54360634 -0.46227413 -0.20921926 -0.75602996
00000000: 2057 be3d 439d f5bf 3042 d2bf 9d23 8c40
00000010: 4bf7 01be e7b9 bf40 bc43 3ec0 1bc3 52bd
00000020: 9ca6 2b40 7fc1 af40 23ae a2c0 b145 8bbe
00000030: 51df 0640 b408 1440 b6e4 4bc2 4f72 85c0
00000040: 46a9 cc3e a93f 01c0 0379 a641 df93 2f3b
00000050: 59a2 0d3f d0c3 0c41 ff52 f0c0 f602 1a3e
00000060: 97c7 873f f528 48c0 1cdd 283f f4cd 483f
00000070: 9e5c 28c0 a079 713c 5aa1 b43d 67bf 49bf
00000080: 9d5d 293d 2a6d fabe 0204 06bf facd 9840
00000090: bcfb 853c 3afd 403f 45a6 1cbf c129 9b3d
000000a0: a142 0b3f cf30 bdbe 5f41 09c0 c448 4bbe
000000b0: 9ca9 dd3e 2770 053f 4d1e 15c2 aa79 37c0
000000c0: df9d c5be 9d9a 2cbf 9a26 e641 0e38 4dbd
000000d0: e44d f7bf b977 cc3f b330 87c0 379f a3ba
000000e0: 7f9a 13bf 6e1f f6bf 23db fbbf eac0 adbf
000000f0: 3374 c8be 4612 ef3a d31e 1f3d ff4d bcbe
00000100: d6ea 2fbe 199c 56bf 8f66 9fbf 0d12 e0bf
00000110: 4204 53bf b3cd 40bf e377 22bf 6493 9e3e
00000120: b652 35bf b84c 98c0 59d5 89bf f1d8 80bf
00000130: ade2 8bbf fafc 09bf a029 76c0 8ce6 e0bf
00000140: e42f 88bf ed4f 92bf 87fb a4be 4f13 8dbf
00000150: 76de 22bf 290a fdbe 7a1c 06c0 03ba 21c0
00000160: a8c1 4ebf bca3 243f 16be 97be 10cf 86c0
00000170: 5815 aabe 8519 87bf 968f 02c0 d985 16bf
00000180: b441 2fc2 b1a7 9fbe 5401 8ac1 06ec 97bd
00000190: ce53 89be 70dc 92bf 98a5 e5bd 23f9 b0c1
000001a0: c56f 38bf 250d 93be d4bd 37bd 0999 50c1
000001b0: 3d4e 91bf 0303 7cbf f12d d1be e2d5 d33e
000001c0: e3c6 b13f 8a56 ac3e 5bac d4bf 03f5 86c1
000001d0: 60ab d83d b2a0 57bf 2561 b5be 79f0 9cc0
000001e0: 0d38 dbbe f351 ecc0 1eee bdbe e316 29bf
000001f0: 5239 6bbe c5f2 42be 18c5 30be f0c6 b2c0
00000200: 2348 cebd 45fb 46bf 9344 3fbe fc14 3542
00000210: c9fc 7fbd af76 9840 4a5b 5dbf d03b f93d
00000220: e6c3 0ebe c853 4842 6716 8abf 5df8 a1be
00000230: 3b17 8e3f 97ed 6f3e 9658 bcc0 bbe1 c33d
00000240: fa31 e73f 6596 d5be 36ff 3541 7fbb 283d
00000250: aedc 8a3e 642a 4d41 9a55 85be 1a78 38c0
00000260: 95dd d2be f195 03c0 6957 73be 0915 ba40
00000270: f485 89bf 45b6 0cbd 679b 14be 9ea1 48be
00000280: 5cf9 6d42 a1a6 1dbe 950a 2f42 67ba d4bd
00000290: 4f5d 15bf a544 95bd 2fab 84bd 790a dd41
000002a0: 394b d43d ef1a e7bd 8cdf 54bf f518 ac41
000002b0: 37be 94ba 75c3 833e e937 c5bd 278e b7bc
000002c0: ae44 38be 0382 1bbf c493 41be c02a ab40
000002d0: a9be 7ebf 7b94 1f3f 35bd 9cbe 9ec5 b43f
000002e0: 6d65 d2be 3606 be40 ad4c 07bf 4780 b4bb
000002f0: 17b6 cebd 327c 8dbe 5adf 3ebf 726d 0241
00000300: c419 c040 7148 12be 5baa 4841 e125 0ebe
00000310: 7d49 d7bf 93e6 abbd 2afe 1abe 3ffe 4842
00000320: d1f1 52bd 4db3 913c 902a 0bbf ba48 1541
00000330: 9647 92bd 0263 73bd d6f5 e9bc 4ef4 2fbd
00000340: 9050 71bf e88b 03bd e618 d8be f6a2 d040
00000350: 6a83 81be b4f4 1bbd c759 91bc 37eb 0c3f
00000360: d17a f2be 4696 813e 3efe e3be 1d1f 0abe
00000370: 071a 8abe 4342 c2bf 42c2 e7bf 3372 5d41
00000380: 2b9b 85c2 2b28 19bf 18cf 16c2 2c13 c03d
00000390: 5ca9 3bbf ef9a 30bd e082 6cbe a2d6 dfc0
000003a0: b3b4 7dbe 1d85 8dbe c244 8cbe 4df7 cec0
000003b0: bf77 3dbe 22fe 99bc 5b5d 9fbe e888 0d3f
000003c0: 15c8 b03f 7468 b33e fc02 463e 6004 41c2
000003d0: e52a 583f 1735 8cbe c0c7 14bf 919f 8ebf
000003e0: 4a4c 533e cb17 65be e340 fd3d 90d0 2d3e
000003f0: c929 0bbf 32af ecbe 933d 56be 2e8b 41bf

fc2.bias f4 [32]
-3.1124277 -2.2539525 -1.799114 -1.2010051 1.2768581 0.18136661 -1.112208 -0.43870103
-2.1048791 -1.3482089 -1.3496295 1.5124428 -0.4711248 -1.1867392 -1.5592731 -4.4004426
-1.5295792 0.65980136 2.3914359 -2.3593962 -2.1294537 -2.464028 -3.0863636 0.99754953
0.11480253 -1.5935725 -0.62021667 -2.2201195 1.1852627 -2.2636085 -1.2556406 -1.1808367
00000000: 0432 47c0 c240 10c0 5e49 e6bf 89ba 99bf
00000010: 1670 a33f 2bb8 393e d55c 8ebf 6c9d e0be
00000020: 57b6 06c0 1c92 acbf a9c0 acbf ba97 c13f
00000030: 4537 f1be 12e7 97bf 4396 c7bf 6dd0 8cc0
00000040: 40c9 c3bf bee8 283f 490d 1940 5900 17c0
00000050: f848 08c0 a2b2 1dc0 fb86 45c0 685f 7f3f
00000060: 971d eb3d 2ffa cbbf 85c6 1ebf 7016 0ec0
00000070: b0b6 973f f6de 10c0 d5b8 a0bf a825 97bf

fc3.weight f4 [32, 32]
-2.6926274 -2.6190763 -0.025070399 -1.008123 -0.8461757 -1.4862437 -1.7238616 -0.6489941
4.048556 0.97850674 0.11268315 -8.891678 -0.10056538 -0.75547713 -0.7501399 -0.16109698
-0.19713575 -0.7817633 -0.978389 -0.5857645 -0.12930629 -0.3379294 0.12888274 -2.3400192
-1.872215 -0.8829257 -0.122539 1.1935982 -0.9903776 -0.9346691 0.41239482 0.24011232
-2.3108838 -2.607093 -0.26574674 -0.7456482 -2.4954145 -2.32124 -1.8188435 -0.28756687
1.0116017 -0.41006958 0.45616597 -8.7548065 0.026579084 -1.5217398 -1.2092298 0.0220382
1.0982836 -1.618402 -2.4759157 -0.3587364 -0.14713036 -0.30793992 -0.044590753 -2.615357
-2.1826956 -0.12822208 -1.543414 0.5278276 -1.6373215 -1.8608588 -0.17607045 0.55246663
-2.7450962 -3.2646236 0.59295464 -2.3484278 0.531054 -1.414527 -0.17148788 -0.23392059
1.5794152 -0.71326035 0.72679853 -0.58638597 -0.5103922 -0.065014936 0.27196226 -0.5206391
1.4394403 -0.2713061 -3.2821205 0.25973287 -0.7780357 -0.58280784 -2.1565547 0.87746143
0.23486134 1.0034924 2.0022902 -0.3607726 -1.0622369 -4.142583 1.9051057 2.8550143
-3.2929134 -3.3072631 -0.9550796 -0.08866832 -2.7368991 -1.0899729 -1.2977895 -0.43886146
0.69002306 -1.3318222 -0.72794545 -8.418352 -0.76536095 -0.772043 -1.361831 -0.41441596
-0.25658345 -0.91441005 -1.3648704 -0.34561738 -0.9231185 -0.7662253 0.103434 -2.5542095
-2.1648762 -0.29604965 -0.63954175 -0.2555232 -0.8542282 -1.6503826 -0.41791508 -1.1169206
-1.5642166 -1.587243 -0.5069759 -1.5539575 -1.1679333 -2.2440948 -1.6383191 0.17518313
1.7919662 -0.106195025 1.0673888 -6.7876387 0.026838144 2.8395963 -0.847657 -0.5876956
0.97117615 -0.6418876 -2.2504125 -0.12581119 -0.40409473 -0.04831562 -1.1468165 -12.011979
-5.942009 -1.2536287 0.036565166 1.4943103 -2.1858497 -2.9041677 1.527064 2.1063664
-2.1055262 -2.263918 -0.44792578 -1.0032828 -2.1100173 -2.3458493 -2.3248942 0.013977023
0.7952554 0.36519292 -0.33984488 -7.0919127 -0.5344959 -1.4044446 -0.71418524 -0.34240663
-0.20651467 -2.3075197 -2.3288555 -0.29118708 -0.19340128 -0.5165895 -0.49847072 -1.9778641
-1.8553917 -0.45214888 -0.8592136 0.35632136 -2.185386 -0.80901724 -0.3243167 -0.27326414
-1.47293 -7.9045606 2.970055 0.85796815 -1.8941705 -0.019520089 -0.018721458 -0.52619416
0.33186692 7.1846886 -0.18124458 0.6275776 0.5962508 -0.4062557 -3.2292325 28.721272
-0.4340192 1.4704614 0.17753927 2.2806058 7.5466056 5.1726713 17.973553 0.0030674946
0.06709186 5.0349736 -0.02217408 -0.1398699 1.3703723 -0.33702242 -0.46746266 -0.090079784
1.0862709 0.600651 0.07252809 10.167144 -0.81097513 -8.333644 -20.355415 15.963887
-0.6510239 -0.56251925 -0.5221738 -1.2990525 -0.021052253 -9.869485 -0.6211723 1.2674465
-1.3204012 -1.4179947 -1.9559256 -0.31858447 -0.6145341 -0.6217778 -0.34247372 0.5883486
-1.1742022 0.5341741 -1.8445178 -1.415872 0.36532974 0.63077605 -0.15296145 -0.18273328
00000000: 0254 2cc0 f29e 27c0 7060 cdbc 2d0a 81bf
00000010: f89e 58bf 3c3d bebf 7fa7 dcbf 7a24 26bf
00000020: c58d 8140 6b7f 7a3f 6cc6 e63d 5044 0ec1
00000030: 39f5 cdbd f366 41bf 2b09 40bf 9bf6 24be
00000040: f4dd 49be a421 48bf b477 7abf aaf4 15bf
00000050: de68 04be 1505 adbe d6f9 033e e0c2 15c0
00000060: bea4 efbf 6b07 62bf baf5 fabd d3c7 983f
00000070: 6389 7dbf 7946 6fbf 6a25 d33e 01e0 753e
00000080: 85e5 13c0 9dda 26c0 f50f 88be cde2 3ebf
00000090: dfb4 1fc0 328f 14c0 ddcf e8bf f73b 93be
000000a0: 2a7c 813f a4f4 d1be 968e e93e b013 0cc1
000000b0: 61bc d93c 5fc8 c2bf 0bc8 9abf 7589 b43c
000000c0: 8f94 8c3f cc27 cfbf 6775 1ec0 4cac b7be
000000d0: 57a9 16be 4daa 9dbe cba4 36bd 0262 27c0
000000e0: 49b1 0bc0 a64c 03be 978e c5bf b61f 073f
000000f0: c093 d1bf 9f30 eebf d04b 34be 746e 0d3f
00000100: a8af 2fc0 98ef 50c0 e0cb 173f a44c 16c0
00000110: 28f3 073f 390f b5bf 859a 2fbe e188 6fbe
00000120: 472a ca3f 3b98 36bf 780f 3a3f 641d 16bf
00000130: 10a9 02bf 8d26 85bd a33e 8b3e 9b48 05bf
00000140: 943f b83f a2e8 8abe 430e 52c0 b5fb 843e
00000150: 592d 47bf e532 15bf fe04 0ac0 50a1 603f
00000160: 7e7f 703e 7072 803f 8625 0040 30b7 b8be
00000170: 61f7 87bf 0a90 84c0 81da f33f 8eb8 3640
00000180: 18bf 52c0 33aa 53c0 1980 74bf bc97 b5bd
00000190: 5b29 2fc0 3b84 8bbf f71d a6bf 73b2 e0be
000001a0: 5aa5 303f 2679 aabf a25a 3abf 92b1 06c1
000001b0: b2ee 43bf 9ca4 45bf 7a50 aebf 542e d4be
000001c0: e85e 83be c716 6abf 13b4 aebf c3f4 b0be
000001d0: 7e51 6cbf 5727 44bf 34d5 d33d 2b78 23c0
000001e0: 558d 0ac0 d293 97be 02b9 23bf f0d3 82be
000001f0: b3ae 5abf bd3f d3bf f7f8 d5be 41f7 8ebf
00000200: 4038 c8bf c72a cbbf 2cc9 01bf 14e8 c6bf
00000210: d77e 95bf 409f 0fc0 71b4 d1bf 3563 333e
00000220: 265f e53f c77c d9bd 32a0 883f 5634 d9c0
00000230: abdb db3c f2bb 3540 0d00 59bf 3873 16bf
00000240: 009f 783f bf52 24bf c206 10c0 a6d4 00be
00000250: 81e5 cebe 99e6 45bd e2ca 92bf 1131 40c1
00000260: f024 bec0 e876 a0bf 5bc5 153d 8f45 bf3f
00000270: f6e4 0bc0 e2dd 39c0 d576 c33f b5ce 0640
00000280: f1c0 06c0 08e4 10c0 8756 e5be 926b 80bf
00000290: 860a 07c0 6522 16c0 11cb 14c0 e2ff 643c
000002a0: dc95 4b3f 91fa ba3e 2600 aebe f3f0 e2c0
000002b0: b9d4 08bf d7c4 b3bf d8d4 36bf ec4f afbe
000002c0: 9578 53be 67ae 13c0 f80b 15c0 7916 95be
000002d0: fc0a 46be 363f 04bf 8e37 ffbe a72a fdbf
000002e0: 7a7d edbf 0f80 e7be 6cf5 5bbf c16f b63e
000002f0: 5ddd 0bc0 c11b 4fbf d70c a6be 47e9 8bbe
00000300: f888 bcbf 29f2 fcc0 6215 3e40 cda3 5b3f
00000310: 2e74 f2bf 98e8 9fbc be5d 99bc a9b4 06bf
00000320: 76ea a93e f8e8 e540 2e98 39be eda8 203f
00000330: e4a3 183f bf00 d0be bfab 4ec0 2ac5 e541
00000340: c437 debe 1438 bc3f dbcc 353e 72f5 1140
00000350: cb7d f140 8686 a540 d6c9 8f41 0508 493b
00000360: 7567 893d 811e a140 6ba6 b5bc 0e3a 0fbe
00000370: 5c68 af3f 348e acbe 4457 efbe c07b b8bd
00000380: ed0a 8b3f 44c4 193f 9b89 943d 9fac 2241
00000390: 119c 4fbf 9b56 05c1 e4d7 a2c1 156c 7f41
000003a0: 81a9 26bf 4301 10bf 2fad 05bf 5a47 a6bf
000003b0: c675 acbc 69e9 1dc1 2605 1fbf b03b a23f
000003c0: e802 a9bf da80 b5bf c55b fabf 811d a3be
000003d0: 1b52 1dbf d42c 1fbf b758 afbe 049e 163f
000003e0: 424c 96bf a2bf 083f 2919 ecbf 4b3b b5bf
000003f0: 800c bb3e 8a7a 213f eda1 1cbe 6f1e 3bbe

fc3.bias f4 [32]
-1.6487405 -2.6557605 -0.39408106 -1.8347225 -2.6332302 -2.4242134 -0.19884218 -1.6831458
-2.1960526 -1.9126844 -0.14472288 -1.1733 -1.4938056 -0.018760603 -2.1393704 -1.5649208
-1.7556788 -1.5703578 -0.572197 -2.0011284 -1.0999458 -1.3507187 -1.0623693 -2.539899
-1.1206722 -0.7264017 -0.2114782 -0.09011092 -2.0502226 -1.6641974 -1.9354424 -0.13256064
00000000: ee09 d3bf fbf7 29c0 fec4 c9be 30d8 eabf
00000010: d886 28c0 5026 1bc0 499d 4bbe 5271 d7bf
00000020: 208c 0cc0 d8d2 f4bf 3c32 14be b22e 96bf
00000030: 0635 bfbf d6af 99bc 72eb 08c0 534f c8bf
00000040: 15ba e0bf 7c01 c9bf 817b 12bf 7d12 00c0
00000050: 06cb 8cbf 5ae4 acbf b8fb 87bf b58d 22c0
00000060: 3072 8fbf 76f5 39bf be8d 58be 138c b8bd
00000070: d936 03c0 6c04 d5bf 94bc f7bf fabd 07be

fc4.weight f4 [20, 32]
3.5550885 2.7780063 -1.3118588 4.258 1.4425131 1.4845589 4.2834625 -8.996369
3.2926211 1.4452373 -1.4692448 -4.6730433 -9.700773 0.62084883 -1.7709655 -5.8136964
-2.443655 10.28549 -3.4306662 0.5805891 4.923062 -6.2236385 -6.9295745 1.6537458
-7.9404345 -5.990526 -5.356818 -3.8991237 1.8426132 -7.215776 -2.6262097 2.2125938
3.8790224 3.6852891 -0.8473018 1.8506421 2.2761798 1.3959587 -0.8290286 -8.9343
2.3296359 2.0806446 0.26909333 -2.6118407 -9.931579 1.5007988 1.3336124 -4.4150577
-1.2894034 -2.5085902 -5.686334 2.1968162 1.7608715 0.901213 -9.419397 3.9769232
1.6824199 2.571601 -0.7940466 -3.7178028 2.5416265 -8.621682 -2.541342 2.157634
1.3576183 1.8566214 -0.16312072 0.73011315 1.5579889 -0.39090854 -3.3329995 -3.695932
0.1578444 -0.16309932 1.1293223 -2.3553576 -1.0568166 -1.6155976 2.2201896 -1.9196573
-0.82998294 -8.341177 -0.5041379 1.6072626 1.0007602 3.7075393 -2.7216856 1.2393492
5.619543 5.071523 1.8347651 -0.9191083 0.573612 -5.2348022 -2.051086 0.5638105
-0.9685169 -1.7307471 0.908364 -2.0887601 -0.073344834 -0.14795499 -2.4307888 2.7031562
-0.8128881 -1.643801 0.84271926 0.52035356 3.456007 -1.1850048 1.9966674 3.5666604
0.30880496 -5.509236 2.9719367 -0.99022216 -2.1396885 3.1963246 1.1915118 -0.89473236
5.261505 4.79687 4.0178075 1.4321162 -0.5814374 6.2153926 -0.35099372 -0.82287294
-2.6221154 -0.117695056 0.48356044 -0.20123194 -0.09676911 0.4177721 -0.13205177 4.1410384
1.0547581 -0.6980997 0.045093104 -0.5226226 4.0398946 1.0074854 -0.7294311 3.7829864
0.20826481 -0.06150261 4.2642975 -1.0311486 0.5644328 1.3272945 5.5589542 -1.932529
1.1899565 1.2995232 -1.3258749 1.8291315 0.17506912 7.036922 0.97114754 -1.0677851
-0.234699 -1.5256044 0.044438533 -0.058901448 -0.608069 0.08304042 1.3548961 1.7246368
-1.785078 -0.5760655 -0.4836987 1.0170921 0.9031998 0.36542037 0.09265388 2.6878574
-0.25010166 2.9301298 0.6341488 -1.1203865 1.7975007 -1.200128 2.5092006 0.9114479
-1.9612356 -2.5221517 1.9688791 0.7404598 -1.2703791 2.5643184 0.6224926 -0.44175684
0.95179564 -0.70000696 -1.370682 0.5631861 -0.33662865 0.95409733 1.2763574 -0.034392107
-0.26953408 0.045270454 -0.4529638 -1.6678652 1.1651032 0.1033502 0.07109787 -1.0147214
0.06318717 2.9424205 -1.8218157 0.20335844 3.9775028 -1.7113373 -0.84022254 0.87466323
-2.361282 -1.866005 -2.8320777 -0.45031783 1.0374618 -1.5611124 -0.44390738 0.25285667
0.28536168 -0.42620802 0.7920063 1.3700515 0.1495777 -0.15996574 0.3039332 -2.9967084
-0.09470437 1.5032784 -0.10818035 -1.3599095 -4.317818 -1.8393122 0.40705186 -1.9089444
-0.79325634 0.10198262 1.4042441 -0.34358284 2.584522 -2.8621836 -0.60222596 0.73377955
-1.9241322 -0.8104253 -1.8292825 -0.85571486 -1.4557242 -1.0890585 -0.20397864 0.48333076
00000000: 9286 6340 dbca 3140 fdea a7bf 8941 8840
00000010: 45a4 b83f 0706 be3f 2012 8940 21f1 0fc1
00000020: 4eba 5240 89fd b83f 3710 bcbf 9289 95c0
00000030: 5e36 1bc1 f3ef 1e3f ffae e2bf cd09 bac0
00000040: d864 1cc0 5e91 2441 0990 5bc0 7da1 143f
00000050: b989 9d40 0c28 c7c0 13bf ddc0 f1ad d33f
00000060: 0a18 fec0 64b2 bfc0 0e6b abc0 3e8b 79c0
00000070: c0da eb3f a3e7 e6c0 d213 28c0 239b 0d40
00000080: e741 7840 c7db 6b40 c5e8 58bf d7e1 ec3f
00000090: eeac 1140 c6ae b23f 383b 54bf e5f2 0ec1
000000a0: c118 1540 4829 0540 9ac6 893e 6628 27c0
000000b0: bfe7 1ec1 2d1a c03f d0b3 aa3f 2748 8dc0
000000c0: 2c0b a5bf be8c 20c0 73f6 b5c0 a398 0c40
000000d0: 3d64 e13f e5b5 663f dab5 16c1 e985 7e40
000000e0: 8959 d73f 1c95 2440 a346 4bbf 7bf0 6dc0
000000f0: 02aa 2240 69f2 09c1 59a5 22c0 ad16 0a40
00000100: 70c6 ad3f c5a5 ed3f 1e09 27be b2e8 3a3f
00000110: 2e6c c73f 2a25 c8be dd4f 55c0 268a 6cc0
00000120: f6a1 213e 8203 27be a28d 903f 2ebe 16c0
00000130: c445 87bf e7cb cebf 9617 0e40 55b7 f5bf
00000140: c379 54bf 7675 05c1 2e0f 01bf c8ba cd3f
00000150: e918 803f 5348 6d40 1930 2ec0 ffa2 9e3f
00000160: 4cd3 b340 eb49 a240 95d9 ea3f ae4a 6bbf
00000170: 3cd8 123f 8083 a7c0 fe44 03c0 e355 103f
00000180: b9f0 77bf 1f89 ddbf 8b8a 683f 3fae 05c0
00000190: d135 96bd 8381 17be 0b92 1bc0 8300 2d40
000001a0: 6f19 50bf 1268 d2bf 73bc 573f e435 053f
000001b0: 382f 5d40 3dae 97bf cc92 ff3f 2a44 6440
000001c0: af1b 9e3e a94b b0c0 3634 3e40 337f 7dbf
000001d0: a8f0 08c0 9590 4c40 7583 983f 2e0d 65bf
000001e0: 405e a840 f67f 9940 e191 8040 954f b73f
000001f0: 15d9 14bf 7fe4 c640 73b5 b3be cda7 52bf
00000200: bdd0 27c0 1b0a f1bd 3c95 f73e bf0f 4ebe
00000210: e22e c6bd 3ae6 d53e 9438 07be 6383 8440
00000220: 5002 873f a9b6 32bf 8cb3 383d 98ca 05bf
00000230: d146 8140 48f5 803f ffbb 3abf 731c 7240
00000240: 5f43 553e 29ea 7bbd 2075 8840 adfc 83bf
00000250: ab7e 103f c9e4 a93f f4e2 b140 1c5d f7bf
00000260: 7f50 983f c756 a63f 45b6 a9bf fb20 ea3f
00000270: 5245 333e 772e e140 209d 783f 2fad 88bf
00000280: ef54 70be 0147 c3bf 2e05 363d a542 71bd
00000290: 69aa 1bbf 1911 aa3d 3c6d ad3f e6c0 dc3f
000002a0: 707d e4bf 0779 13bf 5ba7 f7be 1330 823f
000002b0: 1a38 673f 6118 bb3e 51c1 bd3d db05 2c40
000002c0: 530d 80be 3f87 3b40 9357 223f d368 8fbf
000002d0: 8114 e63f cb9d 99bf be96 2040 a654 693f
000002e0: c509 fbbf ef6a 21c0 3b04 fc3f c68e 3d3f
000002f0: c89b a2bf cb1d 2440 ad5b 1f3f f42d e2be
00000300: e1a8 733f a833 33bf 8272 afbf f72c 103f
00000310: 975a acbe b93f 743f ae5f a33f bdde 0cbd
00000320: 5f00 8abe 836d 393d dfea e7be 9b7c d5bf
00000330: 1a22 953f 45a9 d33d c39b 913d 64e2 81bf
00000340: 4668 813d 9e50 3c40 4231 e9bf 323d 503e
00000350: 688f 7e40 1a0d dbbf d318 57bf eee9 5f3f
00000360: 3f1f 17c0 40d9 eebf c340 35c0 0f90 e6be
00000370: 8ccb 843f 88d2 c7bf d447 e3be 6e76 813e
00000380: ed1a 923e f037 dabe edc0 4a3f d95d af3f
00000390: e62a 193e 0fce 23be 229d 9b3e 12ca 3fc0
000003a0: 5df4 c1bd 6d6b c03f a98d ddbd 8411 aebf
000003b0: 912b 8ac0 956e ebbf 1a69 d03e 4a58 f4bf
000003c0: d912 4bbf 44dc d03d 45be b33f 17ea afbe
000003d0: cf68 2540 042e 37c0 7b2b 1abf fad8 3b3f
000003e0: f749 f6bf 0878 4fbf ee25 eabf 2110 5bbf
000003f0: 2c55 babf 4566 8bbf c7df 50be 2177 f73e

fc4.bias f4 [20]
-1.1428173 0.20232178 0.14918211 -0.7128927 -1.4442279 -1.5614948 -1.2254612 -0.8587646
-0.7251716 -0.8523782 -1.0331204 -1.120656 -1.0806607 -1.0000257 -0.9574085 -0.9672634
-0.98922604 -1.0163625 -1.024373 -1.0096109
00000000: d647 92bf 712d 4f3e 32c3 183e 2380 36bf
00000010: 76dc b8bf 10df c7bf eadb 9cbf ffd7 5bbf
00000020: d9a4 39bf 7535 5abf 4a3d 84bf a871 8fbf
00000030: 1753 8abf d800 80bf b918 75bf 939e 77bf
00000040: eb3d 7dbf 2b18 82bf a81e 83bf ee3a 81bf
