transfer/dampedSpring/data/transfer_finetuning/u(1.0)_model_weights.pth (torch, 13651 bytes, 8 tensors)

fc1.weight f4 [32, 2]
0	0x3e1f9f5e	0.15588138
1	0x4023d156	2.5596519
2	0xbe5e93e3	-0.21736102
3	0xbebbb2da	-0.3665989
4	0x3d7ba32b	0.061434906
5	0x3eebfa73	0.46089515
6	0xc04901af	-3.1407278
7	0xbe5f0799	-0.21780242
8	0xbe13bf07	-0.1442834
9	0xc04d2e9b	-3.2059696
10	0xbec384a0	-0.38187122
11	0xbe27cde0	-0.16387129
12	0xbe84cdb2	-0.25938183
13	0xbf19b4b0	-0.6004133
14	0x3e358bec	0.17729157
15	0x404a48c9	3.1606925
16	0xbf0548e7	-0.52064365
17	0xbcfe0f0d	-0.031013036
18	0xc030c047	-2.7617357
19	0xbe427965	-0.18991621
20	0x3e573ac7	0.21018516
21	0xbb894519	-0.0041891453
22	0x3c5d7e93	0.013518947
23	0x3efae53e	0.49003023
24	0xbef69b43	-0.4816533
25	0xbdce084f	-0.100601785
26	0xbf011da4	-0.50435853
27	0x3ca83741	0.02053416
28	0x402fd785	2.7475293
29	0x3dba77c0	0.09104872
30	0x402efe8b	2.734286
31	0x3e0e918d	0.1392271
32	0xbd0186d4	-0.031622723
33	0xbedf1be9	-0.4357598
34	0xbeca595f	-0.3952131
35	0xbf89fb7c	-1.0779872
36	0xc033f047	-2.8115404
37	0xbdfa4135	-0.122194685
38	0x3e1224f5	0.1427191
39	0x4033b3cb	2.8078487
40	0xbec6bbef	-0.38815257
41	0xbf6d490b	-0.9268958
42	0xbf1c868f	-0.6114282
43	0xbe6bddef	-0.2303388
44	0x3eb22701	0.34795383
45	0x3dd22491	0.10260881
46	0xbd3ca301	-0.04605389
47	0x3e2b12f9	0.16706456
48	0xbecbf02e	-0.3983168
49	0xbefa9945	-0.4894506
50	0x3dba0571	0.09083069
51	0x3e6769ad	0.22598906
52	0xbef8f75f	-0.4862623
53	0xbf7effaf	-0.9960889
54	0xc038eedf	-2.8895795
55	0xbe3f5dc4	-0.18688112
56	0xbe3a7151	-0.1820729
57	0xbe8102cf	-0.25197455
58	0xbe2cb88d	-0.16867276
59	0xc042a00e	-3.041019
60	0xbe56c648	-0.20974076
61	0xc07b9d69	-3.9314826
62	0x3e224136	0.15845188
63	0x400b521c	2.1768866

fc1.bias f4 [32]
0	0x409a514d	4.8224244
1	0xc152ee2a	-13.1831455
2	0xc10f7e2f	-8.968307
3	0xc019c149	-2.4024222
4	0x413d8a85	11.846318
5	0xc1661399	-14.379785
6	0xc1541c05	-13.256841
7	0x3fcfdf5e	1.6240041
8	0xc15d09a0	-13.81485
9	0x4055213a	3.330153
10	0xc158f650	-13.560135
11	0xc1552555	-13.321614
12	0xc15ab37d	-13.66882
13	0xc15ca5e5	-13.790502
14	0xc14bc7a8	-12.736244
15	0x40c3b582	6.1159067
16	0xc1620b35	-14.127736
17	0xc14eb305	-12.918706
18	0xc146d18e	-12.426161
19	0x4129c76c	10.611187
20	0xc15a1029	-13.628945
21	0xc169ff13	-14.624774
22	0xc150b8bc	-13.045101
23	0xc15ca154	-13.789387
24	0xc15eb601	-13.919435
25	0xc15c2b74	-13.760609
26	0xc1567eea	-13.405985
27	0x40fb1b02	7.847047
28	0xc15bd1a2	-13.73868
29	0x40c29639	6.0808377
30	0x403e0de1	2.969597
31	0xc13404df	-11.251189

fc2.weight f4 [32, 32]
0	0xbc957060	-0.018242061
1	0xc017c36f	-2.3713033
2	0xbf8e3d64	-1.1112485
3	0x40924d1c	4.571913
4	0xbe9324e5	-0.28739086
5	0x40aa56bf	5.323089
6	0xc062c882	-3.543488
7	0x3d8fb322	0.07016589
8	0x3fd4b8fe	1.6618955
9	0x40a97df2	5.296624
10	0xc08de76a	-4.434499
11	0xbf6dff96	-0.9296812
12	0x3fb01c6f	1.3758677
13	0x3fa93973	1.3220657
14	0xc24a090f	-50.508846
15	0xc06db881	-3.7143862
16	0xbeebdb01	-0.46065524
17	0xc07fbb9b	-3.9958255
18	0x419f2996	19.895306
19	0x3cd47c0e	0.02593806
20	0xbfe956ec	-1.8229651
21	0x410774a4	8.465977
22	0xc0c3876a	-6.11028
23	0x3d658b5d	0.05604111
24	0x3dfff8fd	0.124986626
25	0xc016cbc4	-2.3561869
26	0xbfce3cba	-1.6112282
27	0x3f1cd274	0.61258626
28	0xc019bcba	-2.402144
29	0x3dc05200	0.0939064
30	0x3ca6208e	0.020279195
31	0xbe126b8f	-0.14298843
32	0xbbfb263a	-0.007664469
33	0xbe45a718	-0.19302022
34	0x3d4f380b	0.050590556
35	0x4093f624	4.6237965
36	0xbde48df0	-0.11159885
37	0x3f2eb541	0.6824532
38	0xbe8a26f0	-0.26982832
39	0x3d8a4073	0.06750574
40	0x3f255a0e	0.6459054
41	0xbdf00d49	-0.11721284
42	0xc01a479c	-2.4106207
43	0x3d67f061	0.056625728
44	0x3f236f30	0.63841534
45	0x3f17fe33	0.5937225
46	0xc209f8ff	-34.49316
47	0xc062a5c3	-3.5413673
48	0x3edbb5e0	0.42912197
49	0x3f0370e5	0.5134414
50	0x41e93a05	29.15333
51	0x3beec3e8	0.0072865374
52	0x3f59813e	0.8496283
53	0x3fe63a20	1.7986488
54	0xc073b4a8	-3.8079014
55	0xbc991002	-0.018684391
56	0x3f24006d	0.6406315
57	0xc00009e2	-2.0006032
58	0x3f6ded41	0.92940146
59	0xbf9182fd	-1.13681
60	0xbea1646b	-0.31521925
61	0x3d99f646	0.07517676
62	0xbd8bb93a	-0.068224385
63	0xbe23e3f7	-0.1600493
64	0xbe824320	-0.25441837
65	0xbf54d542	-0.83137906
66	0xbfa881db	-1.3164629
67	0xbfcee030	-1.6162167
68	0xbe18e91a	-0.14932671
69	0xbf40d258	-0.7532096
70	0xbf211858	-0.6292777
71	0x3dbe3ac7	0.09288555
72	0xbf355ce0	-0.7084484
73	0xc0c8004f	-6.2500377
74	0xbf506998	-0.81411123
75	0xbf854073	-1.0410293
76	0xbf8be33d	-1.0928723
77	0xbf0a10a1	-0.53931624
78	0x3f521cdf	0.82075304
79	0xbfa786c8	-1.3088007
80	0xbf851953	-1.0398353
81	0xbf91bd60	-1.1385918
82	0xbeb015bf	-0.3439159
83	0xbee5d2f3	-0.44887504
84	0xbf363124	-0.7116873
85	0xbefd3156	-0.49451703
86	0xbfce1be1	-1.6102258
87	0xc021f89e	-2.5307994
88	0xbf4c475b	-0.7979638
89	0x3f281325	0.6565421
90	0xbea4e36a	-0.32204753
91	0xc0f82122	-7.7540445
92	0xbea5111c	-0.32239616
93	0xbdee7a9e	-0.11644481
94	0x3e3c81c1	0.18408872
95	0xbdd54984	-0.104144126
96	0xc22e7f0e	-43.624077
97	0xbe9963dc	-0.29959
98	0xc18a2481	-17.267824
99	0xbd665430	-0.05623263
100	0xbe621837	-0.2207955
101	0xbf5eb2cc	-0.8699157
102	0xbe191dba	-0.14952746
103	0xc1b0e749	-22.112932
104	0xbf0a21c0	-0.5395775
105	0xbd9e640c	-0.07733926
106	0xbd52e987	-0.05149224
107	0xc15081f5	-13.031728
108	0xbf6dc4b3	-0.92878264
109	0xbf5986b1	-0.8497115
110	0x3f008236	0.50198686
111	0x3e552d02	0.2081795
112	0x3faf1679	1.3678733
113	0xbccf320f	-0.025292424
114	0xbe2523a8	-0.16126883
115	0xc187eee4	-16.991646
116	0xbe8e7e11	-0.27830556
117	0xbf3b9e64	-0.7328856
118	0xbeaabd81	-0.33347705
119	0xc09c8497	-4.8911853
120	0xbecbe43c	-0.39822567
121	0xc0ec2db2	-7.380578
122	0xbea05582	-0.31315237
123	0xbcf78aef	-0.030217616
124	0xbe8b8513	-0.27249965
125	0xbe113fb5	-0.14184459
126	0xbe02f64f	-0.12789272
127	0xc0b2c6b7	-5.586757
128	0xbdb44f6a	-0.088042095
129	0xbf0433b1	-0.51641375
130	0xbdf29849	-0.11845452
131	0x42354680	45.318848
132	0xbd024815	-0.031807024
133	0x4098b8be	4.7725515
134	0xbef700ba	-0.48242742
135	0xbdb8f064	-0.09030226
136	0xbdfa7581	-0.12229443
137	0x424d2b0a	51.29203
138	0xbf1cebea	-0.61297476
139	0xbe188d0e	-0.14897558
140	0x3f90edf6	1.132262
141	0x3e8280ad	0.25488797
142	0xc0b96749	-5.793858
143	0x3e153d2c	0.14574116
144	0x3ffa4a0a	1.9553845
145	0xbc3f0767	-0.01165948
146	0x4135ff36	11.374807
147	0xbdd045ce	-0.10169564
148	0x3f55025a	0.83206713
149	0x414d3f61	12.827973
150	0xbe7e0931	-0.24808194
151	0xc02d756c	-2.7102919
152	0xbeb3beaf	-0.35106418
153	0xbff32857	-1.8996686
154	0x3de9f1db	0.114230834
155	0x40e019d3	7.0031524
156	0xbf3a42cb	-0.7275817
157	0x3d2c2c77	0.042034592
158	0xbb2eae9b	-0.0026654366
159	0xbddb3319	-0.107031055
160	0x426f8b2a	59.885902
161	0xbe7bffcf	-0.24609302
162	0x422ec295	43.69002
163	0x3dfb2765	0.12263373
164	0xbf20dbfb	-0.62835664
165	0x3d97d1f5	0.07413093
166	0xbe16f61d	-0.14742322
167	0x41dee655	27.862467
168	0x3e35da62	0.17759088
169	0xbd4c01de	-0.04980647
170	0xbf218669	-0.6309572
171	0x41ac2130	21.516205
172	0x3daa9e70	0.08331001
173	0x3e9dc2e6	0.30812758
174	0x3e434ad9	0.19071521
175	0xbc394ed2	-0.011310296
176	0xbdad545b	-0.08463355
177	0xbf001ce6	-0.50044096
178	0x3dd3447b	0.10315796
179	0x40b04325	5.5081964
180	0xbf2fcbb8	-0.68670225
181	0x3f23cea7	0.639872
182	0xbea328fb	-0.31867203
183	0x3fb5ac12	1.4193137
184	0xbea34c4f	-0.31894156
185	0x40be3ef1	5.9451833
186	0xbee1f701	-0.44133762
187	0xbd3444a6	-0.04401078
188	0xbe03f30b	-0.12885682
189	0xbea4790c	-0.321236
190	0xbf4a5dfb	-0.7904965
191	0x41026d7f	8.151732
192	0x40c764ba	6.2310457
193	0xbe48a61a	-0.19594613
194	0x414820af	12.507979
195	0x3d07c5e5	0.03314771
196	0xbfdd6ded	-1.7299172
197	0xbdf4b36f	-0.11948287
198	0xbe53370e	-0.2062647
199	0x424a9edd	50.65514
200	0xbdcf8a22	-0.101337686
201	0x3d20e391	0.039279524
202	0xbdfdd06f	-0.12393271
203	0x41155310	9.332779
204	0xbdece673	-0.11567392
205	0xbdd1d44d	-0.10245571
206	0x3d368c75	0.044567544
207	0x3d82667a	0.06367202
208	0xbf625287	-0.88407177
209	0xbec8d5c1	-0.3922558
210	0xbdb8d714	-0.09025398
211	0x40cd47f9	6.4150357
212	0xbf324d43	-0.6964914
213	0xbdaa472e	-0.08314358
214	0xbd10278a	-0.035193957
215	0x3f0c59c8	0.54824495
216	0xbedb8b72	-0.42879826
217	0x3e87ef8a	0.2654994
218	0xbf10fbf4	-0.5663445
219	0x3c51b8d9	0.012800419
220	0xbe61b9dc	-0.22043556
221	0xbfc866a8	-1.5656328
222	0xbfede6a0	-1.8586006
223	0x415d741d	13.840848
224	0xc285a730	-66.82654
225	0xbf1a2d8e	-0.6022576
226	0xc216cf94	-37.702713
227	0x3d75f432	0.060047336
228	0xbf3f2975	-0.74672633
229	0x3d7e64e2	0.062107928
230	0xbe83a685	-0.25712982
231	0xc0df9887	-6.987369
232	0xbe4cfd21	-0.20018436
233	0xbea07caa	-0.3134511
234	0xbe96b4ed	-0.2943491
235	0xc0cedef9	-6.4647183
236	0xbe05f0ad	-0.13080092
237	0x3c87fca8	0.016599968
238	0xbe33dccf	-0.175647
239	0x3ef2f30a	0.4745105
240	0x3fabeff5	1.3432604
241	0x3e19edcf	0.15032123
242	0x3f1199c4	0.5687525
243	0xc24119df	-48.275265
244	0x3f1526c6	0.5826229
245	0xbe6d7f46	-0.23193082
246	0xbf1490b2	-0.5803329
247	0xbf8e6a68	-1.1126223
248	0x3e79067f	0.24318884
249	0xbe671e35	-0.22570117
250	0x3e0c728a	0.13715568
251	0x3e35efc6	0.17767248
252	0xbf1039f5	-0.56338435
253	0xbef386c4	-0.47563756
254	0xbe63c0c0	-0.22241497
255	0xbf418a8c	-0.7560203

fc2.bias f4 [32]
0	0xc051e835	-3.2797978
1	0xbfff3d14	-1.9940515
2	0xbfacebf0	-1.3509502
3	0xbf93d9c1	-1.1550828
4	0x3fa9da58	1.3269758
5	0x3e0bbe55	0.13646825
6	0xbf948145	-1.160195
7	0xbee79f62	-0.45238787
8	0xc001e8c2	-2.0298314
9	0xc01c8933	-2.445874
10	0xbfdcbdc6	-1.7245414
11	0x3ff74c66	1.932019
12	0xbf4800d8	-0.7812629
13	0xbf9da1f8	-1.2315054
14	0xc0157eb2	-2.3358579
15	0xc08c5f0c	-4.3866024
16	0xbfbe9e68	-1.4892092
17	0x3f0be21c	0.5464189
18	0x400f80ba	2.2422318
19	0xc02176e7	-2.5228822
20	0xc03fb6c8	-2.995531
21	0xc01672fa	-2.3507676
22	0xc0347668	-2.819727
23	0x3f82cd3f	1.0218886
24	0x3d13ded5	0.03610118
25	0xc04063cf	-3.0060918
26	0xbee106e6	-0.43950576
27	0xbfc8bf24	-1.5683331
28	0x3f9f48c1	1.2444078
29	0xc02c62ec	-2.6935377
30	0xbf8d226e	-1.1026132
31	0xbf9b23fb	-1.2120355

fc3.weight f4 [32, 32]
0	0xc02af485	-2.6711743
1	0xc0274b10	-2.6139565
2	0xbcd58e55	-0.026068846
3	0xbf80fe3c	-1.0077586
4	0xbf43899f	-0.7638187
5	0xbfbd07db	-1.4768022
6	0xbfdb2a0c	-1.7122207
7	0xbf261fb5	-0.6489213
8	0x408196e2	4.0496683
9	0x3f7adfbc	0.9799764
10	0x3de6ab64	0.11263159
11	0xc10e28ca	-8.884958
12	0xbdcde819	-0.10054035
13	0xbf40215d	-0.7505091
14	0xbf4008ca	-0.7501341
15	0xbe254334	-0.16138917
16	0xbe49d2ba	-0.19709292
17	0xbf51ae8a	-0.8190695
18	0xbf78d151	-0.9719439
19	0xbf15f46d	-0.5857609
20	0xbe03d5bd	-0.12874503
21	0xbead149c	-0.33804786
22	0x3e03b952	0.12863663
23	0xc015a4aa	-2.3381753
24	0xbfeb9d85	-1.8407446
25	0xbf621380	-0.88311005
26	0xbdddd0bb	-0.10830828
27	0x3f98ca03	1.1936649
28	0xbf7bde1d	-0.9838579
29	0xbf6f4529	-0.93464905
30	0x3ed33166	0.41248626
31	0x3e75bb9a	0.23997346
32	0xc013e489	-2.3108237
33	0xc026da99	-2.6070921
34	0xbe880fa2	-0.26574427
35	0xbf3ee2cd	-0.7456482
36	0xc01faf7e	-2.4950862
37	0xc0148422	-2.3205647
38	0xbfe8bab4	-1.8181977
39	0xbe933bf7	-0.28756687
40	0x3f817c2a	1.0116017
41	0xbed1f4a4	-0.41006958
42	0x3ee98e96	0.45616597
43	0xc10c1146	-8.754217
44	0x3cd9bc61	0.026579084
45	0xbfc2c856	-1.5217388
46	0xbf9ac80b	-1.2092298
47	0x3cb4880b	0.022037527
48	0x3f8c948f	1.0982836
49	0xbfcf1c20	-1.6180458
50	0xc01e6a59	-2.475241
51	0xbeb7ac4c	-0.3587364
52	0xbe16a970	-0.14713073
53	0xbe9daa4d	-0.30793992
54	0xbd36a40c	-0.04459004
55	0xc027615c	-2.6153173
56	0xc00bb008	-2.182619
57	0xbe034ca6	-0.12822208
58	0xbfc58fe0	-1.5434532
59	0x3f071fb6	0.5278276
60	0xbfd17f42	-1.6366961
61	0xbfee309f	-1.8608588
62	0xbe344bd0	-0.17607045
63	0x3f0d6e74	0.55246663
64	0xbfe114d6	-1.7584484
65	0xbf912ea7	-1.1342362
66	0x3e884d44	0.2662145
67	0xbfc3ae38	-1.5287542
68	0xbf9a3887	-1.2048501
69	0xc0475c25	-3.114999
70	0xc0360ed7	-2.8446558
71	0xbe710731	-0.235379
72	0xbf1c9516	-0.6116499
73	0xbeeb9484	-0.46011746
74	0xbe862cc6	-0.26206034
75	0xbfb54237	-1.4160832
76	0xbd869c79	-0.065728135
77	0xbfa6a3e7	-1.3018769
78	0x3f94ae93	1.1615776
79	0xbef44086	-0.47705477
80	0xbdc9c473	-0.09851923
81	0xbf02df90	-0.5112238
82	0xc083defb	-4.1209693
83	0x3eca30db	0.394904
84	0xbebffe19	-0.3749855
85	0xbe8c7b1b	-0.27437672
86	0xbe69c4e9	-0.22829022
87	0xbef0367c	-0.46916568
88	0xbf2ba53f	-0.6704902
89	0x3e101f01	0.14074327
90	0xbfcb830f	-1.5899371
91	0xbee123c1	-0.4397259
92	0xbfec75b6	-1.8473423
93	0xbfe1743b	-1.7613596
94	0xbbd7c13c	-0.0065843146
95	0xbdc876b5	-0.097882666
96	0xc0528b75	-3.2897618
97	0xc053a4c9	-3.3069327
98	0xbf74581e	-0.95446956
99	0xbdb58b10	-0.08864415
100	0xc032b8a2	-2.792519
101	0xbf9aec4a	-1.210336
102	0xbfb5cd21	-1.4203225
103	0xbee0b2a0	-0.4388628
104	0x3f30b499	0.6902557
105	0xbfaa5f08	-1.3310251
106	0xbf3a5a70	-0.72794247
107	0xc108a0a8	-8.539223
108	0xbf43eea8	-0.76536036
109	0xbf45ff37	-0.7734255
110	0xbfae507a	-1.361831
111	0xbed2f756	-0.41204327
112	0xbe835fd6	-0.25659055
113	0xbf83e9a8	-1.0305681
114	0xbfbe4173	-1.4863724
115	0xbeb0f4dd	-0.34561816
116	0xbf6c434b	-0.9229018
117	0xbf442490	-0.7661829
118	0x3dd4353c	0.10361716
119	0xc023855e	-2.555015
120	0xc009bcaf	-2.1521413
121	0xbe97f00e	-0.29675335
122	0xbf36d091	-0.71412
123	0xbe82d531	-0.25553277
124	0xbf79c6dd	-0.97569066
125	0xbfd33fd0	-1.6503849
126	0xbed6013c	-0.41797817
127	0xbf8ef8c2	-1.1169665
128	0xbfc71d1c	-1.5555758
129	0xbfcaeabf	-1.5852889
130	0xbf01d4bd	-0.5071524
131	0xbfc6e814	-1.5539575
132	0xbf9237bd	-1.142326
133	0xc00e5a01	-2.2242434
134	0xbfcf38c0	-1.6189194
135	0x3e336335	0.17518313
136	0x3fe56805	1.7922369
137	0xbdd8ea84	-0.10591605
138	0x3f88a03c	1.06739
139	0xc0d89144	-6.7677326
140	0x3cdbe30c	0.026841663
141	0x4035cd73	2.8406646
142	0xbf58ffc0	-0.84765244
143	0xbf166ea0	-0.5876255
144	0x3f789f4d	0.97118074
145	0xbf23fb5d	-0.64055425
146	0xc00ec2a9	-2.230631
147	0xbe00d440	-0.12580967
148	0xbeced4a2	-0.403966
149	0xbd45ef24	-0.048323765
150	0xbf92cb98	-1.1468382
151	0xc14030f3	-12.0119505
152	0xc0be2004	-5.941408
153	0xbfa076f0	-1.2536297
154	0x3d1e4ad1	0.03864557
155	0x3fbf4580	1.4943085
156	0xc00aae73	-2.1668975
157	0xc039dde2	-2.9041677
158	0x3fc3774d	1.5270783
159	0x4006cf05	2.1063855
160	0xc006b5ce	-2.1048465
161	0xc010e314	-2.2638597
162	0xbee55682	-0.44792563
163	0xbf806b99	-1.0032836
164	0xc006e6e1	-2.1078417
165	0xc015fec4	-2.3436747
166	0xc014a7cb	-2.3227413
167	0x3c6501ee	0.013977511
168	0x3f4b95e1	0.7952557
169	0x3ebafa91	0.36519292
170	0xbeae0026	-0.33984488
171	0xc0e2e050	-7.089882
172	0xbf08d4b9	-0.5344959
173	0xbfb3c49f	-1.4044379
174	0xbf36d4aa	-0.7141825
175	0xbeaf4f85	-0.34240356
176	0xbe537895	-0.20651467
177	0xc013a974	-2.3072176
178	0xc014e9fb	-2.326781
179	0xbe951679	-0.29118708
180	0xbe460ac3	-0.19340043
181	0xbf043f36	-0.5165895
182	0xbeff378b	-0.49847063
183	0xbffd2d37	-1.9779423
184	0xbfed78e9	-1.8552524
185	0xbee7800f	-0.45214888
186	0xbf5bf8c8	-0.85926485
187	0x3eb66fc1	0.35632136
188	0xc00bbb6f	-2.183315
189	0xbf4f1bbe	-0.80901706
190	0xbea60cd7	-0.3243167
191	0xbe8be947	-0.27326414
192	0xbfa41263	-1.2818111
193	0xc1045401	-8.270509
194	0x3f00a0e8	0.50245523
195	0x3e733579	0.23750867
196	0xbff93555	-1.9469401
197	0xbc4bda3d	-0.012442169
198	0xbd1b30cc	-0.037888333
199	0xbf132529	-0.57478577
200	0x3e78a86f	0.24283002
201	0x409e91e4	4.955309
202	0xbd780de0	-0.060560107
203	0x3f07abaf	0.52996343
204	0x3e933087	0.2874796
205	0x3db5517c	0.088534325
206	0xc079ca03	-3.9029548
207	0x41e071e4	28.05561
208	0x3f104f03	0.5637056
209	0x3fbfafe4	1.4975553
210	0x3dac0754	0.08399835
211	0x3fc54a3c	1.541328
212	0x40a038ae	5.006919
213	0x402a4b67	2.6608522
214	0x4184feac	16.624352
215	0x3d26d0bb	0.040726405
216	0x3d481dc5	0.048856515
217	0x406a98dc	3.6655798
218	0x3b59d5db	0.003323904
219	0x3f502e30	0.81320477
220	0x3fa34840	1.2756424
221	0x3e891ce2	0.26779848
222	0x3f16bfac	0.5888622
223	0xbf0d6a75	-0.55240566
224	0x3f3b83f0	0.73248196
225	0x3eb37de9	0.35057
226	0x3e9e0cd5	0.30869165
227	0x41219131	10.097947
228	0xbf7461e9	-0.954619
229	0xc1042f0d	-8.261487
230	0xc1a1bbf0	-20.216766
231	0x417eef2c	15.933392
232	0xbf26a981	-0.6510239
233	0xbf100020	-0.5625019
234	0xbf05ad2f	-0.5221738
235	0xbfb6103b	-1.4223703
236	0xbed381c7	-0.4130995
237	0xc11de969	-9.869485
238	0x3d2f1b36	0.04275056
239	0x3f75ea52	0.9606067
240	0xbfa902e8	-1.3204012
241	0xbe98f967	-0.2987778
242	0xc004e1bb	-2.0762775
243	0xbea31db9	-0.31858614
244	0xbf1d53c8	-0.61455965
245	0xbf1eb0cb	-0.61988515
246	0xbe94b7e3	-0.29046544
247	0x3ee6fec7	0.45116255
248	0xbfa8b948	-1.3181543
249	0x3e89118f	0.2677121
250	0xbfec1929	-1.8445178
251	0xbfb53b4b	-1.415872
252	0x3f1a1d0c	0.6020057
253	0x3eee8aad	0.46590176
254	0xbe1ca1ed	-0.15296145
255	0xbe3b1e6f	-0.18273328

fc3.bias f4 [32]
0	0xbfd2341d	-1.6422154
1	0xc029ecef	-2.6550863
2	0xbf9d6824	-1.2297406
3	0xbffa6510	-1.9562092
4	0xc0274289	-2.613436
5	0xc01b0447	-2.422136
6	0xbe966853	-0.29376468
7	0xbfe6dcdb	-1.803615
8	0xc00c90ee	-2.1963458
9	0xbff78c07	-1.9339608
10	0xbe287e5e	-0.16454455
11	0xbeeb0f8d	-0.45910302
12	0xbf9b86bb	-1.2150491
13	0xbe386595	-0.180075
14	0xc00891fb	-2.13391
15	0xbfec2b60	-1.8450737
16	0xbfcab799	-1.583728
17	0xbfc2486a	-1.5178349
18	0xbf69b6f0	-0.91294765
19	0xc001ede5	-2.030145
20	0xbf8c67f8	-1.0969229
21	0xbfa519d6	-1.289851
22	0xbf8d29fb	-1.1028436
23	0xc0228376	-2.5392737
24	0xbf95a12d	-1.1689812
25	0xbf0cd4e4	-0.55012345
26	0xbf082654	-0.53183484
27	0xbe3bd317	-0.18342243
28	0xc00182a3	-2.0235984
29	0xbfc3670b	-1.5265821
30	0xbfe1eac9	-1.7649776
31	0xbe6299a4	-0.22128922

fc4.weight f4 [20, 32]
0	0x40640a0d	3.5631135
1	0x4031cb5a	2.7780366
2	0xc00004a2	-2.0002828
3	0x4087b071	4.2402883
4	0x3fb8ec14	1.4447045
5	0x3fbe0b2e	1.4847162
6	0x4079cefa	3.9032578
7	0xc10e72fa	-8.90307
8	0x4052baa7	3.2926424
9	0x3fb9828a	1.4492962
10	0xbff1c24e	-1.8887422
11	0xc0b75418	-5.7290154
12	0xc11a2832	-9.634813
13	0x3f879216	1.0591457
14	0xbfe0b9d2	-1.7556708
15	0xc0bd6897	-5.9190173
16	0xc01fe3d9	-2.4982817
17	0x4123cafe	10.237059
18	0xc097aeaf	-4.7400737
19	0x3f166cab	0.58759564
20	0x405ca374	3.4474764
21	0xc0d8c69b	-6.774244
22	0xc1040bfd	-8.252927
23	0x3fd3aedb	1.6537737
24	0xc10754c6	-8.458197
25	0xc0d0fe92	-6.5310755
26	0xc0c8a8aa	-6.270589
27	0xc06c7a72	-3.6949735
28	0x3febdad9	1.8426162
29	0xc0de9c89	-6.9566083
30	0xc028fbde	-2.6403728
31	0x40235ad9	2.55242
32	0x407b66fc	3.9281607
33	0x406bde05	3.685426
34	0xbfcc8a49	-1.5979701
35	0x3ff157aa	1.8854878
36	0x4011fd4f	2.2810857
37	0x3fb2b7e3	1.3962368
38	0xbf2a1491	-0.6643763
39	0xc1154d4a	-9.331369
40	0x40151abb	2.3297565
41	0x400600d2	2.0938
42	0x3e950bf7	0.2911069
43	0xc01b5611	-2.427128
44	0xc11a991c	-9.66238
45	0x3fb89b3c	1.4422374
46	0x3fa9dc53	1.3270363
47	0xc0abf0b6	-5.3731337
48	0xbfa49a92	-1.2859671
49	0xc04c7107	-3.1943986
50	0xc0a0d8c5	-5.026461
51	0x400d2690	2.2054787
52	0x40437a69	3.0543463
53	0x3f473f0f	0.77830595
54	0xc10ae619	-8.681176
55	0x407e886c	3.9770765
56	0x3fb63527	1.4234971
57	0x4017dc0f	2.3728063
58	0xbfb6b93c	-1.4275279
59	0xc059f497	-3.4055536
60	0x40231e68	2.5487309
61	0xc12beae0	-10.744843
62	0xc021e415	-2.529546
63	0x4018ec66	2.3894286
64	0x3fb5b863	1.4196895
65	0x3fedb0c7	1.8569573
66	0xbe121490	-0.14265656
67	0x3f42af7d	0.76049024
68	0x3fc8958f	1.5670642
69	0xbec783ac	-0.38967645
70	0xc03c8fe0	-2.9462814
71	0xc03ffab0	-2.9996758
72	0x3e21fafc	0.15818399
73	0xbe1113e2	-0.14167741
74	0x3fb58757	1.4181927
75	0xc074daca	-3.8258538
76	0xbfb440bb	-1.4082254
77	0x3fd252fd	1.6431576
78	0x400d9669	2.2123053
79	0xc026a816	-2.6040092
80	0xbf4910a2	-0.78541005
81	0xc0fcb442	-7.897004
82	0xc068a746	-3.6352096
83	0x3fd04274	1.627028
84	0xbfb46528	-1.409337
85	0x403dd640	2.9662018
86	0xc0969940	-4.7062073
87	0x3f9eae45	1.2396933
88	0x40a2c567	5.086597
89	0x4092c259	4.586224
90	0x3f0bb95a	0.545797
91	0xbf4140ad	-0.7548931
92	0x3f163780	0.58678436
93	0xc0b85576	-5.7604322
94	0xc00506ac	-2.0785322
95	0x3f109292	0.5647365
96	0xbf601334	-0.875293
97	0xbfdd7d27	-1.7303818
98	0x3d2147a8	0.039374977
99	0xc0050000	-2.078125
100	0xbd881648	-0.06644875
101	0xbe1652d5	-0.14680035
102	0xc00c7537	-2.1946542
103	0x404b1da5	3.1736844
104	0xbf5007d5	-0.8126195
105	0xbfcf0f87	-1.6176614
106	0x3f8920b9	1.0713111
107	0x3f295ddc	0.66158843
108	0x4030618a	2.7559533
109	0x3fe5e58c	1.7960677
110	0x3ffe1ded	1.9852883
111	0x3fcacdbc	1.5844035
112	0x3e942ce9	0.28940514
113	0xc0b93473	-5.7876525
114	0x3f15ebb0	0.58562756
115	0xbf77f055	-0.9685109
116	0xc06e4585	-3.7229931
117	0x401692e6	2.352716
118	0x3d9d6ffc	0.07687375
119	0xbf64f64d	-0.89438325
120	0x4087e5d1	4.2468038
121	0x4063aa3a	3.5572648
122	0x40187653	2.382222
123	0x3fb32b4c	1.3997588
124	0xbf11c553	-0.5694172
125	0x409e532b	4.9476523
126	0xbeb5bc3b	-0.3549517
127	0xbf71338b	-0.94219273
128	0xc021b20e	-2.5264926
129	0xbdeff398	-0.11716384
130	0x3e935beb	0.28781065
131	0xbe06818e	-0.13135359
132	0xbdaf7827	-0.08567839
133	0x3ed67c64	0.41891778
134	0xbe15b106	-0.1461831
135	0x405acdce	3.4188113
136	0x3f8709e8	1.0549898
137	0xbf2ac998	-0.6671386
138	0x3db800f2	0.08984555
139	0xbed7ed20	-0.421731
140	0x405a4ab1	3.4108088
141	0x3fe80979	1.8127891
142	0xbf3b0b3c	-0.7306402
143	0x407aeefb	3.9208362
144	0x3e05434b	0.13013951
145	0x3f3094a9	0.6897684
146	0x4060f465	3.5149167
147	0xbf80f456	-1.0074565
148	0xbec5b851	-0.38617185
149	0x3eb84c08	0.35995507
150	0x3ffa3a31	1.9549009
151	0xbff75251	-1.9321996
152	0x3e831909	0.25605038
153	0xbcd6054f	-0.026125578
154	0x3f97327d	1.1812283
155	0x3fd8debc	1.6942973
156	0x3e4516d8	0.19246995
157	0x40c201ea	6.0627337
158	0x3f7937a2	0.97350514
159	0xbf960d28	-1.1722765
160	0xbe35305c	-0.17694229
161	0xbfc34064	-1.5254025
162	0xbec66596	-0.3874938
163	0xbcd7bf71	-0.026336404
164	0xbf198656	-0.59970605
165	0x3daa999e	0.083300814
166	0x3f9a2501	1.2042543
167	0x408515ea	4.158925
168	0xbfe478ae	-1.7849329
169	0xbf0f9fc9	-0.5610319
170	0xbf116b5c	-0.5680444
171	0xbf8d1fa1	-1.1025277
172	0x404f1cd1	3.2361338
173	0x3fb81694	1.438189
174	0x3dd7e40c	0.10541543
175	0x4016b848	2.3549976
176	0xbeb08f98	-0.34484553
177	0x4038f8c4	2.8901834
178	0xbf8fd44b	-1.1236662
179	0xbf8dfde9	-1.1093112
180	0xc01b6044	-2.4277506
181	0xbecf4f39	-0.4049013
182	0x406541b9	3.5821364
183	0x3f69635f	0.91167253
184	0xbfe61320	-1.7974586
185	0xc03b0012	-2.9218793
186	0x4010142c	2.2512312
187	0x3f280607	0.65634197
188	0xbfa17eaf	-1.2616786
189	0x400cb390	2.1984596
190	0x3f1e6908	0.61879015
191	0xbee82705	-0.4534227
192	0x3f82ff97	1.023425
193	0xbf332ab2	-0.6998702
194	0x3ec79163	0.3897811
195	0x3f13eb02	0.5778047
196	0xbeab3737	-0.33440563
197	0x3f74729e	0.9548739
198	0x3f939104	1.152863
199	0xbf3ad0ab	-0.7297465
200	0xbe89ef28	-0.26940274
201	0x3d8176dd	0.063214995
202	0xbf0df0bf	-0.55445474
203	0x3e1fbb45	0.15598781
204	0xbfc823b7	-1.5635899
205	0x3fceb816	1.6149929
206	0x3db36233	0.087589644
207	0x3f0f2757	0.559194
208	0x3ddefa23	0.108875535
209	0x40221dee	2.5330768
210	0xc00862ef	-2.1310384
211	0x3e5f5b29	0.21812119
212	0x3f9db0c5	1.2319571
213	0xbfcef686	-1.6168983
214	0x3e17e24d	0.1483242
215	0x3f5ff560	0.8748379
216	0xc015d8d4	-2.3413591
217	0xbfea8975	-1.8323199
218	0xbf346a1e	-0.7047442
219	0xbee6a364	-0.45046532
220	0x3f859a9e	1.043781
221	0x3ea4fde0	0.3222494
222	0xbed6571e	-0.4186334
223	0x3e9a66a2	0.30156428
224	0x3eafc354	0.3432871
225	0xbeda19f2	-0.4259792
226	0xbe9756f9	-0.29558542
227	0x3fb05027	1.377446
228	0x3e2237b7	0.15841566
229	0xbe23276e	-0.1593301
230	0x3e954918	0.2915733
231	0xc081d8e0	-4.057724
232	0xbdc19809	-0.094528265
233	0x3fc2555a	1.5182297
234	0xbe0e5467	-0.13899384
235	0xbf53fe7c	-0.8281019
236	0xc0b50253	-5.6565337
237	0x3fa45f41	1.2841569
238	0x3eddf877	0.43353626
239	0xbf58a9a1	-0.84633833
240	0xbf426bb5	-0.759456
241	0x3f02e87b	0.5113599
242	0x3edaf549	0.42765263
243	0xbea91a75	-0.33027998
244	0x3f45c919	0.77259976
245	0xbe258ae1	-0.1616626
246	0xc08a5a73	-4.323541
247	0x3f3be7cf	0.73400587
248	0x3ee0e92f	0.43927905
249	0x3fd15708	1.6354685
250	0x4024efaf	2.5771291
251	0xbf496c3f	-0.78680795
252	0xbfb965f4	-1.4484239
253	0xbfddc98d	-1.7327133
254	0xbe309221	-0.17243244
255	0x3f0e3ddc	0.5556314

fc4.bias f4 [20]
0	0xbcc9cc1c	-0.02463346
1	0x3feea9e4	1.8645597
2	0x4017871b	2.3676212
3	0x3fd66d51	1.6752111
4	0x3f41bcb7	0.7567858
5	0x3eba624e	0.36403126
6	0x3f1494b9	0.5803943
7	0x3f806b42	1.0032732
8	0x3f9f8d53	1.2465004
9	0x3f9b5b8a	1.213731
10	0x3f834b5e	1.0257375
11	0x3f65e5fb	0.8980405
12	0x3f5fab95	0.8737119
13	0x3f743f75	0.9540933
14	0x3f827948	1.0193262
15	0x3f85e8df	1.0461692
16	0x3f82897f	1.019821
17	0x3f7b9cdb	0.9828622
18	0x3f778126	0.9668144
19	0x3f79c452	0.97565186
